maddpg.pt (torch, 381359 bytes, 88 tensors)

weight f4 [64, 14]
00000000: 6108 473d dcd3 d7be 2643 083e 30db 243f
00000010: 13f2 94bf 5e2f ee3e 7f40 4fbe 14d3 8c3f
00000020: 7f7f d33e 2d71 303e d8b7 5abd 0aa0 7b3d
00000030: d9cd 863e 71cc 493f 0d51 a03e 7aa4 68bf
00000040: 2fea 14bf ab02 6e3f 28fc b6be 09ac 15bf
00000050: b401 9dbd bede a13f 3607 c6be 85be d2bb
00000060: c440 01bf a48e c73f ebcc febd 1f2a c93d
00000070: 7f5d f63e 611a a8be 8ed0 413f f11c 6d3f
00000080: d41b 95be 6e42 5d3f ae23 d13e 9400 88bf
00000090: 8810 173f 9f19 fc3f f5d3 a73e e7a0 24bf
000000a0: a569 d73e b153 433e 0310 a2be 8b55 bf3f
000000b0: 7f03 d73d c9b7 433f bb31 2bbf 38ff af3e
000000c0: 8675 1ebe d192 1c3f 424c fd3d 3dc2 0fbe
000000d0: 3a12 913d 93c2 3dbf be55 58bd 9678 193f
000000e0: 5875 4a3d 0dbc 083f 3d88 d13e 6be1 8d3f
000000f0: b3c8 d83d ef62 753e bf0c 27be bb4f d83d
00000100: 72ea 383e 2ada aabf b41b 943c e0ab c3bf
00000110: 7d42 b73d 878f 7e3f 08c7 8dbe 829d 993f
00000120: 7aa9 a13e b5cc cd3e 5441 753f a399 9bbd
00000130: 6468 86be aeee a63f 11a8 d7bd 5289 1c40
00000140: 6532 043f ef32 c1be 0db5 4d3e f03f b2bf
00000150: ef9b 1b3f cbda 63bf 994e cc3e 2e82 373f
00000160: 2cd7 383f 6948 bc3e ab49 3dbf 1aac be3e
00000170: 8e62 65bc 7091 d03f 4ae4 193e a25c 2a3f
00000180: 92c4 d33d d14a 683e 3d7d afbe 1df8 1b3d
00000190: f0af e73e f7f3 bfbd 56f8 de3d e298 5b3e
000001a0: ba1e 4a3e f78c e6be a88f dc3c 6669 9abf
000001b0: 4ed5 893e d175 f73f e865 043f ee6f cb3f
000001c0: 75d4 af3e ba5a 08bf bd11 893e 7a52 2ebe
000001d0: 7d1a 1cbf 843e 173f 129d e0bd 5143 bc3f
000001e0: 9855 dc3e f6c9 9f3f 7035 453f 0413 86be
000001f0: 78f5 9c3e 8d89 72bf a1de 5fbe f1c4 9ebf
00000200: 7350 143f 24a9 803d c8bc 21be d439 8f3e
00000210: 6c20 b53e 265e b53e 0e42 3b3f fe5a 59be
00000220: 4988 553e 82a7 11bf b2e2 fc3e 61c9 4e3f
00000230: 04e6 023e 73d6 d5bf e723 24bb 6e86 bcbe
00000240: 8047 38be f7cb a0bd 8a70 ad3e 648e b43e
00000250: 04ff 7e3d dedf 07bf b1c5 ba3e c583 093f
00000260: 2ba1 8fbe 2a76 dcbe c3cc 05bf a0e1 203f
00000270: 1a0b 8b3f 47e2 d73e 79b8 42bf 35bf 303f
00000280: eda3 003f 3756 24bf a80b 913f c54a 3b3e
00000290: c7dd a33c cd49 a23e 1e76 823f b3ca aa3e
000002a0: a673 0e3f 0924 3bbe 7070 61be e192 b23f
000002b0: ce57 0d3e eb4d e93d ec98 743e 73d6 953f
000002c0: 6210 983e b7b1 d23f 8ebb 1ebb 4c95 8c3d
000002d0: f8f1 c4bd adca 31c0 027b 83be d291 763f
000002e0: ff39 f43e 0ac5 25bd a92c 16bf 7ef0 4d3f
000002f0: 4f28 033e 7d8b f8be 6ed4 623f 72f8 1f3f
00000300: ac4b 503e c909 65be 224b 053f 7db2 033e
00000310: 611b ac3e 4a6b d1bc 94cc b13e 9736 a83f
00000320: c66b 9f3e a2f0 ba3e a88b 09bf 33cc f53e
00000330: ce15 8e3e a034 f0bf 0b8b a2be 17e7 ddbe
00000340: 1a77 1cbd 55db 433f 59ac 963d fcea b83f
00000350: ea4c 843e 832b 56be 91a2 f3bf 80b2 ac3e
00000360: 71ab 3bbe b50f 8ebd d0a6 d83e 16f5 e73e
00000370: 21c1 1bbd d05e a33e b93f 5e3e 46cb 053f
00000380: 89ac b2be 018f 993f 9085 c13e 3382 22be
00000390: 41ed c73d 84cb 853e b46e 43be 4176 533e
000003a0: 5dcb 083f 7f94 1c3f 5d9f ff3e 2af2 a23e
000003b0: 1b11 fc3e 5bad 403f dcf4 1e3f d330 0a3f
000003c0: 7ff1 0c3f d600 0bbe f599 10bf 2955 ec3e
000003d0: feb3 34be 2923 413d 32b1 313f 03ce 613f
000003e0: 73cb 06be f5e9 8dbf 8bed f33e 8108 8c3f
000003f0: 25a6 dd3d 673d a23d c7f2 393d 6f71 c03f
0.048591975 -0.42153823 0.13306865 0.64396954 -1.1636375 0.46520513 -0.20239447 1.1001916
0.4130821 0.17230673 -0.053397983 0.061431922 0.26328924 0.7882758 0.31311837 -0.9087597
-0.58169836 0.9297282 -0.35739255 -0.5846563 -0.076663405 1.26461 -0.38677377 -0.006431403
-0.5048945 1.5590405 -0.12441429 0.09822487 0.48118207 -0.32832626 0.75708854 0.92622286
-0.29122794 0.8642949 0.40847534 -1.0625176 0.590096 1.9695319 0.32778898 -0.6430802
0.42072788 0.19074894 -0.3165284 1.4947981 0.10498714 0.7645231 -0.6687276 0.34374404
-0.15474519 0.61161524 0.12368061 -0.1403894 0.070835546 -0.7412502 -0.052816145 0.59949625
0.049428314 0.5341194 0.40924254 1.1084417 0.10585155 0.23963521 -0.16313456 0.105620824
0.18058184 -1.3347828 0.018079616 -1.5286827 0.089482285 0.99437755 -0.2769091 1.2001193
0.31574613 0.40195242 0.9580281 -0.07597663 -0.2625152 1.3041589 -0.10530103 2.4458814
0.51639396 -0.37734172 0.20088597 -1.3925762 0.6078481 -0.89005727 0.39903715 0.71683013
0.72203326 0.36773995 -0.73940533 0.37240678 -0.014000548 1.6294384 0.15028492 0.66547596
0.10340227 0.2268479 -0.34275237 0.038078416 0.45251417 -0.093727045 0.1088721 0.21445039
0.19738284 -0.45029423 0.02692397 -1.2063415 0.2692055 1.933283 0.51717997 1.5893533
0.3434178 -0.5326344 0.26771346 -0.1702365 -0.6097792 0.59079766 -0.10967459 1.4708043
0.43034053 1.2483509 0.77034664 -0.26186383 0.30656028 -0.94741136 -0.2186227 -1.2403852
0.57935256 0.06282261 -0.1579467 0.27973807 0.35376298 0.35423392 0.73147666 -0.21226117
0.2085277 -0.5689622 0.49391705 0.8077603 0.12783056 -1.670607 -0.0025045814 -0.36821312
-0.17996025 -0.07851403 0.33874923 0.35264885 0.06225492 -0.5307597 0.36478952 0.5371669
-0.2805265 -0.43058902 -0.52265567 0.62844276 1.0862763 0.42164823 -0.7606273 0.6904176
0.5025013 -0.64194053 1.1331682 0.18290241 0.020003213 0.3169693 1.0192297 0.33357772
0.55645216 -0.18275465 -0.22015548 1.3951074 0.13803026 0.11391815 0.2388646 1.170607
0.297 1.6460484 -0.0024220678 0.068644136 -0.096164644 -2.7779953 -0.25679785 0.96316254
0.47700498 -0.040471114 -0.58661896 0.80445087 0.12808345 -0.4854392 0.8860539 0.6248847
0.20341367 -0.22367014 0.5206777 0.12861057 0.33614638 -0.025563855 0.34726393 1.314166
0.31136912 0.36511713 -0.53728724 0.48007354 0.2775101 -1.876606 -0.31746706 -0.4334037
-0.03819952 0.7650655 0.073570915 1.4446712 0.2583993 -0.20915036 -1.9033986 0.33729935
-0.18327118 -0.0693659 0.42314768 0.45304173 -0.03802598 0.31908274 0.21703996 0.52263296
-0.3489726 1.1996766 0.37797213 -0.1586998 0.097620495 0.26131833 -0.19085199 0.20650579
0.5343531 0.6116409 0.49926272 0.31825382 0.492318 0.7526452 0.62092376 0.5398075
0.55055994 -0.13574538 -0.5648492 0.46158722 -0.17646787 0.047152672 0.69411004 0.88204974
-0.13163547 -1.1087023 0.47642168 1.0940095 0.10822705 0.07921868 0.045397546 1.5034617

bias f4 [64]
00000000: d93a c13e 8426 95bd fc7c 0d3f f928 9dbb
00000010: 44c1 bebd bc49 983e 756d 68bc ad59 093f
00000020: 8bb3 5e3e 4324 053f 00b4 c0be 6e51 913f
00000030: 0517 283d a286 183f dc4c 61bc 3d3a 283b
00000040: e374 c43e 4eba d63e 7d4c babe 338c 2b3f
00000050: d916 9abd 7cc1 db3e aeb3 b0be 939c 07bf
00000060: c03a 0fbf d4a4 0b3f 537a 1f3f 5bc2 023f
00000070: 8ae3 95bf 0ddd 383f d2d3 963e 056f c3be
00000080: ea4f aabe 1d66 1cbd ec41 85bf af60 013e
00000090: 192c 603e 0885 4e3f 2dee 3abf 2dd5 fbbe
000000a0: 0b90 b83d 66ab 8fbc 077e 413f 9a27 283f
000000b0: dbc4 3abe b68f bf3e f318 323e 4368 bd3e
000000c0: 39e2 02bf d2ab b13e 6d2c 603e 6e00 53bf
000000d0: cf74 b53e 37ea 94be 136c ce3e ea7b 373f
000000e0: 3d8c 5d3f 9c09 49bf 3f3a 1a3f 6b28 4b3f
000000f0: a8b4 2a3f 0211 a3be 57da 89be 8e36 f5be
0.3774021 -0.07282737 0.55268836 -0.004796144 -0.09314206 0.29743755 -0.014186253 0.5365246
0.21748178 0.52008456 -0.3763733 1.1352975 0.041037578 0.59580433 -0.013751235 0.0025669478
0.38370427 0.41939014 -0.3638648 0.670108 -0.07523889 0.42921054 -0.34512085 -0.5297329
-0.5594902 0.5454838 0.62296027 0.5107781 -1.1710064 0.72212297 0.2945848 -0.3817064
-0.33264095 -0.03818332 -1.0410743 0.12634538 0.21891822 0.8067174 -0.7301968 -0.49186078
0.09011849 -0.017537784 0.7558293 0.6568543 -0.18239157 0.3741433 0.1739233 0.36993608
-0.5112644 0.347014 0.21891947 -0.8242253 0.3544068 -0.29084942 0.4031683 0.7167345
0.8654211 -0.7853029 0.60245126 0.7935855 0.6668191 -0.31848913 -0.26924393 -0.47893184

weight f4 [64, 64]
00000000: 705e 853d 5b46 00bd 53e5 ccbf a40e 9bbe
00000010: 54f9 bc3e b906 c5bf 123c 20bf b247 44bf
00000020: 1014 04c0 e013 f93e 0019 6dbe 40ce 143f
00000030: 0858 e9bf 8fe7 743e f12b 5a3f 865b 81be
00000040: f273 af3e 8338 a23e 41f1 413f 88c2 163e
00000050: 9542 043c da1f a1bd 9a4b 903e 8334 4a3f
00000060: 0ddb cf3f 4cff 253f 1398 6a3f fa89 55bf
00000070: 0cba 0b40 11da 98be 2619 2a3f d0d2 3ec0
00000080: f6f6 c2bf 8039 3cbf 2bab 0bbe f7fd 0e3f
00000090: a71c b8bd 39a7 5cbe dd59 1dc0 878c 583e
000000a0: 0b70 b03d 073b a6bf 4ba0 35bd bdb2 6a3f
000000b0: 8fe0 b0bf e183 7f3e fe4f 6bbf accb 02bf
000000c0: 7620 cf3d c7dd 153f a72d f43e 9293 5dbf
000000d0: a038 6a3f 1d37 c1bd 7719 b13e c311 0d3f
000000e0: bdb3 b8bf a179 11be 0b0c b33d 875f c6be
000000f0: 6640 0c3f b34f fcbf 5680 133f 9f58 a6bf
00000100: 603b f13e 3610 793f 6687 f53f 0ceb a43f
00000110: 9f06 433f f577 113f 035f 593f 5dda f6be
00000120: 5fb8 823e 245a d23e 6c67 03bf ea3a c2be
00000130: a975 8b3f 784c d4be e24d 74bc 7d0e 54be
00000140: eeb6 173f 0b8c 9cbe 9887 a1bf e427 1cbe
00000150: 8770 a43f 13aa 25bf b1be 703e 9bbb 8e3e
00000160: ec63 a6bf 45e0 ec3e 9540 693f 0f6e 1fbe
00000170: 6b39 913f 98b4 173f ddf2 e0be e482 383f
00000180: 771d 513f d7d5 b23e cc27 403f 4cd4 863f
00000190: f061 56bf d5b1 793d 9abe 0240 3794 b0be
000001a0: eade fdbe 0604 6f3f 4b84 703e 6eff 843e
000001b0: 7584 283e 18ab d6bd bc29 8cbf 501b 083f
000001c0: 0051 873e 2032 9b3e 9073 533f ad28 d53f
000001d0: 3578 d13e 2e2e db3e 96cb be3e 3357 8d3e
000001e0: 9bf2 9c3e 14d7 9d3f a9c3 643f 08c1 86bf
000001f0: f2df e53e 2c7a d13f 3f15 c1be 72fa ca3f
00000200: 0c6d 5e3f c4a0 0040 416d b43f 2505 893f
00000210: 1c89 1e3d 7690 4140 1203 103f 7db7 8a3f
00000220: 1374 7a3e fd11 753f ccd0 17bf 0df6 78bf
00000230: 4f3e 2d40 952f cdbe 3278 52bf 709f c8bd
00000240: a0dd 603f 8e19 9ebf f4d4 8bbf 6f6e 96bd
00000250: 57b3 bb3e 884a 253f 0317 183e 858c 1b3e
00000260: 32cc 94bf 9756 653e 4110 8a3e c9fc a03f
00000270: 40fe 213f c8f1 8a3f 4ea8 83be ce12 de3f
00000280: f45c b43f 4b91 e63f af29 a73e 1236 b93f
00000290: 85bf 953e ff0c 84be 5653 3f40 94e1 9dbf
000002a0: 089f 76be 2a35 243f 9280 7dbe 08d1 ce3e
000002b0: 8b92 b43e 7a8e f3bd f4a7 a7bf a929 ae3f
000002c0: 2a2b babd 333e 50bd cff5 3040 d23c d13f
000002d0: 48b9 c53e 1910 243f f591 633f 2cc6 a23e
000002e0: 4797 473e 0c50 0e40 66c6 303f fe75 c4bf
000002f0: 3a96 703f b45e 4740 ebc8 4ebd 75a3 773f
00000300: b177 11be 89d5 a33f 1275 45bf c90d 9b3f
00000310: 80c0 a13e da3d d6bf 603b 093d bf62 eebf
00000320: 0343 31bf b4c4 9bbf 3d38 a23e b0c0 42bc
00000330: 5563 26be e76b 053f 5d0e 833f 7b02 403d
00000340: c799 333f 74f7 c23f b497 223d 9cb8 853d
00000350: 49ba a5bf 7cf9 a1bf 4b5d 8ebe 07d4 393f
00000360: 8f3f 2c40 d815 123f d181 1f3e c033 e2bf
00000370: 11db 5140 c832 0c3e c933 2fbf 8e45 c0bf
00000380: 13c0 f1bf 8d7f 9c3f 7c0a d4bf 5257 323f
00000390: ab0b 993d 7a13 d9bc a8a8 6a3f db02 59bf
000003a0: 37f9 8f3c 4696 f0be bb9e bbbe 5626 463f
000003b0: 6316 2dbf f978 b03d cb6e 86be d6f7 b7be
000003c0: 8183 1740 b96f dc3e fa1a d7bd 38a9 883f
000003d0: 9e2c 213f a2ac 613f 3a91 133f e2b2 323f
000003e0: ed1d 61bf 1d93 03bf 4973 333f 44ef a33f
000003f0: 899e 59bf 3aae 283c c70f 04be bbb2 79be
0.06512153 -0.031317096 -1.6007484 -0.30284607 0.36908972 -1.5392677 -0.6259166 -0.766719
-2.0637245 0.48647976 -0.23154068 0.5812721 -1.822999 0.23916458 0.852233 -0.2526514
0.34268147 0.3168374 0.7575875 0.14722645 0.008072515 -0.07867403 0.2818268 0.78986377
1.6238724 0.6484268 0.91638297 -0.8341366 2.1832304 -0.2985387 0.66444623 -2.981617
-1.5231616 -0.7352524 -0.13639514 0.5585627 -0.0898984 -0.21548165 -2.4586098 0.21147357
0.086151205 -1.2986764 -0.04434232 0.9167898 -1.381853 0.24952652 -0.91918933 -0.5109203
0.10113613 0.5854153 0.4769108 -0.865533 0.9149265 -0.0943434 0.3458974 0.5510523
-1.4429852 -0.14206554 0.087425314 -0.38744757 0.54785764 -1.9711822 0.576177 -1.2995795
0.47115612 0.9729036 1.9181945 1.2884231 0.7618198 0.56823665 0.849106 -0.48213473
0.2553129 0.41084397 -0.51329684 -0.37935573 1.0895282 -0.4146459 -0.014911147 -0.20708652
0.59263504 -0.30575594 -1.2619505 -0.15249592 1.2846841 -0.6471264 0.23510243 0.27877507
-1.2999244 0.46264854 0.9111417 -0.15569328 1.1345648 0.5925994 -0.4393529 0.72074723
0.81685585 0.34928772 0.75060725 1.0533538 -0.8374319 0.06096061 2.0428834 -0.3448808
-0.49584132 0.93365514 0.23487966 0.25976127 0.16456778 -0.10481852 -1.0950236 0.53166676
0.26428986 0.3031168 0.8259821 1.6653038 0.40912023 0.4280867 0.372647 0.2760559
0.30653843 1.2331262 0.89361054 -1.0527658 0.4489742 1.6365409 -0.37711522 1.585768
0.8688514 2.0098124 1.4095842 1.0704695 0.038704976 3.0244422 0.56254685 1.0837246
0.24458341 0.9573057 -0.59302974 -0.97250444 2.706928 -0.40075365 -0.82214653 -0.09796035
0.8783817 -1.2351549 -1.0924363 -0.07345282 0.36660263 0.6456685 0.14852528 0.15190323
-1.1624815 0.22396313 0.26965526 1.2577144 0.6327858 1.0855036 -0.25714344 1.7349489
1.4090867 1.801309 0.3264899 1.4469626 0.2924768 -0.25791165 2.9894614 -1.2334466
-0.24084103 0.6414362 -0.24756077 0.40393853 0.35268053 -0.118924096 -1.309813 1.3606464
-0.09090264 -0.050840568 2.765003 1.6346686 0.3861792 0.64087063 0.8889459 0.31791818
0.19491301 2.2236357 0.6905273 -1.5348508 0.9397923 3.1151552 -0.05048458 0.9673379
-0.14205815 1.2799541 -0.7713176 1.2113582 0.31592178 -1.6737626 0.03350389 -1.8623885
-0.69242877 -1.2169404 0.3168353 -0.011886761 -0.1624883 0.5211777 1.0238758 0.046877366
0.7015652 1.5231767 0.039695457 0.06529352 -1.2947475 -1.2654262 -0.27805552 0.72589153
2.6913793 0.5706458 0.15576865 -1.7672043 3.2789958 0.13691247 -0.6843839 -1.5021226
-1.8886741 1.2226425 -1.65657 0.6966449 0.074729286 -0.026498545 0.916636 -0.8476998
0.01757489 -0.4698965 -0.3664454 0.77402246 -0.67612284 0.08616824 -0.26256403 -0.3593127
2.3674014 0.43053988 -0.10503192 1.0676641 0.62958705 0.8815404 0.57643473 0.69804204
-0.8793629 -0.5139635 0.70097786 1.2807393 -0.8500753 0.010295445 -0.12896644 -0.24384587

bias f4 [64]
00000000: a303 883d 5b80 5abe cb40 bc3d 2677 8dbe
00000010: 5f90 883d 6436 adbe 919f 25be df41 d23e
00000020: e389 e93d 84d9 a2be 539d 023b faaa d33c
00000030: e425 613e ec5f 8dbd e55a 4ebe 292b 8bbe
00000040: 5590 a73d 221c a4be d517 8ebc ae31 3c3e
00000050: 3900 0abf b41d ddbd 7587 0f3e 7b9e 05bf
00000060: dc3c f9be d2e0 143e d3a6 e3be e1c6 cbbd
00000070: 3d91 353e cecb 88bd 05ce b3bd dc18 e9be
00000080: 293b 44be f2c9 1e3f 947a b53e fbdd c9bd
00000090: 076f 8bbe 1e0c adbe d64a 123e 7d2b d23e
000000a0: 46ce 64bd a868 9a3e 1de9 5b3f b1bc 093e
000000b0: bd61 9e3d 5687 783d ee2a 3d3f 301e c2bc
000000c0: d176 2e3f f15b 853f 58c3 773f 71f0 07bf
000000d0: df35 98be 346a 763d 61d3 d53d 4c18 d3bd
000000e0: c21f 253f 13da f6bd 3ce9 89be e2e4 93be
000000f0: 6180 ff3e 1799 8b3e c5a9 59be 0bd7 59be
0.06641319 -0.21338026 0.09192046 -0.27629966 0.066681616 -0.3383056 -0.16174151 0.4106588
0.11403253 -0.31806576 0.0019930198 0.025838364 0.2198711 -0.06903061 -0.20151861 -0.27181366
0.08181826 -0.32052714 -0.017345348 0.18378326 -0.5390659 -0.10796681 0.14016517 -0.52194947
-0.48679245 0.14538887 -0.44463214 -0.099500425 0.17731185 -0.06679498 -0.087795295 -0.4552678
-0.19163193 0.62026894 0.35445082 -0.098567925 -0.27233145 -0.33798307 0.1428636 0.41048804
-0.05586078 0.3015797 0.8590258 0.13450886 0.07733486 0.06067594 0.7389363 -0.023696035
0.6815005 1.0418683 0.96782446 -0.5310126 -0.297286 0.060159877 0.10440708 -0.10307369
0.64501584 -0.12053313 -0.26935756 -0.2888556 0.49902633 0.27265236 -0.21256168 -0.21273439

weight f4 [2, 64]
00000000: ea45 b33f f610 ae3e 035d 323f aeb5 84c0
00000010: b1ac 6dc0 aa69 b1be b9e9 963f c9f9 6c40
00000020: fa4d 3b3f 6a7a 53c0 d576 c5c0 41e6 a0c0
00000030: c684 52c0 7f9d cdc0 896d 10c0 b072 39c0
00000040: 5c74 af3e e685 c43e c359 c33e c52d bbc0
00000050: 678c acc0 ccf6 61be ffc0 a83f f141 cfbf
00000060: e590 d2bf af3f bac0 0291 90c0 6f37 1a3f
00000070: c179 d13f 1f9e 46c0 9709 34c0 2240 8b3e
00000080: 9cea 85c0 5125 3e40 75f6 acc0 8a33 c8bc
00000090: 3e6a ad3e 96f7 cac0 3d8a acc0 dcaa 6140
000000a0: b35a d9bf b16c 42c0 e91b 983f 1c09 50c0
000000b0: d29c ffbf 80e4 503f 5a29 b33f 2f10 e83e
000000c0: 3302 0040 017d a43f 8fb1 c93f 5871 babf
000000d0: 105b 2fc0 c7c7 f1bf 1593 4fbd bd56 b3bf
000000e0: 21f8 f83f e5dc ef3f e6c7 44c0 78c6 6f3d
000000f0: 0878 0440 d47b 8fc0 e0ee babe 812e 1940
00000100: e550 13c0 56e7 a43e 5965 5a3f 577e 413e
00000110: b798 a5bf 643c c23f 84a7 2fc0 a95a c0be
00000120: 5d87 ef3f 9ddb 21bf 6864 e4bf 1635 3fbe
00000130: 5135 67bf 9f0f cfbf 04a6 a1bf 890f 29bf
00000140: a860 36c0 de5e f63e 2d5e 5dc0 7226 96bf
00000150: c8ed 8abf f509 09c0 9a5c e73e 83b3 eebf
00000160: 28df 0840 4d10 b73e 0f27 85bf cff3 373f
00000170: 1da5 023f 3bc2 c1bf 1e38 36be 70d9 2b40
00000180: 3a93 42c0 13d1 1ec0 5113 96bf 12fc 38bd
00000190: 25c8 de3e 90a2 0ac0 f740 f03d 0474 49c0
000001a0: 0919 95bf ed97 6bbf 5d8f 80bf 2ebb ccbf
000001b0: eaee 33bf 75b9 76bf c1da 31bf 58bc 133f
000001c0: 1233 d6bf fed4 9bbd 9b36 c2be 0431 31c0
000001d0: e83d 4e3f b34c 7bbf 71d2 04c0 fcb6 3bc0
000001e0: 9d82 36bf 8601 09c0 67fc fcbf e52c 24c0
000001f0: c0c7 b33f 3ae4 50be 0531 8fbf 88d6 ddbf
1.4005711 0.33997315 0.69673175 -4.1471777 -3.7136652 -0.34650928 1.1790076 3.7027457
0.7316586 -3.3043466 -6.170756 -5.028107 -3.2893538 -6.4254756 -2.2566855 -2.897625
0.34268463 0.38383406 0.3815442 -5.849337 -5.392139 -0.22066802 1.3183898 -1.6191999
-1.6450468 -5.820274 -4.517701 0.60240835 1.6365281 -3.103401 -2.8130853 0.27197367
-4.184889 2.9710276 -5.405085 -0.024438638 0.3387012 -6.342723 -5.391875 3.5260534
-1.6980804 -3.037884 1.1883518 -3.250556 -1.9969733 0.81598663 1.3996994 0.45324847
2.0001342 1.2850648 1.5757312 -1.456584 -2.739933 -1.8889092 -0.050677378 -1.4010845
1.9450723 1.8739287 -3.0747008 0.058538884 2.0698261 -4.4838657 -0.36510372 2.3934634
-2.3018124 0.32207745 0.85310894 0.18895851 -1.293723 1.517468 -2.7445993 -0.37569168
1.8713185 -0.6322573 -1.7843142 -0.18672594 -0.9031573 -1.6176642 -1.2628789 -0.6603933
-2.8496494 0.48119253 -3.458873 -1.1730483 -1.0853815 -2.1412327 0.45187837 -1.8648533
2.1386204 0.35754624 -1.0402545 0.718564 0.5103319 -1.51374 -0.17794845 2.6851463
-3.040236 -2.4815109 -1.1724645 -0.045162268 0.43512073 -2.166172 0.11731141 -3.147706
-1.1648265 -0.92028695 -1.0043751 -1.5994623 -0.7028643 -0.96376735 -0.69474417 0.57709265
-1.6734335 -0.076089844 -0.37932286 -2.7686167 0.8056321 -0.9816391 -2.0753443 -2.9330435
-0.7129305 -2.140718 -1.9764527 -2.5652401 1.4045334 -0.20399562 -1.1186835 -1.7331095

bias f4 [2]
00000000: e3fe 723e b797 88be
0.23730044 -0.2667825

exp_avg f4 [64, 14]
00000000: fe43 f8ba efb7 0239 5f43 1a39 8652 7aba
00000010: 2d6d 3139 5f43 1a39 37c9 d7ba b41b 263a
00000020: 3ed2 f638 5eaa 5e39 c8c6 eeb8 c478 1ab8
00000030: 3ed2 f638 3c59 84b9 1b7c 0ebb 4d3d 96ba
00000040: 5a72 e639 29fe feba 624c d13a 5a72 e639
00000050: 7c22 1dbb 5335 a63b 7b5b b839 319d 3c3a
00000060: 2982 2cba b221 9fba 7b5b b839 a9f5 d2b8
00000070: 9ecb 833a cdca 26ba 3c1f 63b7 cd0a d4b9
00000080: 5cf0 3d3a 3c1f 63b7 6e8e 2c3b b9e4 ce37
00000090: dab2 35b7 d439 d638 84aa 6e3a d3df 873a
000000a0: dab2 35b7 b835 ac38 9291 cabb 2a35 4c3b
000000b0: b1df 9b3a 506a 30bb a8d6 c73a b1df 9b3a
000000c0: 3e32 bdbb a77e d33b ea65 793a 20c7 023b
000000d0: c15d a0bb 6b32 a93a ea65 793a a070 bbb9
000000e0: 8358 473a 5214 aaba cda5 94b8 7beb 3b3a
000000f0: 6d6e a4ba cda5 94b8 5c0f d839 ff22 a439
00000100: 12d6 6db8 ca3f fe37 746c 8f3a 8980 183a
00000110: 12d6 6db8 0738 4d39 02e4 18bc 7eab 74ba
00000120: 0079 863a aa69 09bc 6e19 1c3c 0079 863a
00000130: aae5 2abc 4447 243b 0228 573a 67db f53a
00000140: 5a57 40bb 12e5 5d3b 0228 573a a64f 97ba
00000150: 4a63 0abc 8502 cdba 7962 b83a b142 bfbb
00000160: df65 f03b 7962 b83a 7b5e d7bb 244f 3f3b
00000170: fc81 933a 362e 9a3a 81d2 b2bb 9f68 483a
00000180: fc81 933a 6fe7 d139 0ae6 013b 3d77 353b
00000190: 3714 d8b8 0a66 5bbb c41b 3a3b 3714 d8b8
000001a0: c27f 523b c342 b2ba fadc acb8 00f2 e838
000001b0: 06d8 bc3a 34d2 da39 fadc acb8 249e cdb9
000001c0: 8364 483b 33f6 513b b545 80ba 22f1 373b
000001d0: f38c 6aba b545 80ba 739e 983b 044a 15bb
000001e0: 553c 4dba 9ecc 86ba 2da8 613b b159 2a3a
000001f0: 553c 4dba 9b63 0cba 58c1 80bb cb1d 14ba
00000200: 6d41 133a 9a13 e2bb 6abd 403b 6d41 133a
00000210: 037c 97ba 00c0 1e3b e49b eb39 07a6 1e3a
00000220: fc08 ddba 0d2f 83ba e49b eb39 0c50 cbb9
00000230: aca5 443b a08b 003b 0d04 18ba 4fb0 413b
00000240: 5288 cbba 0d04 18ba dfb9 7c3b 84ba b7bb
00000250: ab39 f3b9 a28e 82ba 98b6 11ba 919a 3e39
00000260: ab39 f3b9 fa03 3f39 d058 1a39 7841 a7ba
00000270: c17a c8b9 af58 433b 3c8c a3bb c17a c8b9
00000280: 34d4 24bb 898c 683b 3662 a0b9 f6e5 71ba
00000290: bfc6 8eba 511f 04bb 3662 a0b9 2e79 db39
000002a0: 3fd7 a3b9 a259 a43a e8bb 9db9 9b19 a7ba
000002b0: e3d9 a1ba e8bb 9db9 6212 193b a82a 05bb
000002c0: d85f 7cb9 d221 eab9 88b7 423a 41b4 a4ba
000002d0: d85f 7cb9 4816 f2b9 792a c53b fbf6 18bb
000002e0: 6142 95ba 549b 7f3b 2958 65bb 6142 95ba
000002f0: bf69 d63a dfff 1dba 9ed0 6eba afad 12bb
00000300: d6c4 693b e5ea 3abb 9ed0 6eba 5b7a 0e3a
00000310: be33 c43a f5b9 98bb 0dd9 6237 7e99 c03a
00000320: 14c2 4aba 0dd9 6237 80e3 00b9 6593 463b
00000330: c87a 3537 bbb7 b439 d08c 923a bddd a13a
00000340: c87a 3537 5313 a637 226b 0e3b c8ef 03ba
00000350: 5fc7 a3b9 2140 86b9 0579 b23a 5fc7 a3b9
00000360: 43b0 2b39 cf21 7bb8 e505 83b9 77fc 3fba
00000370: a7c7 873a ea94 b8ba e505 83b9 edd1 ff38
00000380: 1941 193a cb96 1939 a816 3bb8 cd8b e93a
00000390: ba9e 13bb a816 3bb8 a07d af3a 6534 343a
000003a0: dcab 15b8 8a29 41b9 6e9e df39 8ae4 d8ba
000003b0: dcab 15b8 9c41 cb39 7cf3 d43b 3a53 2bba
000003c0: 3f0e 19ba bec9 953b 198b 57bb 3f0e 19ba
000003d0: 7cb5 983b 6233 1cbb a8e3 f4b9 6384 d3ba
000003e0: 6881 8a3a 3ae4 16ba a8e3 f4b9 f1a1 db3a
000003f0: b39e 6739 dd81 a73a 3086 4939 3608 64ba
-0.0018941162 0.00012466287 0.00014711682 -0.000954904 0.00016920707 0.00014711682 -0.0016463165 0.00063365255
0.00011769355 0.00021235037 -0.0001138575 -3.6828933e-05 0.00011769355 -0.00025243487 -0.0021741453 -0.0011462361
0.00043954217 -0.0019454408 0.0015968198 0.00043954217 -0.0023976853 0.0050722747 0.00035163373 0.0007195054
-0.00065806747 -0.0012140779 0.00035163373 -0.00010059338 0.001005519 -0.0006362617 -1.3537527e-05 -0.00040443838
0.0007245594 -1.3537527e-05 0.0026330012 2.4663621e-05 -1.0830083e-05 0.000102150865 0.00091043883 0.0010366387
-1.0830083e-05 8.211605e-05 -0.006181904 0.0031159618 0.0011892227 -0.0026918836 0.0015246468 0.0011892227
-0.0057738116 0.006454307 0.00095137826 0.0019955114 -0.004893989 0.0012908702 0.00095137826 -0.00035751332
0.0007604437 -0.0012976027 -7.088073e-05 0.0007168573 -0.0012545116 -7.088073e-05 0.00041210174 0.00031306592
-5.670457e-05 3.0308864e-05 0.0010942356 0.0005817493 -5.670457e-05 0.00019571195 -0.009331705 -0.00093334157
0.001025945 -0.008387009 0.009527547 0.001025945 -0.010430733 0.0025066892 0.0008207561 0.0018757404
-0.002934894 0.003385846 0.0008207561 -0.0011544123 -0.008446524 -0.001564101 0.0014067433 -0.0058368077
0.0073363627 0.0014067433 -0.0065725422 0.0029191459 0.0011253948 0.001176304 -0.005457223 0.0007644984
0.0011253948 0.00040036018 0.0019820952 0.002768948 -0.00010303448 -0.0033477568 0.0028397897 -0.00010303448
0.0032119607 -0.0013600219 -8.242759e-05 0.00011107698 0.0014407642 0.00041736814 -8.242759e-05 -0.0003921847
0.0030577488 0.0032037615 -0.0009786399 0.002806731 -0.00089473947 -0.0009786399 0.0046575605 -0.0022779712
-0.00078291196 -0.0010284369 0.0034432516 0.00064983504 -0.00078291196 -0.00053554185 -0.0039292984 -0.00056501915
0.0005617354 -0.0068993093 0.0029409775 0.0005617354 -0.0011557344 0.0024223328 0.0004493884 0.00060519617
-0.001686364 -0.0010008529 0.0004493884 -0.00038778817 0.0030005975 0.0019614473 -0.00057989435 0.002955455
-0.0015528298 -0.00057989435 0.0038562936 -0.005606951 -0.00046391538 -0.0009960721 -0.00055585196 0.00018177392
-0.00046391538 0.00018216661 0.0001471967 -0.00127606 -0.0003823843 0.0029807498 -0.0049910825 -0.0003823843
-0.0025150897 0.0035484156 -0.0003059075 -0.0009227687 -0.0010892971 -0.0020160268 -0.0003059075 0.0004186122
-0.00031250154 0.001253892 -0.00030085375 -0.001274872 -0.001234826 -0.00030085375 0.0023356904 -0.0020319615
-0.00024068297 -0.00044657156 0.0007427861 -0.0012565927 -0.00024068297 -0.00046174438 0.006017026 -0.0023340571
-0.001138758 0.0039002495 -0.0034995175 -0.001138758 0.0016358419 -0.00060272025 -0.0009110066 -0.0022381356
0.0035670302 -0.0028521356 -0.0009110066 0.00054351025 0.0014969034 -0.0046608397 1.3521186e-05 0.0014694182
-0.00077346084 1.3521186e-05 -0.00012291782 0.0030300256 1.0817028e-05 0.00034469165 0.0011180881 0.0012349408
1.0817028e-05 1.979774e-05 0.0021731337 -0.00050329836 -0.00031238326 -0.0002560625 0.0013616389 -0.00031238326
0.00016373493 -5.987455e-05 -0.0002499066 -0.0007323692 0.0010359184 -0.0014082466 -0.0002499066 0.00012198449
0.0005846187 0.00014647392 -4.4605375e-05 0.0017818153 -0.0022525028 -4.4605375e-05 0.001338888 0.00068742625
-3.5684425e-05 -0.00018421389 0.00042651914 -0.0016547602 -3.5684425e-05 0.0003876806 0.006498752 -0.0006535534
-0.00058386096 0.0045711687 -0.0032889305 -0.00058386096 0.0046603065 -0.0023834337 -0.00046708924 -0.0016137477
0.001056713 -0.00057560543 -0.00046708924 0.0016756636 0.00022088997 0.0012779791 0.00019218842 -0.0008698733

exp_avg_sq f4 [64, 14]
00000000: 8317 5539 beb0 a638 649f 4537 a1d3 5039
00000010: b214 8f38 649f 4537 141e 8539 c1d2 cd38
00000020: d6f4 fc36 362c be36 c725 7239 3f8a 2939
00000030: d6f4 fc36 7e48 0c37 eb5e b138 5d99 8338
00000040: eaeb 9c36 6c44 aa38 865c 5738 eaeb 9c36
00000050: 4c1b d038 bc2b 9138 12dc 4836 1c3e 6436
00000060: e3f4 9938 27fd e437 12dc 4836 7bca 1c36
00000070: 4b79 cb38 f1e1 5238 3503 ee36 85ef d838
00000080: 446d 4038 3503 ee36 c915 0739 6c8d 9438
00000090: f953 9836 1f1d d136 dcc0 e338 a04f 9b38
000000a0: f953 9836 5f50 9236 6ef8 1f3b 62f9 813a
000000b0: 8a8d fd38 d78c 2b3b 3fa3 d939 8a8d fd38
000000c0: 64ab 323b 8212 653a 1746 a238 2130 2338
000000d0: 9125 1e3b 384d ed3a 1746 a238 d105 b138
000000e0: 30de 8739 137d 1d39 ec48 6437 5cf6 8439
000000f0: 0392 7c38 ec48 6437 5298 9739 6d00 fd38
00000100: 2e1a 1237 dbd5 8636 df4e 9939 ff23 7739
00000110: 2e1a 1237 0768 5337 71dd e43a 6e09 633a
00000120: f66b c138 3135 f33a cf2b 443a f66b c138
00000130: 3ae7 043b c4b2 713a 7194 7738 9b09 6238
00000140: 3419 db3a 0087 703a 7194 7738 b0cb 4f38
00000150: a772 8a39 3419 0839 2a33 7937 08ed 9439
00000160: f9cd 2d39 2a33 7937 c6f7 b339 1a7c 4839
00000170: e47c 1f37 f58d 5a37 38d8 7339 0074 e938
00000180: e47c 1f37 82c5 c036 ebbe a339 ccda 5539
00000190: 0526 9437 2abd a039 6cc6 4a39 0526 9437
000001a0: 7031 aa39 42be 4439 65a1 3d37 6347 5337
000001b0: 3a46 a639 614f d538 65a1 3d37 273c 2437
000001c0: 7f3e fa38 2f9d d138 c434 0037 96df 0339
000001d0: 6256 9a38 c434 0037 c526 2139 f83a a138
000001e0: a81a a436 fb4e b836 cd98 0139 c19c 9738
000001f0: a81a a436 8c9d a236 206c bf39 6ce8 4639
00000200: 54d1 ad37 bdc8 ca39 8dd0 4739 54d1 ad37
00000210: e4b3 cf39 f226 9f39 877c 5e37 6f73 7b37
00000220: 45f3 ad39 7358 3839 877c 5e37 b40d 2737
00000230: 968c a339 068d a739 ec83 9a37 f714 b239
00000240: d066 5039 ec83 9a37 4939 b639 e179 6439
00000250: 95c7 4537 64bd 8337 2fb8 8639 6912 0139
00000260: 95c7 4537 d74d d336 51a8 063a f230 8a39
00000270: ed9c e137 6930 ee39 e261 5939 ed9c e137
00000280: 83b8 fa39 a7e9 4c39 7c64 9037 12bc a137
00000290: 447d e839 2b77 7839 7c64 9037 f6f1 7237
000002a0: ad80 a238 70da da38 3f29 2937 d896 9238
000002b0: 0b05 0e39 3f29 2937 9fc4 0239 892a d938
000002c0: a686 d836 f9ac 1f37 0cad f738 b563 a638
000002d0: a686 d836 0479 0637 1b96 e03a 7e17 4c3a
000002e0: c2c8 b038 9198 f03a 110a a039 c2c8 b038
000002f0: df2d f13a 79bd 163a a248 6238 4b16 f237
00000300: 843a d83a ef84 a23a a248 6238 83ef 7238
00000310: 0743 5f39 a441 1f39 096a 8037 2bd4 0f39
00000320: 512f 1439 096a 8037 1e11 9639 7af2 1339
00000330: da5e 2437 5f34 1037 2ac5 9b39 ebb9 1e39
00000340: da5e 2437 77c7 7337 254d 6539 7ab0 e038
00000350: 6621 3837 825f 7539 46e2 eb37 6621 3837
00000360: 691d 8139 4d19 a338 d8af eb36 0ed3 5c36
00000370: 84e4 6939 6b55 3639 d8af eb36 a9be 0537
00000380: 3222 0039 de09 6338 0cd1 de36 7c00 0739
00000390: b243 4138 0cd1 de36 e615 1239 5b19 7638
000003a0: 3d9a 8e36 02f7 5136 5792 0239 7686 cc38
000003b0: 3d9a 8e36 2d64 a036 41ed 8d3b 18ad f03a
000003c0: 46aa 6839 f9f4 9e3b cd3f 4b3a 46aa 6839
000003d0: 7601 a23b 1f60 e83a d5e7 1439 2464 a038
000003e0: 6ace 8f3b ea92 583b d5e7 1439 bfe5 1e39
000003f0: 05e2 5839 d82e e138 b8d0 3f37 17db 2a39
0.00020322022 7.9484176e-05 1.1779226e-05 0.00019915264 6.822626e-05 1.1779226e-05 0.00025390147 9.814418e-05
7.538688e-06 5.667588e-06 0.00023092992 0.00016168597 7.538688e-06 8.361529e-06 8.4576975e-05 6.275133e-05
4.6766263e-06 8.118976e-05 5.1346164e-05 4.6766263e-06 9.923297e-05 6.922285e-05 2.993042e-06 3.40108e-06
7.341222e-05 2.7297601e-05 2.993042e-06 2.336367e-06 9.702387e-05 5.0278326e-05 7.093326e-06 0.000103442966
4.587813e-05 7.093326e-06 0.00012882719 7.083532e-05 4.5397287e-06 6.2320755e-06 0.00010860126 7.405807e-05
4.5397287e-06 4.3604955e-06 0.002440955 0.0009916241 0.00012090344 0.0026176476 0.00041511093 0.00012090344
0.0027262801 0.00087384146 7.737817e-05 3.8907052e-05 0.0024131278 0.0018104678 7.737817e-05 8.441101e-05
0.0002591475 0.0001501928 1.36068375e-05 0.00025360554 6.0217466e-05 1.36068375e-05 0.00028914452 0.000120640594
8.708374e-06 4.0184073e-06 0.00029241198 0.00023569165 8.708374e-06 1.2600801e-05 0.0017461014 0.0008660768
9.2230664e-05 0.0018555281 0.00074833346 9.2230664e-05 0.0020279423 0.00092200586 5.9027636e-05 5.3891545e-05
0.0016715885 0.000917539 5.9027636e-05 4.9542345e-05 0.00026406834 0.0001297936 1.4853469e-05 0.00028405362
0.00016575296 1.4853469e-05 0.00034326146 0.00019119718 9.506217e-06 1.30268645e-05 0.00023254834 0.000111319125
9.506217e-06 5.745039e-06 0.00031232028 0.00020394771 1.7660679e-05 0.00030658516 0.00019338139 1.7660679e-05
0.0003246176 0.00018762893 1.13028555e-05 1.2593201e-05 0.0003171431 0.00010171417 1.13028555e-05 9.789167e-06
0.0001193257 9.995174e-05 7.64168e-06 0.00012576426 7.359382e-05 7.64168e-06 0.00015368599 7.688062e-05
4.890684e-06 5.492822e-06 0.00012359321 7.229439e-05 4.890684e-06 4.846317e-06 0.00036510918 0.00018969335
2.0720683e-05 0.00038678004 0.0001905581 2.0720683e-05 0.00039616146 0.0003035586 1.3261225e-05 1.4987642e-05
0.0003317838 0.00017580557 1.3261225e-05 9.957166e-06 0.00031194527 0.00031957793 1.8419662e-05 0.00033966426
0.00019874726 1.8419662e-05 0.00034756426 0.00021789178 1.1788584e-05 1.5704609e-05 0.000256957 0.00012309257
1.1788584e-05 6.297352e-06 0.00051367754 0.00026357878 2.6895164e-05 0.00045430966 0.00020731197 2.6895164e-05
0.00047821188 0.00019541998 1.721293e-05 1.9280273e-05 0.00044343818 0.00023695517 1.721293e-05 1.448066e-05
7.74873e-05 0.00010435737 1.0082788e-05 6.989919e-05 0.00013544054 1.0082788e-05 0.00012471013 0.00010355289
6.452977e-06 9.517412e-06 0.0001181011 7.934069e-05 6.452977e-06 8.015199e-06 0.0017134579 0.0007785483
8.429728e-05 0.0018356015 0.00030525078 8.429728e-05 0.0018400511 0.00057502795 5.3950243e-05 2.8859029e-05
0.0016496931 0.0012399236 5.3950243e-05 5.792036e-05 0.00021291907 0.00015187875 1.5308166e-05 0.00013716581
0.00014132007 1.5308166e-05 0.00028622983 0.00014109342 9.797246e-06 8.595262e-06 0.00029710802 0.00015137314
9.797246e-06 1.453037e-05 0.0002186788 0.00010714024 1.0975031e-05 0.000234006 2.811955e-05 1.0975031e-05
0.0002462671 7.777158e-05 7.0240167e-06 3.2905405e-06 0.0002230574 0.00017388693 7.0240167e-06 7.971809e-06
0.0001221977 5.4130207e-05 6.640452e-06 0.00012874784 4.6077832e-05 6.640452e-06 0.00013931803 5.8674585e-05
4.2498855e-06 3.1287204e-06 0.00012452282 9.752523e-05 4.2498855e-06 4.7800336e-06 0.0043312614 0.0018362133
0.00022188676 0.0048509804 0.00077533425 0.00022188676 0.004944022 0.0017728842 0.00014200744 7.648047e-05
0.00438862 0.0033046552 0.00014200744 0.00015153641 0.00020683564 0.000107375614 1.1433083e-05 0.0001629408

exp_avg f4 [64]
00000000: 5543 1a39 5972 e639 2f20 63b7 b1df 9b3a
00000010: bca5 94b8 ff78 863a 7962 b83a 3114 d8b8
00000020: b545 80ba 6f41 133a 0b04 18ba c87a c8b9
00000030: e9bb 9db9 5f42 95ba 2dd9 6237 5fc7 a3b9
00000040: b916 3bb8 4d0e 19ba 3486 4939 1bca 96b8
00000050: 1014 dfb9 70ab 9db9 1f83 103a 04b6 b4b5
00000060: e5ef 2e3a 3870 24b9 b122 f03a d32b 833a
00000070: 38d3 41b9 e909 6f3a 4451 94ba 27d9 6d39
00000080: 6b11 9eb9 dc49 61b9 962c f0b8 d84e 8b3a
00000090: 543d 68b9 5bba 8539 1a68 87b9 96ae d4b9
000000a0: d11a 0438 d65b d438 4b39 55ba 16f3 2bba
000000b0: 7f47 62ba ef39 82ba c0d1 9e39 7a2d 4b3a
000000c0: 5592 933a ec17 433a dfa4 e639 1d94 783a
000000d0: 988b 5c38 ad18 2f3a ec52 7c39 17fa 793a
000000e0: ea2f 0839 4166 19b8 0118 113a e213 8fb9
000000f0: deff 0dba 0623 ae39 cf32 0fba 4acc fab8
0.00014711668 0.00043954214 -1.3537748e-05 0.0011892227 -7.0880604e-05 0.0010259448 0.0014067433 -0.000103034436
-0.0009786399 0.00056173553 -0.00057989423 -0.00038238452 -0.00030085378 -0.0011387578 1.3521215e-05 -0.00031238326
-4.4605436e-05 -0.0005838618 0.00019218848 -7.1902025e-05 -0.00042548822 -0.00030073104 0.00055127026 -1.3464019e-06
0.00066733203 -0.00015682064 0.0018320886 0.0010007567 -0.000184846 0.0009118603 -0.0011315723 0.00022682977
-0.00030149086 -0.00021485187 -0.000114523966 0.0010628356 -0.0002214809 0.00025506582 -0.00025826768 -0.00040565868
3.1496227e-05 0.000101260535 -0.00081338425 -0.0006559355 -0.00086318696 -0.0009935478 0.00030292384 0.0007750612
0.001125882 0.00074422243 0.00043991857 0.000948252 5.2582094e-05 0.0006679397 0.00024063484 0.00095358625
0.0001298782 -3.6573274e-05 0.0005534888 -0.000272899 -0.00054168503 0.0003321396 -0.0005462588 -0.00011958981

exp_avg_sq f4 [64]
00000000: 659f 4537 eaeb 9c36 3503 ee36 898d fd38
00000010: ed48 6437 f76b c138 2733 7937 0726 9437
00000020: c434 0037 55d1 ad37 ec83 9a37 ed9c e137
00000030: 3f29 2937 c2c8 b038 086a 8037 6521 3837
00000040: 0cd1 de36 46aa 6839 b9d0 3f37 0097 d436
00000050: ba40 2436 1658 b637 b627 8d36 068e a035
00000060: ef3d 4138 9dd3 8936 4fa1 c937 7083 6037
00000070: 2189 6736 c5c2 8e38 8f4e bb37 eb60 1837
00000080: 6dfc 8b36 c68e d736 5b38 0735 57c8 3c38
00000090: 1427 4237 02d4 8537 4577 2037 a61b d536
000000a0: c5f2 8b37 3e56 6938 d1a7 f536 65c4 0b38
000000b0: c186 7437 151b 8438 994d 0937 3c4c c636
000000c0: cd03 4438 cdae ba36 46d2 6c37 b94a 0038
000000d0: 31c2 8936 8be8 1236 4bc2 6b37 ef42 9037
000000e0: 5898 4037 79ee f335 2c45 c836 c7ad 0e37
000000f0: 3021 4837 841c 0137 3e7c b037 e780 b236
1.1779227e-05 4.6766263e-06 7.093326e-06 0.00012090343 1.3606838e-05 9.223067e-05 1.4853466e-05 1.7660683e-05
7.64168e-06 2.0720685e-05 1.8419662e-05 2.6895164e-05 1.0082788e-05 8.429728e-05 1.5308164e-05 1.097503e-05
6.640452e-06 0.00022188676 1.1433084e-05 6.335671e-06 2.447558e-06 2.1737109e-05 4.2067504e-06 1.1962263e-06
4.6072466e-05 4.107553e-06 2.4036182e-05 1.3382043e-05 3.4501502e-06 6.807366e-05 2.2328719e-05 9.0824715e-06
4.171909e-06 6.4241203e-06 5.0373427e-07 4.5009274e-05 1.15724e-05 1.595356e-05 9.564513e-06 6.3511134e-06
1.668314e-05 5.563185e-05 7.3211054e-06 3.332309e-05 1.4574908e-05 6.299295e-05 8.183903e-06 5.9097347e-06
4.673358e-05 5.5635815e-06 1.4115654e-05 3.058717e-05 4.105525e-06 2.1891053e-06 1.4052329e-05 1.7197306e-05
1.1479562e-05 1.8174316e-06 5.968517e-06 8.50432e-06 1.1928656e-05 7.6956385e-06 2.103869e-05 5.3198196e-06

exp_avg f4 [64, 64]
00000000: 7d9f 1a39 78fb 1d39 9306 a3b7 eef9 dc38
00000010: cf24 df39 dd34 dcb9 87e3 c5b7 a6b9 4a37
00000020: 8a03 3939 801f 0b3a cc24 2239 c061 e339
00000030: 263b 22b7 01bf 163a fb04 6db9 8dae 013a
00000040: 0d99 c3b9 4322 343a 7a6a aeb8 3b85 843a
00000050: 3636 b939 5c86 b1b9 f586 5238 4851 4437
00000060: 4603 8e38 cb2b 4fb9 4855 6a3a 15a9 9539
00000070: 9c59 ce37 0407 763a edb9 6f37 251f f637
00000080: 45f0 0937 94b7 4439 2581 9fb3 73a5 723a
00000090: 43c4 7d3a 1d93 8e3a 4d13 fb37 b905 69b7
000000a0: 81ef 503a 4fbb 6d3a b067 89b8 a3e7 9bb9
000000b0: 625e 0d38 19ee 883a 2da1 1b37 7710 7038
000000c0: 0643 f038 8ee2 573a e4cf 8a39 59fe ee38
000000d0: 7990 8a39 de2e 4d3a d1d9 5c37 03c0 a9b9
000000e0: b820 b639 9d77 b038 0607 a039 c070 4538
000000f0: 5af4 273a 2ada 3cb7 66f9 dcb7 502c 7035
00000100: 4020 b938 852d 4f37 e415 0338 e65b 4838
00000110: bbc1 12b9 8604 0d3a fbfc 0d39 72d1 d838
00000120: 7e8f 7c39 a9fc ba38 1e41 9838 f9b7 90b7
00000130: 60e7 b3b7 ca3c d135 2860 a7b6 fbe0 9037
00000140: 84d9 5639 bf7b 8fb8 9c03 81b8 f71e 8437
00000150: fbce ab37 9f27 7239 2481 4137 7fc6 04b7
00000160: e017 7fb7 0861 4c38 2e8c c038 f4a6 1eb7
00000170: f1ef f7b5 f713 1bb8 5187 ed38 cf28 a637
00000180: 90bc 20b6 3794 63b8 86b8 a935 a832 a3b8
00000190: b52a 9f38 d69f 1239 781a 35b7 d386 f537
000001a0: ea7c 3538 3c1d 4339 821b 143a 0d23 7c39
000001b0: 3b78 a038 44d0 b839 0355 c0b5 c552 9438
000001c0: 3282 3338 6f0b b637 81d8 17b7 56a8 9437
000001d0: 7274 24b8 c85a aab8 fd4c 3639 4732 7b39
000001e0: fe72 4039 7352 a0b7 bf5a 70b7 74e4 d6b6
000001f0: d352 aab8 4b82 7eb7 0621 de37 ba13 4cb7
00000200: 8660 9039 2851 6438 6437 ae38 e97d 1439
00000210: d77a bdb9 0b35 bc3a 19d5 c839 f658 8e39
00000220: 0325 2c3a b047 8d39 b018 5939 fe7f 04b8
00000230: 6c79 5db8 eecb 5a37 d7e4 7236 d53c 8a38
00000240: ad5a 103a 42e0 2eb9 28ff 1ab9 a848 8e38
00000250: 075d 5c38 9d03 1d3a e811 d337 83b3 c0b7
00000260: a4b4 29b8 cdb6 0b39 c57f 8139 add8 eeb7
00000270: e613 c7b6 49e5 74b8 deb3 9839 1af6 4a38
00000280: 15f7 11b7 6447 21b9 f9d2 4236 69c3 65b9
00000290: 209e 7739 0200 da39 2f07 e9b7 2ee1 a438
000002a0: a05b 0939 8dd7 043a 5018 c93a f4fd 283a
000002b0: ff1b 5e39 46cf 803a efcc 9fb6 67cb 6939
000002c0: 7af7 0139 49a2 9a38 a3bd f9b7 0f52 4438
000002d0: 2fb5 e0b8 bc5e 61b9 8794 fb39 4f77 2b3a
000002e0: fe72 fd39 61af 61b8 5663 a0b7 f2db 46b7
000002f0: d88a 65b9 0bfd 0eb8 896f 9038 10f4 0eb8
00000300: 3315 493a 310b 0e3a 1a29 0039 dde9 9639
00000310: 2991 7c39 8f37 ff39 c319 4f3a 9d32 2439
00000320: fc79 cb39 842f 2e3a 0eaf 8d39 2871 4f39
00000330: 1941 cd38 76d8 f638 5e52 c839 531a 4e39
00000340: 6cfc 5139 b62d b139 1cda b239 d78f 013a
00000350: 9fa4 4139 da08 c039 8838 39b8 aacb 29b8
00000360: 376f 1338 5dd6 6a39 e84f 8839 221a 98b8
00000370: 921d 80b6 46f4 323a 33c2 b238 e42d 7938
00000380: 9997 2e37 0c73 d336 4872 aa33 ab3e 4d39
00000390: 2099 833a a24b a43a 3058 5038 7530 7036
000003a0: c9b8 f938 2177 e039 1300 883a c66e 423a
000003b0: d871 1a39 6bca 923a a2bd 7837 cf41 4a3a
000003c0: de78 5d39 ec1b 6b39 0be1 1b39 0907 5f38
000003d0: 0034 3139 541e e437 e895 213a e97e 563a
000003e0: 1a39 3a39 f441 8eb8 27cc ad39 280f 5139
000003f0: e93b 9e39 8395 1939 05c5 3c38 b7e4 7336
0.00014745998 0.00015066366 -1.9434176e-05 0.000105369705 0.000425613 -0.00042001056 -2.359018e-05 1.2083363e-05
0.00017644293 0.0005307123 0.00015463232 0.00043369643 -9.669724e-06 0.00057505077 -0.00022603937 0.00049469696
-0.0003730733 0.00068715605 -8.316799e-05 0.0010110507 0.0003532634 -0.00033860176 5.019359e-05 1.1701435e-05
6.7716974e-05 -0.00019757373 0.00089390995 0.0002854547 2.4598841e-05 0.00093852007 1.4288799e-05 2.9339988e-05
8.221778e-06 0.00018760405 -7.427506e-08 0.0009256221 0.00096804294 0.0010877583 2.993052e-05 -1.3889215e-05
0.0007970259 0.00090687437 -6.5519824e-05 -0.00029736487 3.370492e-05 0.0010446935 9.276247e-06 5.7235793e-05
0.00011456576 0.00082353584 0.00026476302 0.000113961 0.00026429052 0.0007827113 1.3163736e-05 -0.00032377252
0.00034738122 8.414614e-05 0.0003052281 4.7073467e-05 0.00064069557 -1.12564685e-05 -2.6342179e-05 8.947145e-07
8.8274945e-05 1.234876e-05 3.125322e-05 4.7769303e-05 -0.00013995815 0.0005379397 0.0001354105 0.00010338695
0.00024086048 8.916233e-05 7.260054e-05 -1.7251807e-05 -2.1446205e-05 1.5589405e-06 -4.988182e-06 1.7270902e-05
0.00020489661 -6.841821e-05 -6.151872e-05 1.5750045e-05 2.0481171e-05 0.00023093678 1.1533764e-05 -7.914029e-06
-1.5204743e-05 4.8727758e-05 9.181384e-05 -9.456406e-06 -1.8472766e-06 -3.6973473e-05 0.00011326245 1.9807745e-05
-2.3951616e-06 -5.4259053e-05 1.2645185e-06 -7.781881e-05 7.5896656e-05 0.00013983189 -1.0794603e-05 2.9269058e-05
4.3270098e-05 0.0001860754 0.0005649851 0.0002404565 7.651789e-05 0.00035250385 -1.4329856e-06 7.072607e-05
4.279818e-05 2.1701415e-05 -9.05071e-06 1.7721362e-05 -3.9209095e-05 -8.123141e-05 0.00017385553 0.00023955955
0.00018353385 -1.911188e-05 -1.4326243e-05 -6.4042924e-06 -8.121659e-05 -1.5169916e-05 2.647984e-05 -1.21639405e-05
0.00027537736 5.443502e-05 8.307284e-05 0.00014161285 -0.00036140412 0.001435907 0.00038305743 0.00027150632
0.00065667945 0.00026947027 0.0002070393 -3.1590454e-05 -5.280359e-05 1.3041294e-05 3.6194012e-06 6.5916836e-05
0.0005506676 -0.00016677476 -0.00014781638 6.784621e-05 5.2538726e-05 0.0005989613 2.5161498e-05 -2.2971775e-05
-4.0460975e-05 0.00013324172 0.00024699993 -2.8472708e-05 -5.9329786e-06 -5.838767e-05 0.0002912571 4.8389753e-05
-8.700202e-06 -0.00015380752 2.9031055e-06 -0.00021911938 0.00023614662 0.00041580206 -2.777911e-05 7.8620724e-05
0.00013099471 0.000506752 0.0015342329 0.00064465334 0.00021181999 0.0009827397 -4.7624267e-06 0.00022296385
0.00012394591 7.37352e-05 -2.977142e-05 4.6806465e-05 -0.000107149004 -0.00021492963 0.00047985112 0.00065409107
0.00048341596 -5.3807515e-05 -1.9119743e-05 -1.185293e-05 -0.00021890865 -3.4091103e-05 6.88723e-05 -3.408274e-05
0.00076707004 0.0005418538 0.00012222343 0.0002878447 0.00024086669 0.00048678785 0.0007900262 0.00015659114
0.00038810063 0.00066446536 0.00027024042 0.00019783212 9.787287e-05 0.00011770513 0.0003820834 0.00019655497
0.00020025828 0.00033794128 0.0003411331 0.0004942393 0.0001846724 0.0003662769 -4.4160086e-05 -4.0482417e-05
3.5151108e-05 0.00022395836 0.00025999476 -7.2527924e-05 -3.8181397e-06 0.0006826561 8.523874e-05 5.9408965e-05
1.0406505e-05 6.3016832e-06 7.9370295e-08 0.00019573669 0.0010040142 0.0012534747 4.9673195e-05 3.5790993e-06
0.00011907664 0.00042813367 0.0010375999 0.0007417019 0.00014728995 0.0011199241 1.4826104e-05 0.0007715495
0.00021121229 0.00022421748 0.00014865787 5.3173895e-05 0.00016899407 2.719384e-05 0.00061640004 0.0008182363
0.00017759614 -6.7833724e-05 0.00033149237 0.0001993744 0.00030180745 0.00014646914 4.500618e-05 3.6342951e-06

exp_avg_sq f4 [64, 64]
00000000: 9503 a835 2de8 1635 d7b8 cd34 3550 4136
00000010: a97b 7f36 371c cb35 a97f 3336 3686 fe35
00000020: 6815 9e34 8072 1d37 4085 8035 d93e 7736
00000030: 34d7 bd32 f1eb fc36 aacc e134 6989 b336
00000040: 8d8e e235 394d 9737 35ef 4634 96f1 a237
00000050: e13b 9135 ab51 6037 aa65 9a33 8d0c 6032
00000060: ede3 b633 cd5b 3d35 9dbd 2c37 13a0 ea35
00000070: 923e d232 16a9 b637 7d66 8335 8080 ba33
00000080: bbec 1e32 f89c 7c36 c9c7 0d2a 64ce dd37
00000090: 99b6 5638 90c9 2338 0761 6732 4019 1d33
000000a0: 2392 b136 f133 ad37 9987 6d37 451e 5a37
000000b0: d1cc 0833 0ec6 ff37 6e25 a031 dc5a 4336
000000c0: 1303 f134 518a 2e37 f6f8 8835 bf4e 3334
000000d0: 28ae 8b36 ebd4 8d36 146a 4737 0160 2037
000000e0: 8569 9137 7115 8934 b636 9535 39f5 6234
000000f0: 5944 d237 81a3 ef32 a7d0 b234 58d3 b92f
00000100: 791b 4335 1ca9 e633 c12e a933 b789 8836
00000110: d6bf bb35 4a59 c036 a21e df34 0723 6c34
00000120: 84be be35 9fa0 8b35 0795 3b34 edf8 2835
00000130: ffe9 d131 9498 3736 d7e2 c033 a23d 4a36
00000140: 4364 7436 2975 c936 1642 7533 2dad 0236
00000150: 477a f233 7a3b 9935 11c9 2732 fdad 6031
00000160: 6cb0 3832 618c 9633 44b1 2035 91c9 5535
00000170: a777 e830 2313 8c36 0af3 e333 803d dc32
00000180: 55bb 7531 5783 9e34 3199 9f2e cbde e935
00000190: dc4b 2d37 e69c 6136 4f47 bb31 917c 7c32
000001a0: bc51 f335 e8f7 a836 c365 4737 324a c935
000001b0: a055 da34 103f ec36 4ed0 b132 7685 dc34
000001c0: 6f35 c533 f32d 6e36 d806 6833 6941 f332
000001d0: fb25 4334 deab 8834 2f63 b336 2ea8 8835
000001e0: e58e d436 b1bf 9e32 0f4b dd33 73b2 8433
000001f0: 38ba 1f36 39df 4632 a36c 1d33 eb66 9832
00000200: a265 a136 7e41 3c35 a1fa 0735 0727 e437
00000210: 0e5f 1d37 a8ba 2038 5764 3636 ab89 ba35
00000220: 3731 1f37 aeb3 e736 d024 9b35 e1ba 8c36
00000230: e603 1e33 1558 9937 395b 1e35 0b92 a937
00000240: 3b65 cc37 6493 2838 a2aa c734 cb2b 5937
00000250: d79c 4135 d93d fc36 619d 6c33 5649 a432
00000260: e674 8d33 f075 f434 289e 8436 e644 b136
00000270: fa15 3b32 b1fb e937 d2a6 3535 0c25 2334
00000280: 8bdf a932 eb28 0436 e6d4 d02f 8a86 4237
00000290: e8a9 9038 6907 bb37 6f76 f932 aa84 ce33
000002a0: f896 4b37 2974 0d38 d389 a638 19e2 2537
000002b0: d58d 3536 03f8 4438 5936 1034 778f 3236
000002c0: 2784 2135 f41d c737 181f b534 29e6 4234
000002d0: 4932 a035 f146 e235 c028 1638 bada e036
000002e0: 76a4 3138 491c 0234 c2e2 2a35 ad31 d234
000002f0: 75dc 8437 3d6b 9a33 a61b 8134 8286 fa33
00000300: 0941 dd35 e6fc 7f35 6386 1d35 de2b 2d36
00000310: df4d b535 7dd2 d935 d7f0 0336 cc9f 4235
00000320: 1594 9135 ea44 0f36 6867 3c35 fd0e 5835
00000330: dc7c 4d34 980a b835 f616 1235 e6e6 2036
00000340: 89c1 7b35 ede8 8a36 001a f834 b48d 2536
00000350: 3369 a134 2e25 0836 2bc1 ea34 0082 1b34
00000360: 68ee 8a34 0e51 c734 e49e 8635 acc0 8634
00000370: 12cb 0332 36f8 a436 d817 ad34 3873 0534
00000380: ffb6 4d34 27be ff34 6675 9831 8cd9 f635
00000390: 0cd1 e236 b6a4 f636 576d a834 a798 6233
000003a0: 8923 bf35 3f6b 6836 b73f cc36 8fff 4936
000003b0: 6f7a 0535 053f cd36 8783 4334 1e66 5836
000003c0: 09da fe34 1abc 2136 b0ae 1435 e81b 8f34
000003d0: 28e2 3f35 b572 2335 e231 3036 f4bf 4c36
000003e0: df1c fb35 9fe2 a833 d24b 9335 05e8 6635
000003f0: f1a9 0f36 3fd1 9b34 1265 0c34 6569 a133
1.2518018e-06 5.6217215e-07 3.8318714e-07 2.8805928e-06 3.806994e-06 1.513289e-06 2.6747387e-06 1.8963535e-06
2.9445368e-07 9.384588e-06 9.575524e-07 3.684245e-06 2.2100359e-08 7.5376524e-06 4.2058429e-07 5.3506124e-06
1.68798e-06 1.8036562e-05 1.852721e-07 1.9424402e-05 1.0820769e-06 1.3370455e-05 7.1896764e-08 1.304137e-08
8.516495e-08 7.0541574e-07 1.0296147e-05 1.7480946e-06 2.4475671e-08 2.1774827e-05 9.790089e-07 8.684674e-08
9.250637e-09 3.7642294e-06 1.259263e-13 2.6441361e-05 5.1191633e-05 3.9049948e-05 1.3468031e-08 3.6577376e-08
5.2920236e-06 2.0647394e-05 1.4157872e-05 1.300086e-05 3.1851247e-08 3.0490595e-05 4.660868e-09 2.9110151e-06
4.4891985e-07 1.04034125e-05 1.0205247e-06 1.6699322e-07 4.1627973e-06 4.2269144e-06 1.1886023e-05 9.559096e-06
1.7334483e-05 2.553384e-07 1.1117288e-06 2.1137102e-07 2.5065778e-05 2.7897615e-08 3.3306898e-07 3.3801473e-10
7.268314e-07 1.07409704e-07 7.87818e-08 4.069148e-06 1.3988417e-06 5.7324405e-06 4.1559275e-07 2.1991956e-07
1.421155e-06 1.0403054e-06 1.7469948e-07 6.294711e-07 6.109303e-09 2.7357937e-06 8.9819586e-08 3.013622e-06
3.6417193e-06 6.003906e-06 5.7103613e-08 1.947231e-06 1.1291245e-07 1.1416698e-06 9.766397e-09 3.269519e-09
1.0750323e-08 7.010454e-08 5.98626e-07 7.9642e-07 1.6914229e-09 4.174553e-06 1.061472e-07 2.5639338e-08
3.5758678e-09 2.9525356e-07 7.257695e-11 1.7424694e-06 1.0329266e-05 3.361894e-06 5.450523e-09 1.4696654e-08
1.8128699e-06 5.0356502e-06 1.1885018e-05 1.4997261e-06 4.0667965e-07 7.0406895e-06 2.0700238e-08 4.10753e-07
9.183247e-08 3.549151e-06 5.4022934e-08 2.8318668e-08 1.8174607e-07 2.5457024e-07 5.346162e-06 1.0181736e-06
6.3347275e-06 1.8480792e-08 1.03047675e-07 6.179189e-08 2.380124e-06 1.1575872e-08 3.6653216e-08 1.774193e-08
4.8100055e-06 7.013076e-07 5.065613e-07 2.7197892e-05 9.380061e-06 3.832081e-05 2.7178519e-06 1.3898147e-06
9.488597e-06 6.905254e-06 1.1559114e-06 4.1940807e-06 3.6790787e-08 1.8280038e-05 5.8992333e-07 2.0214376e-05
2.4365834e-05 4.019159e-05 3.719079e-07 1.2944404e-05 7.2126335e-07 7.5173853e-06 5.5091167e-08 1.9125462e-08
6.587088e-08 4.5534352e-07 3.9523184e-06 5.283032e-06 1.08898295e-08 2.7892967e-05 6.767051e-07 1.5194036e-07
1.9775845e-08 1.969335e-06 3.7986253e-10 1.1594626e-05 6.8981026e-05 2.2295588e-05 2.9041272e-08 9.616754e-08
1.2134893e-05 3.3725202e-05 7.9411686e-05 9.887409e-06 2.705366e-06 4.696102e-05 1.3430817e-07 2.6607574e-06
6.016948e-07 2.3736597e-05 3.37365e-07 1.815139e-07 1.1935564e-06 1.6858959e-06 3.580074e-05 6.7011833e-06
4.2353255e-05 1.2117484e-07 6.365991e-07 3.9151692e-07 1.5838285e-05 7.19069e-08 2.404824e-07 1.1665999e-07
1.6484711e-06 9.536292e-07 5.8682616e-07 2.5804543e-06 1.3508214e-06 1.622902e-06 1.9660708e-06 7.2503167e-07
1.0846439e-06 2.1348774e-06 7.0185934e-07 8.048808e-07 1.9137536e-07 1.3712151e-06 5.442265e-07 2.3976258e-06
9.378642e-07 4.1398366e-06 4.6212517e-07 2.4669398e-06 3.006513e-07 2.028722e-06 4.3726445e-07 1.4482794e-07
2.5877966e-07 3.7125614e-07 1.0030021e-06 2.5099632e-07 7.671376e-09 4.9164764e-06 3.224111e-07 1.2428507e-07
1.9158686e-07 4.7635805e-07 4.437129e-09 1.8391743e-06 6.759661e-06 7.350546e-06 3.1371994e-07 5.2758562e-08
1.4240951e-06 3.463312e-06 6.087091e-06 3.0100089e-06 4.9724525e-07 6.1168125e-06 1.820864e-07 3.2245948e-06
4.7469828e-07 2.410036e-06 5.53885e-07 2.665613e-07 7.1482145e-07 6.088915e-07 2.625508e-06 3.05101e-06
1.870936e-06 7.864332e-08 1.097442e-06 8.601931e-07 2.140758e-06 2.9023246e-07 1.3075285e-07 7.516318e-08

exp_avg f4 [64]
00000000: 6812 9538 9f2d c737 e0a3 8b38 59f0 f138
00000010: d1f5 beb8 0749 1539 161b 5a36 a748 98b8
00000020: 7c2a 2b39 b8c8 5e38 6d9c 17b8 b655 fb37
00000030: c4b7 09b7 e48d e8b8 69b3 cf38 b3e7 2a38
00000040: 3ea6 79b8 714c 1f38 93b7 4235 3209 ccb8
00000050: 0147 ae38 34e4 44b8 5fc6 7037 5403 47b6
00000060: 17c3 12b8 ce24 a538 e0a2 6538 d926 6a38
00000070: bb98 8938 25da 13b9 e8a7 73b8 aa6c b839
00000080: da61 c8b8 fccc f3b8 d3ca c0b8 0400 0000
00000090: fe14 1138 a200 03b9 b398 ab37 32dd a0b9
000000a0: 7a69 2537 4b70 1fb8 317f 31b9 3c05 0538
000000b0: 0309 c6b7 67a4 ab38 52f2 edb8 9046 3f38
000000c0: 00cc 16b9 0c7c 14b8 ac34 acb8 4d7f d438
000000d0: 7ec5 c738 68ab 0cb9 9a06 2bb9 1f0f 6cb8
000000e0: 92be f1b8 1eab ccb8 6df9 b0b8 3aae 75b7
000000f0: 4bc4 1338 5620 18b8 1ac9 2138 f2ec 70b8
7.108302e-05 2.3743893e-05 6.6585606e-05 0.00011536544 -9.105693e-05 0.00014236952 3.2500297e-06 -7.261457e-05
0.00016323657 5.311586e-05 -3.614689e-05 2.9961444e-05 -8.208623e-06 -0.00011089051 9.903947e-05 4.0746945e-05
-5.952105e-05 3.7979746e-05 7.253777e-07 -9.729191e-05 8.310192e-05 -4.6942572e-05 1.4351302e-05 -2.9655248e-06
-3.4990804e-05 7.8746685e-05 5.4749544e-05 5.5826127e-05 6.561117e-05 -0.00014100278 -5.809209e-05 0.00035176176
-9.5549694e-05 -0.00011625324 -9.1930524e-05 6e-45 3.4590244e-05 -0.0001249337 2.0455895e-05 -0.00030682381
9.859325e-06 -3.8013135e-05 -0.00016927418 3.1714546e-05 -2.3607636e-05 8.184538e-05 -0.00011346176 4.5603665e-05
-0.0001438111 -3.5401477e-05 -8.21141e-05 0.000101326594 9.525845e-05 -0.00013415294 -0.0001631029 -5.6280867e-05
-0.00011527272 -9.759351e-05 -8.438793e-05 -1.4643703e-05 3.5230343e-05 -3.626974e-05 3.857268e-05 -5.744113e-05
