maddpg.pt (torch, 361839 bytes, 84 tensors)

weight f4 [64, 10]
0	0xbd8e222a	-0.0694011
1	0x3e9f9a77	0.31172535
2	0x3e8ce603	0.27519235
3	0x3ea1b589	0.31583813
4	0x3e593839	0.21212853
5	0x3bd03538	0.0063540004
6	0x3e1ce982	0.15323451
7	0x3d8daf7a	0.06918235
8	0xbe7dc634	-0.2478264
9	0x3e7c0027	0.24609433
10	0x3e499449	0.19685473
11	0x3dbc772c	0.09202418
12	0xbd90b71c	-0.07066175
13	0xbe8125d6	-0.2522418
14	0x3e1572ad	0.14594527
15	0x3e9ae65b	0.30253872
16	0x3e9e12c3	0.3087369
17	0xbe14bce8	-0.14525187
18	0x3bbf7c0a	0.005843644
19	0x3ea9464f	0.33061454
20	0xbe757c8a	-0.23973289
21	0xbe605693	-0.21908025
22	0xbdb59bef	-0.088676326
23	0xbe94f5ca	-0.29093772
24	0xbe76f0f5	-0.24115355
25	0xbe28369a	-0.16427079
26	0xbe92e750	-0.28692102
27	0x3d1493fb	0.036273938
28	0xbe93f7a9	-0.28899887
29	0xbd17dce0	-0.037075877
30	0xbe00e40c	-0.12586993
31	0x3d402f71	0.046920244
32	0xbde697d5	-0.112594284
33	0xbe1fe3fb	-0.15614311
34	0x3e2a1a2b	0.16611545
35	0x3e73fa83	0.23826031
36	0xbe3856a2	-0.18001798
37	0x3e8606cb	0.26177058
38	0xbd6f9077	-0.05848738
39	0x3db633d9	0.08896608
40	0x3ea4b943	0.32172593
41	0x3d8d6ddf	0.06905722
42	0x3d3ceaa2	0.0461222
43	0xbd92eb66	-0.07173805
44	0xbe86f95d	-0.26362124
45	0xbe856501	-0.26053622
46	0xbe7d09d0	-0.24710774
47	0x3e82d9c5	0.2555677
48	0xbe490aa1	-0.19632961
49	0x3d426132	0.047455974
50	0xbd1ed3d5	-0.038776238
51	0x3e8ea1af	0.2785773
52	0x3e808e2d	0.25108472
53	0xbe4625c4	-0.19350344
54	0xbdaa8fef	-0.083282344
55	0x3ddb704e	0.1071478
56	0xbd585a9c	-0.052820787
57	0xbdcb2875	-0.09919826
58	0xbd6d1f1a	-0.05789099
59	0xbdc475a7	-0.09592753
60	0x3e9cffb9	0.3066385
61	0x3e594f69	0.21221699
62	0xbd1b93a2	-0.03798259
63	0x3e3e1eef	0.18566488
64	0x3cd3cc2f	0.025854198
65	0x3e3e68cd	0.18594666
66	0xbdf41f63	-0.11920049
67	0xbea95858	-0.33075213
68	0xbe44cbca	-0.19218364
69	0x3df9cdb2	0.121974364
70	0xbe3a196f	-0.18173765
71	0xbe81e416	-0.25369328
72	0x3d3b2126	0.04568591
73	0x3b5f607e	0.0034084613
74	0x3ea66e66	0.32506102
75	0xbe8db386	-0.27676028
76	0x3b28ae73	0.0025738745
77	0x3ce86bea	0.02837177
78	0xbe69dc8e	-0.22838041
79	0xbdb23c5b	-0.08702918
80	0xbe562dc2	-0.20915893
81	0xbd788b4d	-0.060679723
82	0x3e87d7ee	0.2653193
83	0x3d3390b9	0.04383919
84	0xbe8059da	-0.2506855
85	0x3e48a95d	0.19595857
86	0xbe98aa1a	-0.29817277
87	0x3dbcf7ba	0.092269376
88	0x3da5ac82	0.08089544
89	0x3d76fd6d	0.06030028
90	0xbe535f7a	-0.2064189
91	0xbd02053a	-0.031743266
92	0x3e07b9ad	0.13254423
93	0x3e3dd7c1	0.18539335
94	0xbe9a5705	-0.30144516
95	0xbd0ea45a	-0.034824707
96	0xbe3efd14	-0.18651229
97	0xbea861f3	-0.3288723
98	0x3e2108b4	0.15725976
99	0x3e34cb8d	0.17655773
100	0x3d9bb952	0.076037064
101	0xbe7d8d73	-0.2476099
102	0x3e928b0e	0.28621715
103	0xbea2ea72	-0.31819493
104	0xbdb6928d	-0.08914671
105	0xbe230bbf	-0.1592245
106	0x3cd84b4c	0.026403092
107	0xbe68aafe	-0.22721478
108	0x3e8a4b7b	0.27010712
109	0xbc1c2918	-0.009531282
110	0xbd1b162f	-0.037862953
111	0x3eaf4aec	0.34236848
112	0x3e45e9c4	0.19327456
113	0x3e92c1d3	0.286635
114	0xbe32db21	-0.17466404
115	0xbd674a61	-0.056467418
116	0x3de78ba8	0.11305934
117	0x3dd5ffbf	0.1044917
118	0x3ddb0815	0.10694901
119	0xbe6e1402	-0.2324982
120	0xbe492f81	-0.19647028
121	0xbe992a9a	-0.29915315
122	0x3eaad0e6	0.33362502
123	0xbeaa3485	-0.33243194
124	0x3e1e2923	0.1544538
125	0x3e2cc9eb	0.168739
126	0x3d52f70a	0.051505126
127	0x3e3c000f	0.18359397
128	0x3c73edc9	0.014888235
129	0x3eaa302c	0.33239877
130	0xbe90dd70	-0.28293943
131	0x3e40e186	0.1883603
132	0xbe4d8ec6	-0.20073995
133	0xbd4e703f	-0.050400015
134	0x3e7ba276	0.24573693
135	0xbdfc62cf	-0.12323534
136	0x3dfdc90c	0.12391862
137	0x3d01ca9c	0.031687364
138	0xbe7e6fcf	-0.24847339
139	0x3d11d839	0.035606597
140	0xbd287016	-0.04112252
141	0x3e5d3ee2	0.21606019
142	0xbe824463	-0.254428
143	0x3dc018b0	0.09379709
144	0xbe8735f6	-0.26408356
145	0x3e87e864	0.26544487
146	0xbd066c0d	-0.03281789
147	0x3ea1f8e0	0.3163519
148	0x3e45694d	0.1927845
149	0x3e078f7f	0.13238333
150	0xbdc399ed	-0.095508434
151	0x3e9e5ea1	0.3093157
152	0x3e932f64	0.28747094
153	0x3c266159	0.010155045
154	0xbdc372eb	-0.09543403
155	0x3ca09919	0.019604253
156	0x3e180235	0.14844592
157	0xbdec6ffe	-0.11544798
158	0xbce93a84	-0.028470285
159	0xbc614bbf	-0.013750969
160	0x3e6f04a9	0.23341621
161	0xbe3d0a75	-0.1846102
162	0xbdc8ace6	-0.09798603
163	0xbe0779e7	-0.13230096
164	0x3e9ced7b	0.30649933
165	0xbcf883bc	-0.030336253
166	0xbe7cf55d	-0.24702974
167	0x3dc04578	0.0938825
168	0xbe58d829	-0.21176209
169	0xbe94a0ba	-0.29028875
170	0x3d2f9a15	0.042871553
171	0xbdef5e21	-0.116878755
172	0x3ea9c7ad	0.33160153
173	0x3e5a340e	0.2130892
174	0xbea1c954	-0.31598914
175	0x3e6e22b6	0.23255429
176	0xbe05f9bf	-0.13083552
177	0x3e93db89	0.2887843
178	0xbd344dc2	-0.044019468
179	0x3eb04b0d	0.3443226
180	0x3e638c68	0.2222153
181	0xbe8d7100	-0.27625275
182	0xbd7a5a16	-0.06112107
183	0xbe00c902	-0.12576678
184	0xbe69f1e6	-0.22846183
185	0x3b924472	0.0044637257
186	0x3e83a0d3	0.25708637
187	0xbc9599fd	-0.018261904
188	0x3ce3e406	0.027818691
189	0x3e25f1b2	0.1620548
190	0xbd0d4b92	-0.034495898
191	0x3e03b9ba	0.12863818
192	0xbd7ea0eb	-0.062165182
193	0xbe5154a3	-0.20442443
194	0x3e090e7b	0.1338443
195	0xbe766ff1	-0.2406614
196	0xbd83e2b5	-0.06439725
197	0xbe82b3cc	-0.255278
198	0xbe4811b6	-0.19538006
199	0xbd25b99c	-0.040460214
200	0xbea92343	-0.33034715
201	0x3e951323	0.29116163
202	0xbdd51e81	-0.10406209
203	0x3d9b27a1	0.07575918
204	0xbd86aabd	-0.065755345
205	0x3dd82e53	0.10555711
206	0x3e1b0966	0.15140304
207	0x3e3bf11c	0.18353695
208	0xbdee2a7d	-0.11629198
209	0x3bdc0af8	0.0067151748
210	0xbde307bd	-0.1108546
211	0xbdc2f7be	-0.09519909
212	0x3e31cdb8	0.17363632
213	0x3e9bc223	0.30421552
214	0xbe14ec51	-0.14543273
215	0xbda3396a	-0.07969935
216	0xbe18b77f	-0.14913748
217	0xbe0a40a4	-0.13501221
218	0x3e8cead3	0.27522907
219	0x3e0f27f7	0.13980089
220	0x3e1a7fce	0.15087816
221	0xbd2743e3	-0.040836226
222	0xbe8738cc	-0.2641052
223	0x3dd499b6	0.103808805
224	0xbe8ffa04	-0.28120434
225	0xbcd1ae0c	-0.025595687
226	0x3dff922b	0.12479051
227	0xbe8cbb5d	-0.27486697
228	0xbd1e75ae	-0.038686447
229	0x3e5a845d	0.21339555
230	0x3d8d294f	0.068926446
231	0xbea1ae31	-0.3157821
232	0x3d3ebdac	0.046567604
233	0xbe039781	-0.12850763
234	0xbe05bfea	-0.1306149
235	0xbe09ea50	-0.1346829
236	0x3e1fd6c3	0.15609269
237	0x3ea0088e	0.31256527
238	0x3da70504	0.081552535
239	0x3c697788	0.01424969
240	0x3ea46b31	0.3211303
241	0x3e898444	0.26858723
242	0xbd267692	-0.04064042
243	0x3d9b78b9	0.075913854
244	0xbc6a8031	-0.01431279
245	0x3e792599	0.24330749
246	0x3bcdd03e	0.006280928
247	0xbe85d398	-0.26137996
248	0xbe85ca37	-0.2613084
249	0x3e522197	0.20520626
250	0xbe1de71d	-0.15420194
251	0x3dae1867	0.08500748
252	0xbd8174c7	-0.06321102
253	0x3eb12632	0.34599453
254	0x3e82fbda	0.25582772
255	0x3e839b22	0.25704294

bias f4 [64]
0	0xbe71bc95	-0.23607095
1	0xbdace773	-0.08442583
2	0xbbf7f0a2	-0.0075665275
3	0xbcff6138	-0.031174287
4	0x3e482857	0.19546638
5	0xbe7b73c1	-0.24555875
6	0x3c218c78	0.0098601505
7	0xbe392a4b	-0.1808254
8	0x3eb4134d	0.35170975
9	0x3db57dda	0.08861895
10	0xbe7400e1	-0.2382846
11	0xbe0c8aa8	-0.13724768
12	0x3e8d07d9	0.2754505
13	0xbe0c173a	-0.13680735
14	0x3c896506	0.016771805
15	0xbda4a3c6	-0.0803905
16	0x3e824127	0.25440332
17	0x3eaec5fb	0.34135422
18	0x3e6bc30b	0.23023622
19	0x3dc2e7e3	0.09516885
20	0xbc609e81	-0.013709665
21	0xbe8e1cac	-0.2775625
22	0x3dc1532a	0.094396904
23	0xbd61ba13	-0.055109095
24	0x3e725254	0.23664218
25	0xbe8aada6	-0.27085608
26	0xbe25c3b3	-0.16187935
27	0x3e57a319	0.2105831
28	0x3e6cce0d	0.23125477
29	0x3e370be5	0.17875631
30	0x3e93ddcf	0.28880164
31	0x3d210866	0.03931465
32	0x3e5c7348	0.21528351
33	0xbd8c4cf0	-0.06850612
34	0xbe3f9e6e	-0.1871278
35	0xbde03f9b	-0.10949632
36	0x3e722827	0.2364813
37	0x3d4e1e0b	0.05032162
38	0x3df8830a	0.12134369
39	0xbd7d316c	-0.06181471
40	0x3b113c7e	0.00221613
41	0x3e2dea3a	0.16983882
42	0x3ea12811	0.3147588
43	0xbe86c7bb	-0.26324257
44	0xbdbcab76	-0.09212391
45	0xbcc2fde2	-0.023802701
46	0x3eb52717	0.35381386
47	0xbe341aa8	-0.17588294
48	0x3e499a27	0.1968771
49	0xbe01d791	-0.12679888
50	0xbcc0d21f	-0.023537694
51	0xbd97988a	-0.074021414
52	0xbe6e681b	-0.232819
53	0x3e23e2a8	0.16004431
54	0xbe3d56d7	-0.18490158
55	0xbe8d648e	-0.2761578
56	0xbe76993c	-0.24081892
57	0xbd4dc632	-0.050237842
58	0xbe608b9e	-0.2192826
59	0x3e3e5909	0.18588652
60	0xbc82fa5e	-0.015988525
61	0xbe111557	-0.14168297
62	0xbd84fe20	-0.06493783
63	0xbe6e607e	-0.23278996

weight f4 [64, 64]
0	0xbd6aa1c1	-0.057283167
1	0x3c849625	0.016184876
2	0x3d6f8492	0.05847604
3	0xbd771352	-0.06032116
4	0xbd479fbc	-0.04873632
5	0x3df07576	0.11741154
6	0x3e1b39c9	0.15158762
7	0x3db7990c	0.08964738
8	0x3e0ae454	0.13563663
9	0x3d775118	0.06038007
10	0x3dd085d2	0.10181774
11	0x3d99376c	0.07481274
12	0x3dd93093	0.10604968
13	0xbd02d4aa	-0.031941094
14	0xbd12372e	-0.035697155
15	0x3e0ffafe	0.1406059
16	0xbc70ed43	-0.014705005
17	0xbd5396b9	-0.051657412
18	0x3df621a2	0.12018134
19	0x3d52d7ed	0.051475454
20	0xbd12f64c	-0.03587942
21	0x3cc496a7	0.023997618
22	0xbcc98f6f	-0.024604527
23	0xbd28ee0d	-0.041242648
24	0x3cd0ac30	0.02547273
25	0xbd7d78c9	-0.061882768
26	0xbde4077f	-0.11134242
27	0xbdcdfca9	-0.10057957
28	0x3c82c260	0.015961826
29	0xbce0a8dc	-0.027424268
30	0xbd34c1f9	-0.0441303
31	0xbce56227	-0.028000904
32	0x3d20655d	0.039159168
33	0x3d82439d	0.063605525
34	0xbddcc513	-0.107797764
35	0xbdab5100	-0.08365059
36	0x3e163f4c	0.14672583
37	0x3d2cae7b	0.042158585
38	0x3c34359f	0.010999112
39	0x3c78f963	0.015196177
40	0x3d91e81c	0.071243495
41	0x3e187a03	0.14890294
42	0xbd1756ad	-0.036947895
43	0x3e1ffe72	0.15624407
44	0x3da895a9	0.082316704
45	0x3d847e80	0.064694405
46	0x3d77ceaf	0.060499843
47	0xbcce92bd	-0.025216455
48	0x3d690f1b	0.05689917
49	0x3b1e8791	0.002418969
50	0x3c1120a3	0.008857879
51	0xbd9b58d8	-0.07585305
52	0xbdbfaa20	-0.09358621
53	0x3d614ee0	0.05500686
54	0xbd9c8740	-0.076429844
55	0x3d6d952c	0.05800359
56	0x3d3feac5	0.046854753
57	0xba8c3f2c	-0.0010699979
58	0xbde440a7	-0.11145144
59	0x3d106bca	0.035259046
60	0x3e2c71e1	0.16840316
61	0x3d86f4ee	0.065896854
62	0x3d67b48c	0.056568667
63	0x3dbcc37f	0.092169754
64	0x3a1a5620	0.00058874674
65	0xbd664b69	-0.05622426
66	0xbc9d8277	-0.01922725
67	0x3d5d8027	0.054077294
68	0xba9f0e74	-0.0012135045
69	0xbd564671	-0.052313272
70	0x3d7da33f	0.06192326
71	0x3d84b356	0.06479518
72	0x3db00fcb	0.08596762
73	0xbdbfe4f7	-0.093698435
74	0xbd5a13fa	-0.053241707
75	0xbd923d5e	-0.07140611
76	0x3e049bbc	0.12950033
77	0xbd895a4c	-0.06706676
78	0x3d403f56	0.0469354
79	0x3d61896a	0.05506269
80	0xbd5b9ca0	-0.053616166
81	0xbc162e3d	-0.0091662975
82	0xbd2e9d35	-0.042630393
83	0xbcf02337	-0.029313667
84	0xbdf663ac	-0.1203073
85	0xbd2c093d	-0.042000998
86	0x3d2e341c	0.042530164
87	0x3daad45e	0.08341287
88	0xbd814aa8	-0.06313068
89	0xbd3351f5	-0.043779332
90	0x3ae06e24	0.0017122668
91	0x3e347972	0.17624453
92	0xbcbd9da5	-0.02314646
93	0xbdaecd57	-0.08535259
94	0xbdfc2142	-0.12311031
95	0xbb0c8036	-0.0021438724
96	0x3e2299ea	0.15879026
97	0xbe08792e	-0.13327476
98	0x3d1c6859	0.03818545
99	0x3e33a3c7	0.17542945
100	0x3cabb290	0.020959169
101	0x3ceac140	0.028656602
102	0x3d3eeb03	0.046610843
103	0x3cb94f4c	0.02262082
104	0x3e2c4209	0.16822065
105	0x3db2275f	0.08698916
106	0x3c90b2aa	0.017663319
107	0xbe0a0565	-0.1347862
108	0xbd801b2a	-0.06255181
109	0x3d2135bd	0.03935789
110	0x3d1b9286	0.037981533
111	0x3b897160	0.0041944236
112	0xbc425804	-0.011861805
113	0xbd95c0e6	-0.07312183
114	0x3d433ed9	0.047667358
115	0x3dd672e7	0.10471135
116	0x3e0076da	0.12545338
117	0x3dbb1b5f	0.0913608
118	0xbd41ee85	-0.04734661
119	0x3dd2e119	0.1029684
120	0x3db1d053	0.08682313
121	0xbe0a2545	-0.1349078
122	0xbced7efa	-0.028991211
123	0xbc98e931	-0.018665882
124	0x3b88555a	0.0041605653
125	0xbc181a71	-0.009283648
126	0xbbe872e7	-0.0070937756
127	0xbd3ba247	-0.045809057
128	0xbda31dff	-0.07964706
129	0xbb3ef1a7	-0.0029135735
130	0xbd92ad9b	-0.07162019
131	0x3ddb98e1	0.10722519
132	0xbc042d00	-0.008067369
133	0x3e023089	0.12713827
134	0x3e0c9bd4	0.13731319
135	0x3be00952	0.0068370486
136	0x3dcf3df4	0.101192385
137	0xbd9286c8	-0.07154614
138	0xbd4e6c98	-0.05039653
139	0x3c42d683	0.011891964
140	0x3db67c4a	0.08910425
141	0xbdaabd70	-0.083369136
142	0xbdeb09ac	-0.11476454
143	0xbcd79781	-0.02631736
144	0xbcb640b8	-0.022247657
145	0xbd87b3af	-0.06626069
146	0x3db2932f	0.08719479
147	0x3df213a4	0.118201524
148	0xbc53259e	-0.012887387
149	0xbcacbd7e	-0.02108645
150	0x3e04cc84	0.12968642
151	0x3ca24568	0.019808486
152	0x3dbe505f	0.09292673
153	0xbd80d457	-0.062905006
154	0x3d7cd0ec	0.06172268
155	0xbd9639ed	-0.07335267
156	0xbd9cc36c	-0.07654461
157	0xbd2370fa	-0.039902665
158	0xbda85cd7	-0.08220833
159	0x3c658cbe	0.014010606
160	0xbd4f2282	-0.05057002
161	0x3c9a640a	0.01884653
162	0xbd1ee96a	-0.03879682
163	0xba1818c2	-0.0005802029
164	0xbc77e2d3	-0.015129763
165	0x3d48311a	0.048874952
166	0x3de0a6ee	0.10969339
167	0xbcee7d8d	-0.029112602
168	0x3ca729a1	0.020405592
169	0xbc08c255	-0.008347114
170	0x3dbc8e57	0.09206837
171	0x3d937efc	0.07201955
172	0x3c24ff82	0.010070683
173	0x3d935061	0.071930654
174	0x3dd49f2b	0.103819214
175	0x3dbf4962	0.093401685
176	0x3d83ac4c	0.064293474
177	0xbdb3e78a	-0.08784397
178	0xbc9ee71e	-0.019397315
179	0x3dd5133d	0.1040406
180	0x3d823511	0.06357778
181	0xbda5f573	-0.08103456
182	0xbcc5dd9b	-0.024153521
183	0x3df89e5f	0.12139582
184	0xbd4800ff	-0.048829075
185	0xbcf77003	-0.030204779
186	0xbcba61c1	-0.02275169
187	0x3e00e9be	0.12589166
188	0x3cc581ae	0.024109688
189	0xbd6faa54	-0.058512047
190	0xbe166967	-0.14688645
191	0x3dd32aa6	0.10310869
192	0xbd531f10	-0.051543295
193	0xbdb3cd07	-0.0877934
194	0x3d8a0017	0.067382984
195	0x3d70e5dd	0.058812965
196	0xbe06ec2a	-0.13176027
197	0x3d9fe5b1	0.07807482
198	0x3df98c45	0.121849574
199	0x3dd2c5d3	0.10291638
200	0xbc64135e	-0.013920633
201	0x3c4ad022	0.012378724
202	0x3d82670c	0.06367311
203	0x3d62cc42	0.055370577
204	0xbdd7d255	-0.105381645
205	0x3e1545a6	0.1457735
206	0xbdd9dcc0	-0.10637808
207	0x3e0ba3b7	0.13636671
208	0xbd66dcf5	-0.056363065
209	0x3aa6d9f3	0.0012729749
210	0x3dc7ef7e	0.097624764
211	0x3dcbfdf5	0.09960548
212	0x3d776568	0.060399443
213	0x3e15f5b9	0.14644517
214	0xbdb56310	-0.08856785
215	0x3c9b35f5	0.018946627
216	0x3e087d54	0.13329059
217	0xbcc0199e	-0.023449715
218	0xbdd5c680	-0.104382515
219	0xbd708ff3	-0.05873103
220	0xbab31720	-0.0013663508
221	0xbd092633	-0.033483695
222	0x3e180610	0.14846063
223	0xbd3482b3	-0.044069957
224	0x3dc44af8	0.09584612
225	0x3e1d22cf	0.1534531
226	0xbe09d976	-0.13461861
227	0x3d8edcd7	0.069757156
228	0x3d6683d1	0.056278054
229	0xbe077d72	-0.13231447
230	0xbc5f2185	-0.0136188315
231	0x3da6ec90	0.081505895
232	0xbd27cf93	-0.040969443
233	0x3d5fcd1c	0.054638967
234	0x3d17bccc	0.037045285
235	0xbb161de6	-0.0022906004
236	0xbde9cf20	-0.11416459
237	0xbd674ac8	-0.0564678
238	0x3e154870	0.14578414
239	0x3ccd613e	0.025070783
240	0xbc107a1b	-0.008818175
241	0x3d0f852c	0.035039112
242	0x3bfeaeba	0.007772294
243	0xbd8d4ee7	-0.06899815
244	0xbda110b7	-0.07864516
245	0x3d4c97ca	0.049949445
246	0x3d3b60c9	0.0457466
247	0x3d8ef0e3	0.06979539
248	0x3d61f6b0	0.0551669
249	0x3d8a6f56	0.06759517
250	0x3cc02f37	0.023460014
251	0x3ce6a41a	0.028154422
252	0xbc9c8121	-0.019104542
253	0x3ddb6bba	0.107139066
254	0xbdd2f3a5	-0.10300378
255	0xbc9a4d8d	-0.018835807

bias f4 [64]
0	0x3d1b90c0	0.03797984
1	0x3df737ce	0.12071191
2	0x3e12d173	0.14337711
3	0x3c72a2cc	0.014809322
4	0xbd8b467b	-0.068005525
5	0x3d9e2a27	0.07722884
6	0x3d16e9c6	0.036844037
7	0x3d27c66c	0.040960714
8	0xbd9bc6bb	-0.07606264
9	0xbd863dc6	-0.06554751
10	0x3c97d6b4	0.018534996
11	0x3c9e758e	0.019343164
12	0x3d3723e6	0.04471197
13	0xbdfe8b3a	-0.12428899
14	0x3cc10182	0.02356029
15	0x3d552f3c	0.052047
16	0xbd8e0ec3	-0.06936409
17	0x3d895763	0.06706121
18	0x3db93b40	0.09044504
19	0xbd91c0c8	-0.07116848
20	0x3dc88e59	0.09792776
21	0x3dc2a3e2	0.095039144
22	0xbbaa7751	-0.005202212
23	0xbc983eef	-0.018584697
24	0xbdbcfa6a	-0.0922745
25	0x3d0ad281	0.03389216
26	0x3e02c42e	0.12770149
27	0x3c148670	0.0090652555
28	0xbd12867c	-0.035772786
29	0xbdd01108	-0.101594985
30	0x3e22af49	0.15887178
31	0x3d65135b	0.055926662
32	0x3d8fcdba	0.07021661
33	0x3bf2b49b	0.0074067838
34	0x3de16ebf	0.11007451
35	0x3d921076	0.07132046
36	0x3c4ddc61	0.012564749
37	0x3db43522	0.08799197
38	0x3debcf26	0.1151412
39	0x3e0cf9d5	0.13767178
40	0x3de26ddd	0.11056111
41	0x3db2c02b	0.087280594
42	0xbd051667	-0.032492068
43	0x3d581d27	0.052762177
44	0xbc2f564a	-0.010701725
45	0x3c8de315	0.017320195
46	0x3d495e1b	0.04916201
47	0xbda8ff4d	-0.0825182
48	0xbb3a80df	-0.002845816
49	0xbd7dc637	-0.06195661
50	0xbd105f2f	-0.035247024
51	0x3ba4f288	0.005033795
52	0x3e28a1ef	0.16468023
53	0xbc82906b	-0.015938004
54	0x3db7593e	0.089525685
55	0xbd8df16c	-0.06930813
56	0xbc463e12	-0.01209976
57	0x3de92044	0.11383107
58	0xbdcd5c40	-0.10027361
59	0x3dd0f53a	0.10203023
60	0x3e0e927f	0.13923071
61	0xbdcb2efe	-0.099210724
62	0x3d589cd9	0.052883957
63	0x3dad8e44	0.08474401

weight f4 [2, 64]
0	0xbd4fea1b	-0.05076037
1	0x3d4737a6	0.048637055
2	0xbd38c890	-0.045113146
3	0xbd3defa4	-0.046371117
4	0x3d44bc2c	0.048031017
5	0xbd4d0d61	-0.050061587
6	0xbd48d4cc	-0.049031064
7	0x3d3f25e4	0.046666995
8	0xbd3717ca	-0.04470042
9	0xbd50c359	-0.050967548
10	0x3d46ab59	0.048503254
11	0x3d4b40b2	0.049622245
12	0xbd3ed147	-0.0465863
13	0xb87dbcc0	-6.0495688e-05
14	0x3d4d6926	0.050149105
15	0xbd209026	-0.03919997
16	0xbd5014aa	-0.050800957
17	0xbd5a9a32	-0.05336971
18	0xbd351c24	-0.04421629
19	0xbc27fee8	-0.0102536455
20	0xbcafe5c5	-0.021471867
21	0xbd38f4a0	-0.045155168
22	0xbd2c4599	-0.04205856
23	0x3d4df78f	0.05028492
24	0xbd3c71bf	-0.046006914
25	0xbd41d96b	-0.047326487
26	0xbd3159a0	-0.043298364
27	0xb90e9110	-0.00013596215
28	0x3d284c4b	0.041088384
29	0x38436580	4.6586152e-05
30	0xbd491dfa	-0.049100854
31	0x3d13a884	0.03604938
32	0xbd4c42aa	-0.049868263
33	0xbd4ffc19	-0.05077753
34	0x3d225958	0.039635986
35	0xbd35266a	-0.044226088
36	0xbd4554c0	-0.048176527
37	0xbd468f0d	-0.048476268
38	0xbd4a75fc	-0.049428925
39	0xbd3e138d	-0.046405364
40	0xbd4c76ed	-0.049918104
41	0xbd3852a0	-0.045000672
42	0xbd3705dc	-0.044683322
43	0xbc1e4d20	-0.009661943
44	0xbd3b6f57	-0.04576048
45	0x3d60bb52	0.054866143
46	0xbd3a5962	-0.0454954
47	0xbd520a12	-0.051279135
48	0xbd2efa0a	-0.042718925
49	0xbd459134	-0.04823418
50	0xbd532b26	-0.05155482
51	0x3ce58141	0.028015735
52	0x3d4cbc44	0.04998423
53	0xbd56df50	-0.05245906
54	0xbd435399	-0.047687147
55	0xbd4b1b08	-0.049586326
56	0xbd337dcb	-0.043821137
57	0x3d37db45	0.044886846
58	0x3cc8e27a	0.024522055
59	0x3d3f9293	0.046770643
60	0x3c9a849e	0.018862065
61	0x3af4af10	0.0018667895
62	0x3d5fbdc1	0.054624323
63	0x3cbd6db4	0.0231236
64	0xbb101fa2	-0.002199151
65	0x3d5c2ec9	0.053755555
66	0xbc31273d	-0.010812578
67	0xba0b4d3a	-0.0005313937
68	0x3d587c9d	0.052853215
69	0x3d4fa291	0.050692145
70	0x3ad790a1	0.0016446301
71	0x3d4d33fc	0.050098404
72	0xbc2750d8	-0.010212146
73	0x3c845e03	0.01615811
74	0x3d5adf81	0.053435806
75	0x3d5a7bff	0.05334091
76	0xbc483f40	-0.012222111
77	0x3a16b6bc	0.00057492754
78	0x3d48c8a4	0.04901947
79	0xbb2eaf40	-0.002665475
80	0x3d568b54	0.052378967
81	0x3cf49840	0.029857755
82	0xbbcb5906	-0.006205681
83	0x3d4841eb	0.04889099
84	0xbcb7a996	-0.022419732
85	0xbc2472c9	-0.010037133
86	0xbbdc7a54	-0.00672845
87	0x3d525e47	0.05135944
88	0xbc2e63b4	-0.010643888
89	0x3d510347	0.051028516
90	0xbc268962	-0.010164591
91	0xbb1fc0f6	-0.0024376488
92	0x3cf7f4a7	0.030268027
93	0x3aa71aac	0.0012749038
94	0x3cc6e95b	0.024281194
95	0x3d5cc3d1	0.053897683
96	0x3b4f819b	0.0031662944
97	0xba9b42a6	-0.0011845424
98	0x3d55042c	0.05200593
99	0x3cce24fc	0.02516412
100	0x3d595ef0	0.053069055
101	0x3d60d3ad	0.05488937
102	0xbc542b70	-0.012949809
103	0xbbdf297f	-0.0068103666
104	0x3d53faa0	0.051752687
105	0xbc726865	-0.014795397
106	0xbbb93d90	-0.005653091
107	0x3d46d512	0.048543043
108	0xbbded212	-0.0067999447
109	0x3d5a1bdf	0.053249236
110	0xbc16297e	-0.009165166
111	0xbb6dcbb0	-0.0036284737
112	0xbc8cd6a9	-0.017192202
113	0xbc48acb5	-0.012248208
114	0x3d1b36f8	0.03789422
115	0x3d5776fd	0.05260371
116	0x3d5abc16	0.05340203
117	0x3c6b3060	0.014354795
118	0xbc539309	-0.012913474
119	0xbbf9b580	-0.0076205134
120	0x3c4394ba	0.011937315
121	0x3d436a43	0.04770876
122	0xbb317b1a	-0.002708143
123	0x3d6006f6	0.05469414
124	0x3d5a610d	0.05331521
125	0x3ac781d8	0.0015221192
126	0x3d506c57	0.05088457
127	0x39842234	0.00025202485

bias f4 [2]
0	0xbc5f2157	-0.013618789
1	0x3d1a506b	0.03767435

exp_avg f4 [64, 10]
0	0x3803a7a0	3.1388947e-05
1	0xb75f8c3a	-1.3324485e-05
2	0x35f9e67b	1.8619024e-06
3	0x380d1b65	3.3642533e-05
4	0x37a6fce6	1.9906507e-05
5	0x35f9e67b	1.8619024e-06
6	0x37395bf3	1.1048268e-05
7	0xb6d7a188	-6.426304e-06
8	0x35c7eb94	1.4895218e-06
9	0x35f9e67b	1.8619024e-06
10	0xb7ee9104	-2.8439339e-05
11	0xb757d85a	-1.2865372e-05
12	0xb7a58d58	-1.9735351e-05
13	0x37f05980	2.8651906e-05
14	0x38479471	4.7583544e-05
15	0xb7a58d58	-1.9735351e-05
16	0xb8a3f718	-7.8184705e-05
17	0x382aa2f8	4.0682935e-05
18	0xb7847113	-1.578828e-05
19	0xb7a58d58	-1.9735351e-05
20	0xb6317f7d	-2.6449263e-06
21	0x36a0ad92	4.788578e-06
22	0xb5ad1a16	-1.2897096e-06
23	0x36a83190	5.01256e-06
24	0x36b152e7	5.284662e-06
25	0xb5ad1a16	-1.2897096e-06
26	0xb6d37526	-6.301928e-06
27	0xb6be9f8d	-5.6810154e-06
28	0xb58a7b44	-1.0317676e-06
29	0xb5ad1a16	-1.2897096e-06
30	0xb54708d1	-7.4146106e-07
31	0x34cb112e	3.7824196e-07
32	0xb4d6fa1c	-4.0042585e-07
33	0x35db91b4	1.6359177e-06
34	0x33853d1c	6.204411e-08
35	0xb4d6fa1c	-4.0042585e-07
36	0xb5bf8102	-1.4268155e-06
37	0xb5599c94	-8.106665e-07
38	0xb4abfb4a	-3.203407e-07
39	0xb4d6fa1c	-4.0042585e-07
40	0xb89f02a3	-7.582202e-05
41	0x387ec31b	6.0740025e-05
42	0xb7834cbb	-1.5652147e-05
43	0xb7e515ff	-2.730917e-05
44	0x3886fe92	6.437035e-05
45	0xb7834cbb	-1.5652147e-05
46	0xb8b04011	-8.404267e-05
47	0xb8b20101	-8.4878884e-05
48	0xb752145f	-1.2521718e-05
49	0xb7834cbb	-1.5652147e-05
50	0xb8561c09	-5.1047686e-05
51	0xb8cd9b5c	-9.8041e-05
52	0xb7f858c9	-2.9605248e-05
53	0xb6046fce	-1.9734612e-06
54	0x37e0f340	2.6816153e-05
55	0xb7f858c9	-2.9605248e-05
56	0xb901496b	-0.00012329749
57	0x38dc9b01	0.00010519289
58	0xb7c6ad6f	-2.36842e-05
59	0xb7f858c9	-2.9605248e-05
60	0x386befc1	5.6251654e-05
61	0xb7b46ea1	-2.1509188e-05
62	0x36a208ce	4.829001e-06
63	0x38636abf	5.4220433e-05
64	0x3858c63b	5.168303e-05
65	0x36a208ce	4.829001e-06
66	0x37d77a71	2.5687013e-05
67	0xb7d3fca4	-2.5270805e-05
68	0x3681a0a5	3.863201e-06
69	0x36a208ce	4.829001e-06
70	0xb6c1f6c4	-5.7805755e-06
71	0x36cf88b5	6.1849955e-06
72	0xb66e9884	-3.555354e-06
73	0x3629d2f4	2.5305753e-06
74	0xb78b0933	-1.6574375e-05
75	0xb66e9884	-3.555354e-06
76	0xb75df997	-1.3230739e-05
77	0x373fa0c4	1.1421918e-05
78	0xb63ee06a	-2.8442832e-06
79	0xb66e9884	-3.555354e-06
80	0xb72baee0	-1.02331105e-05
81	0x36cacb31	6.0437237e-06
82	0xb6c7f56d	-5.9592335e-06
83	0x36aadb9b	5.0919602e-06
84	0x37a8e202	2.0132404e-05
85	0xb6c7f56d	-5.9592335e-06
86	0xb7b06386	-2.102718e-05
87	0xb61257a2	-2.1806704e-06
88	0xb69ff78a	-4.7673866e-06
89	0xb6c7f56d	-5.9592335e-06
90	0xb7ccc049	-2.4408235e-05
91	0xb80321ce	-3.1264317e-05
92	0xb7639bbe	-1.3566516e-05
93	0x36e3327f	6.7710057e-06
94	0x38747101	5.8279376e-05
95	0xb7639bbe	-1.3566516e-05
96	0xb84ef431	-4.934165e-05
97	0x38860234	6.390028e-05
98	0xb7361631	-1.0853212e-05
99	0xb7639bbe	-1.3566516e-05
100	0xb88bb3e4	-6.661544e-05
101	0x372ed9f5	1.0421955e-05
102	0xb7cb2f9e	-2.422166e-05
103	0x37c8769f	2.3897095e-05
104	0x37e36562	2.7107719e-05
105	0xb7cb2f9e	-2.422166e-05
106	0xb8d89103	-0.00010326693
107	0x380b79c5	3.325359e-05
108	0xb7a28c7e	-1.9377327e-05
109	0xb7cb2f9e	-2.422166e-05
110	0xb7e0fc02	-2.6820231e-05
111	0x375d31bd	1.3184207e-05
112	0xb729d7c5	-1.0123423e-05
113	0xb602305d	-1.939966e-06
114	0x382a3b5b	4.0586438e-05
115	0xb729d7c5	-1.0123423e-05
116	0xb8588169	-5.1618936e-05
117	0xb79fd3c6	-1.9052892e-05
118	0xb707dfd0	-8.098737e-06
119	0xb729d7c5	-1.0123423e-05
120	0xb8a45930	-7.836742e-05
121	0x386c2b9a	5.630739e-05
122	0xb7ddb563	-2.6429718e-05
123	0x3782b1e3	1.5580043e-05
124	0x38370a60	4.3640262e-05
125	0xb7ddb563	-2.6429718e-05
126	0xb8f9b1ec	-0.00011906386
127	0xb887dc0e	-6.47829e-05
128	0xb7b15dea	-2.1143776e-05
129	0xb7ddb563	-2.6429718e-05
130	0x359a9e8b	1.1520036e-06
131	0xb7fb17b6	-2.9932573e-05
132	0xb7063e24	-8.001491e-06
133	0x365072ca	3.1061231e-06
134	0xb6855914	-3.974079e-06
135	0xb7063e24	-8.001491e-06
136	0xb811437b	-3.463354e-05
137	0x379f812d	1.901443e-05
138	0xb6d6c9d3	-6.4011924e-06
139	0xb7063e24	-8.001491e-06
140	0xb864a2c7	-5.4511034e-05
141	0x38752656	5.8448255e-05
142	0xb7100698	-8.584604e-06
143	0xb77250d1	-1.4443141e-05
144	0x3845e629	4.7182813e-05
145	0xb7100698	-8.584604e-06
146	0xb8405bb8	-4.5861787e-05
147	0xb894d08f	-7.096037e-05
148	0xb6e670f2	-6.8676827e-06
149	0xb7100698	-8.584604e-06
150	0x37846ec8	1.5787213e-05
151	0xb812a6a7	-3.496432e-05
152	0xb74512c2	-1.1746482e-05
153	0x3841c2a1	4.6196048e-05
154	0x38625d2e	5.396938e-05
155	0xb74512c2	-1.1746482e-05
156	0xb824a330	-3.9252627e-05
157	0x3829abc4	4.045271e-05
158	0xb71da89a	-9.397185e-06
159	0xb74512c2	-1.1746482e-05
160	0xb6b54007	-5.401674e-06
161	0x360723d2	2.0137418e-06
162	0xb6707ce0	-3.5835474e-06
163	0x3707395d	8.059983e-06
164	0xb773d1cc	-1.4532776e-05
165	0xb6707ce0	-3.5835474e-06
166	0xb72dd035	-1.03600805e-05
167	0x370eb70b	8.506478e-06
168	0xb64063e5	-2.8668376e-06
169	0xb6707ce0	-3.5835474e-06
170	0xb9222d5d	-0.00015466423
171	0x38b9a7d8	8.852751e-05
172	0xb805d3b6	-3.1906842e-05
173	0xb885e960	-6.385404e-05
174	0x38d4eaf4	0.00010152711
175	0xb805d3b6	-3.1906842e-05
176	0xb92bdb5c	-0.00016389549
177	0xb8f373cf	-0.00011608714
178	0xb7d61f89	-2.5525473e-05
179	0xb805d3b6	-3.1906842e-05
180	0xb8d6b362	-0.00010237728
181	0x37b10322	2.1101503e-05
182	0xb81335cf	-3.5097644e-05
183	0x3701cf87	7.737318e-06
184	0x389cee67	7.4830656e-05
185	0xb81335cf	-3.5097644e-05
186	0xb92502f1	-0.00015736722
187	0x37c0c205	2.2978531e-05
188	0xb7eb894b	-2.8078115e-05
189	0xb81335cf	-3.5097644e-05
190	0xb7aff129	-2.0973925e-05
191	0xb81e1d38	-3.7697348e-05
192	0xb78a09bb	-1.6455413e-05
193	0x37b22529	2.1236558e-05
194	0xb71a61c9	-9.201883e-06
195	0xb78a09bb	-1.6455413e-05
196	0xb86b9077	-5.616291e-05
197	0x385981de	5.185778e-05
198	0xb75cdc5f	-1.3164331e-05
199	0xb78a09bb	-1.6455413e-05
200	0x375f6224	1.3314686e-05
201	0xb70100d9	-7.6891965e-06
202	0xb618499c	-2.2692611e-06
203	0x37269815	9.92978e-06
204	0x35de4c2b	1.6562457e-06
205	0xb618499c	-2.2692611e-06
206	0xb72fa032	-1.0468111e-05
207	0x36c16b41	5.764334e-06
208	0xb5f3a8fb	-1.8154091e-06
209	0xb618499c	-2.2692611e-06
210	0x37c5aa18	2.3563436e-05
211	0x37650922	1.365159e-05
212	0x366c75ee	3.5235385e-06
213	0x37cda3db	2.4514206e-05
214	0x3774b62e	1.458595e-05
215	0x366c75ee	3.5235385e-06
216	0x378d5018	1.6845806e-05
217	0xb75cbc72	-1.3156898e-05
218	0x363d2b24	2.8188306e-06
219	0x366c75ee	3.5235385e-06
220	0xb8bc0ead	-8.967272e-05
221	0xb61ef36a	-2.368552e-06
222	0xb82e3abd	-4.1539537e-05
223	0x379ccbac	1.8691491e-05
224	0x3918ced0	0.00014572893
225	0xb82e3abd	-4.1539537e-05
226	0xb941b894	-0.00018474675
227	0x37f695d4	2.9395254e-05
228	0xb80b6231	-3.323163e-05
229	0xb82e3abd	-4.1539537e-05
230	0xb88de125	-6.7653404e-05
231	0x385f1890	5.319022e-05
232	0xb7737e36	-1.4513314e-05
233	0xb790880a	-1.7229486e-05
234	0x38765d06	5.8737605e-05
235	0xb7737e36	-1.4513314e-05
236	0xb89df711	-7.532363e-05
237	0xb89f4651	-7.594808e-05
238	0xb742cb5f	-1.1610652e-05
239	0xb7737e36	-1.4513314e-05
240	0x389e022f	7.534434e-05
241	0xb8b99101	-8.8484965e-05
242	0xb6cf69c4	-6.1813935e-06
243	0x38c62ebc	9.450081e-05
244	0x3863db3f	5.4325206e-05
245	0xb6cf69c4	-6.1813935e-06
246	0xb690d850	-4.3167165e-06
247	0x38bf6a6b	9.1274116e-05
248	0xb6a5ee35	-4.945114e-06
249	0xb6cf69c4	-6.1813935e-06
250	0xb88c3b74	-6.686794e-05
251	0x37df9e75	2.6657459e-05
252	0xb6f4a031	-7.2904154e-06
253	0xb840b019	-4.594037e-05
254	0x36a9faa8	5.0657727e-06
255	0xb6f4a031	-7.2904154e-06

exp_avg_sq f4 [64, 10]
0	0x2dff9d59	2.906002e-11
1	0x2d209c77	9.129689e-12
2	0x2b0ce9a9	5.006226e-13
3	0x2e018405	2.944846e-11
4	0x2d13eb43	8.408221e-12
5	0x2b0ce9a9	5.006226e-13
6	0x2d75135f	1.3930939e-11
7	0x2ce7d808	6.589399e-12
8	0x2ab45e4c	3.2039855e-13
9	0x2b0ce9a9	5.006226e-13
10	0x2d966a1c	1.7100148e-11
11	0x2d80cb3f	1.4642175e-11
12	0x2d031001	7.4500415e-12
13	0x2d9c5757	1.7773933e-11
14	0x2e47625c	4.5334722e-11
15	0x2d031001	7.4500415e-12
16	0x2f01057c	1.173443e-10
17	0x2e44aadd	4.4716997e-11
18	0x2ca7c292	4.768027e-12
19	0x2d031001	7.4500415e-12
20	0x2a1d663d	1.3979872e-13
21	0x2afbecbf	4.4750832e-13
22	0x29131a8d	3.2663586e-14
23	0x2b0a3ed3	4.9114635e-13
24	0x2b1a6456	5.4851035e-13
25	0x29131a8d	3.2663586e-14
26	0x2b5a8a86	7.76414e-13
27	0x2b313ecd	6.2970186e-13
28	0x28bc4af0	2.0904692e-14
29	0x29131a8d	3.2663586e-14
30	0x28c8f26a	2.230959e-14
31	0x2820f363	8.93456e-15
32	0x27ecde7c	6.5744376e-15
33	0x29e00b1b	9.949525e-14
34	0x28128ef0	8.135623e-15
35	0x27ecde7c	6.5744376e-15
36	0x29a9a9a5	7.534536e-14
37	0x28b4426a	2.0012817e-14
38	0x279798a1	4.20764e-15
39	0x27ecde7c	6.5744376e-15
40	0x2ef8ca17	1.1313633e-10
41	0x2e9f709d	7.250487e-11
42	0x2caa0516	4.8322553e-12
43	0x2d83b542	1.497347e-11
44	0x2eb31688	8.14398e-11
45	0x2caa0516	4.8322553e-12
46	0x2f18d46b	1.3899785e-10
47	0x2f1b8b6e	1.4146703e-10
48	0x2c59a01f	3.092644e-12
49	0x2caa0516	4.8322553e-12
50	0x2e72c542	5.519963e-11
51	0x2f500661	1.8919756e-10
52	0x2d95ceb0	1.7031127e-11
53	0x2c3c7b88	2.678498e-12
54	0x2d7446b6	1.3885495e-11
55	0x2d95ceb0	1.7031127e-11
56	0x2fa36690	2.9722402e-10
57	0x2f6c2636	2.147765e-10
58	0x2d3fc0e3	1.08999225e-11
59	0x2d95ceb0	1.7031127e-11
60	0x2eb89d55	8.395299e-11
61	0x2da394e4	1.8597075e-11
62	0x2bb0f9cc	1.2574885e-12
63	0x2ea78b58	7.619033e-11
64	0x2e6a7aa4	5.3314367e-11
65	0x2bb0f9cc	1.2574885e-12
66	0x2e28d386	3.8386648e-11
67	0x2ddddf3d	2.5223929e-11
68	0x2b628769	8.047925e-13
69	0x2bb0f9cc	1.2574885e-12
70	0x2b36901d	6.4859386e-13
71	0x2b4e80ec	7.3364817e-13
72	0x2a8891ba	2.425957e-13
73	0x2a14c959	1.3214897e-13
74	0x2cb99119	5.2741253e-12
75	0x2a8891ba	2.425957e-13
76	0x2c6d6be0	3.3739608e-12
77	0x2c305764	2.5059616e-12
78	0x2a2ecf02	1.5526125e-13
79	0x2a8891ba	2.425957e-13
80	0x2c190e5a	2.1750574e-12
81	0x2b6e38c8	8.4633385e-13
82	0x2b425cdf	6.905153e-13
83	0x2b280e13	5.970512e-13
84	0x2d0a7b03	7.871706e-12
85	0x2b425cdf	6.905153e-13
86	0x2d1a1359	8.7581825e-12
87	0x2b06e034	4.791751e-13
88	0x2af8c8cc	4.419298e-13
89	0x2b425cdf	6.905153e-13
90	0x2e1b543c	3.5317735e-11
91	0x2dcffa7d	2.3644415e-11
92	0x2ca3685f	4.644326e-12
93	0x2d111b40	8.2483465e-12
94	0x2e979984	6.893955e-11
95	0x2ca3685f	4.644326e-12
96	0x2e9aa9c9	7.033269e-11
97	0x2ee134bf	1.0241185e-10
98	0x2c512970	2.9723689e-12
99	0x2ca3685f	4.644326e-12
100	0x2ebd27f4	8.601822e-11
101	0x2c1dbcd1	2.2415856e-12
102	0x2d46f161	1.1308594e-11
103	0x2d482234	1.1376278e-11
104	0x2d877187	1.539814e-11
105	0x2d46f161	1.1308594e-11
106	0x2f620a49	2.0558234e-10
107	0x2dca6a0d	2.3011837e-11
108	0x2cfea59a	7.2374997e-12
109	0x2d46f161	1.1308594e-11
110	0x2df2b2d3	2.7591629e-11
111	0x2dc654c0	2.254763e-11
112	0x2c440ea8	2.7861411e-12
113	0x2d2f3d12	9.961159e-12
114	0x2e2ad6c4	3.8844275e-11
115	0x2c440ea8	2.7861411e-12
116	0x2e9583f4	6.799175e-11
117	0x2e269d2a	3.788362e-11
118	0x2bfaf40a	1.7831303e-12
119	0x2c440ea8	2.7861411e-12
120	0x2f024295	1.1847086e-10
121	0x2e87bb60	6.172374e-11
122	0x2d6c1aec	1.3421025e-11
123	0x2cda93d0	6.212343e-12
124	0x2e2cd263	3.9295133e-11
125	0x2d6c1aec	1.3421025e-11
126	0x2f960d86	2.729445e-10
127	0x2eb7202c	8.3275914e-11
128	0x2d171b79	8.589456e-12
129	0x2d6c1aec	1.3421025e-11
130	0x29594d24	4.8250588e-14
131	0x2d96e103	1.7152951e-11
132	0x2baf6b38	1.2464257e-12
133	0x2a76e75d	2.192946e-13
134	0x2af7acdf	4.3995967e-13
135	0x2baf6b38	1.2464257e-12
136	0x2dcbe6b8	2.3180888e-11
137	0x2cfb5422	7.1431897e-12
138	0x2b60893e	7.977125e-13
139	0x2baf6b38	1.2464257e-12
140	0x2e7d7ec5	5.7638134e-11
141	0x2e96f5eb	6.864894e-11
142	0x2bca0a83	1.4355881e-12
143	0x2c9025a6	4.096906e-12
144	0x2e4312b7	4.435449e-11
145	0x2bca0a83	1.4355881e-12
146	0x2e3404ba	4.093146e-11
147	0x2eda75ae	9.9343964e-11
148	0x2b814e69	9.187764e-13
149	0x2bca0a83	1.4355881e-12
150	0x2de3bce4	2.5890796e-11
151	0x2e07ba46	3.086089e-11
152	0x2c82e6dc	3.7204528e-12
153	0x2e4f3572	4.711382e-11
154	0x2e7a6b76	5.6938863e-11
155	0x2c82e6dc	3.7204528e-12
156	0x2e7880eb	5.6503174e-11
157	0x2e595eae	4.942418e-11
158	0x2c278de6	2.3810897e-12
159	0x2c82e6dc	3.7204528e-12
160	0x2b3a1d38	6.6121024e-13
161	0x2a2f552a	1.557267e-13
162	0x2a9741ce	2.686865e-13
163	0x2bb15000	1.2598811e-12
164	0x2c9fe1e3	4.5441303e-12
165	0x2a9741ce	2.686865e-13
166	0x2c2caec1	2.4539678e-12
167	0x2be282c8	1.6094565e-12
168	0x2a419be8	1.7195934e-13
169	0x2a9741ce	2.686865e-13
170	0x2ffbb338	4.5783977e-10
171	0x2f3829aa	1.6749505e-10
172	0x2dabdf76	1.9539686e-11
173	0x2ead1e7a	7.872543e-11
174	0x2f627810	2.0597235e-10
175	0x2dabdf76	1.9539686e-11
176	0x300dc1bd	5.157082e-10
177	0x2fa5e54d	3.0176253e-10
178	0x2d5bff4f	1.2505399e-11
179	0x2dabdf76	1.9539686e-11
180	0x2f60d9e9	2.0450099e-10
181	0x2da517be	1.8768872e-11
182	0x2dd23916	2.3899587e-11
183	0x2c6bbcc3	3.3500292e-12
184	0x2efa5fca	1.1385699e-10
185	0x2dd23916	2.3899587e-11
186	0x30045233	4.813813e-10
187	0x2dd04194	2.3675985e-11
188	0x2d868af1	1.5295739e-11
189	0x2dd23916	2.3899587e-11
190	0x2d166900	8.5498275e-12
191	0x2deec88e	2.7146532e-11
192	0x2cb52680	5.1486038e-12
193	0x2d193473	8.708689e-12
194	0x2c0afbda	1.9750785e-12
195	0x2cb52680	5.1486038e-12
196	0x2e84372c	6.0124655e-11
197	0x2e611ad0	5.118289e-11
198	0x2c67df5e	3.2951068e-12
199	0x2cb52680	5.1486038e-12
200	0x2c839299	3.7395195e-12
201	0x2bc67acc	1.4102829e-12
202	0x2a0306af	1.1637456e-13
203	0x2c115571	2.0653169e-12
204	0x2989ef31	6.125515e-14
205	0x2a0306af	1.1637456e-13
206	0x2c3089c2	2.5087575e-12
207	0x2b6a7df2	8.3308284e-13
208	0x29a7b6a4	7.447973e-14
209	0x2a0306af	1.1637456e-13
210	0x2da7ae8d	1.9063218e-11
211	0x2ce78782	6.5804593e-12
212	0x2b1be8aa	5.538995e-13
213	0x2da31826	1.8541679e-11
214	0x2c953315	4.240506e-12
215	0x2b1be8aa	5.538995e-13
216	0x2d7a3bb3	1.4224111e-11
217	0x2d3463f8	1.0254013e-11
218	0x2ac79037	3.544957e-13
219	0x2b1be8aa	5.538995e-13
220	0x2f47722e	1.813951e-10
221	0x2df8e052	2.8293954e-11
222	0x2e193794	3.4837536e-11
223	0x2d8e36d8	1.6167886e-11
224	0x2fe6b58c	4.1965753e-10
225	0x2e193794	3.4837536e-11
226	0x303ecfa8	6.9416695e-10
227	0x2e8357cc	5.972786e-11
228	0x2dc41e2f	2.2296024e-11
229	0x2e193794	3.4837536e-11
230	0x2ec8a266	9.123795e-11
231	0x2e78a59d	5.6535766e-11
232	0x2c93ab2e	4.196996e-12
233	0x2cd964f8	6.1787207e-12
234	0x2e977133	6.886793e-11
235	0x2c93ab2e	4.196996e-12
236	0x2ef8cd3a	1.131419e-10
237	0x2efd73a4	1.152565e-10
238	0x2c3d0412	2.6860775e-12
239	0x2c93ab2e	4.196996e-12
240	0x2f27353b	1.5207473e-10
241	0x2f924d63	2.6612232e-10
242	0x2c59a3c7	3.092847e-12
243	0x2f5a6726	1.986363e-10
244	0x2e8338a0	5.967249e-11
245	0x2c59a3c7	3.092847e-12
246	0x2e83d218	5.9945104e-11
247	0x2fb83549	3.3507266e-10
248	0x2c0b4a1c	1.9794227e-12
249	0x2c59a3c7	3.092847e-12
250	0x2ec7b492	9.081548e-11
251	0x2d88875a	1.5521518e-11
252	0x2bb3d593	1.2777994e-12
253	0x2e3c69d4	4.2840245e-11
254	0x2b8eeb37	1.0154992e-12
255	0x2bb3d593	1.2777994e-12

exp_avg f4 [64]
0	0x35f9e67b	1.8619024e-06
1	0xb7a58d56	-1.9735347e-05
2	0xb5ad1a16	-1.2897096e-06
3	0xb4d6fa1c	-4.0042585e-07
4	0xb7834cbb	-1.5652147e-05
5	0xb7f858ca	-2.960525e-05
6	0x36a208cf	4.8290017e-06
7	0xb66e9885	-3.5553542e-06
8	0xb6c7f56d	-5.9592335e-06
9	0xb7639bbe	-1.3566516e-05
10	0xb7cb2f9e	-2.422166e-05
11	0xb729d7c4	-1.0123422e-05
12	0xb7ddb564	-2.642972e-05
13	0xb7063e24	-8.001491e-06
14	0xb7100698	-8.584604e-06
15	0xb74512c1	-1.17464815e-05
16	0xb6707ce1	-3.5835476e-06
17	0xb805d3b5	-3.190684e-05
18	0xb81335cf	-3.5097644e-05
19	0xb78a09bc	-1.6455415e-05
20	0xb618499c	-2.2692611e-06
21	0x366c75ec	3.523538e-06
22	0xb82e3abd	-4.1539537e-05
23	0xb7737e36	-1.4513314e-05
24	0xb6cf69c5	-6.181394e-06
25	0xb6f4a032	-7.290416e-06
26	0xb785c265	-1.5945358e-05
27	0xb83a08e0	-4.435412e-05
28	0xb6900f22	-4.293296e-06
29	0xb662cef5	-3.379709e-06
30	0xb7429a5e	-1.15992425e-05
31	0xb60b1fb8	-2.0731077e-06
32	0xb80fe60d	-3.430811e-05
33	0xb74044e9	-1.1460136e-05
34	0xb797e342	-1.8106428e-05
35	0xb7a7846f	-1.996962e-05
36	0xb5622a8c	-8.4253475e-07
37	0xb79b7c22	-1.8535244e-05
38	0xb6bdddf4	-5.6584777e-06
39	0xb824cc4f	-3.9290924e-05
40	0xb8144c39	-3.5356938e-05
41	0xb807d690	-3.2386335e-05
42	0xb7ce00a5	-2.4557414e-05
43	0xb7349d25	-1.0765424e-05
44	0xb70fbdfe	-8.5677e-06
45	0x3600dbbf	1.9201395e-06
46	0xb74787f7	-1.1892981e-05
47	0xb5ee2c58	-1.7745288e-06
48	0xb784caa3	-1.5829986e-05
49	0xb6a1394d	-4.8048446e-06
50	0xb841c1c2	-4.6195237e-05
51	0xb5790920	-9.2773007e-07
52	0xb69e316c	-4.7145204e-06
53	0xb75bdec8	-1.31052875e-05
54	0xb5affd7e	-1.3112292e-06
55	0xb68632ea	-3.9994384e-06
56	0xb7cddcb2	-2.4540674e-05
57	0xb743e92c	-1.1677195e-05
58	0xb7c5ffb5	-2.3603303e-05
59	0xb776cf4f	-1.471101e-05
60	0xb79ce96c	-1.8705345e-05
61	0xb79d78e2	-1.8772149e-05
62	0xb73b92bd	-1.1180234e-05
63	0xb7449a82	-1.17184845e-05

exp_avg_sq f4 [64]
0	0x2b0ce9a9	5.006226e-13
1	0x2d031001	7.4500415e-12
2	0x29131a8c	3.2663583e-14
3	0x27ecde7c	6.5744376e-15
4	0x2caa0516	4.8322553e-12
5	0x2d95ceb1	1.7031128e-11
6	0x2bb0f9cc	1.2574885e-12
7	0x2a8891ba	2.425957e-13
8	0x2b425cdf	6.905153e-13
9	0x2ca3685f	4.644326e-12
10	0x2d46f15f	1.1308592e-11
11	0x2c440ea7	2.786141e-12
12	0x2d6c1aee	1.34210264e-11
13	0x2baf6b38	1.2464257e-12
14	0x2bca0a83	1.4355881e-12
15	0x2c82e6dd	3.720453e-12
16	0x2a9741ce	2.686865e-13
17	0x2dabdf74	1.9539682e-11
18	0x2dd23918	2.389959e-11
19	0x2cb52682	5.1486046e-12
20	0x2a0306b1	1.1637459e-13
21	0x2b1be8ab	5.5389954e-13
22	0x2e193794	3.4837536e-11
23	0x2c93ab2f	4.1969965e-12
24	0x2c59a3c5	3.0928465e-12
25	0x2bb3d594	1.2777995e-12
26	0x2cb6c50b	5.1946273e-12
27	0x2e293a8e	3.8478158e-11
28	0x2acb36c8	3.6098056e-13
29	0x2a7d7c43	2.2514026e-13
30	0x2c3bf42d	2.6709843e-12
31	0x2afeecfe	4.528391e-13
32	0x2dc9806b	2.2908083e-11
33	0x2c6483da	3.247394e-12
34	0x2ce18f70	6.4108094e-12
35	0x2d0a08b6	7.846326e-12
36	0x2b4efb81	7.3534934e-13
37	0x2ce6cdf4	6.5598586e-12
38	0x2b4d1af3	7.286803e-13
39	0x2e066b0b	3.0563146e-11
40	0x2dd55df9	2.4257029e-11
41	0x2db125c0	2.0139335e-11
42	0x2d55bd55	1.2149688e-11
43	0x2c6ad186	3.3369709e-12
44	0x2bcc418e	1.4513267e-12
45	0x2a8585a7	2.3718286e-13
46	0x2c7406e6	3.4678315e-12
47	0x298c97ca	6.24358e-14
48	0x2cb96b26	5.269912e-12
49	0x2afb9498	4.4689664e-13
50	0x2e32a363	4.061763e-11
51	0x292e797b	3.874113e-14
52	0x2af353cf	4.3223625e-13
53	0x2c7ee91d	3.6224975e-12
54	0x2972dcf8	5.3926454e-14
55	0x2c9b5039	4.4142715e-12
56	0x2d4e5678	1.1728944e-11
57	0x2c47d2f2	2.83967e-12
58	0x2d3c408a	1.0700893e-11
59	0x2c936cb9	4.190062e-12
60	0x2d1ef21b	9.035018e-12
61	0x2cee37a2	6.7705433e-12
62	0x2c28a3d2	2.3965174e-12
63	0x2c49856a	2.8637878e-12

exp_avg f4 [64, 64]
0	0x36a1ca4a	4.8217235e-06
1	0xb757e23c	-1.2867673e-05
2	0xb4a032ea	-2.9839367e-07
3	0xb497aab5	-2.8250147e-07
4	0x359c8cf7	1.1663932e-06
5	0xb72bffe2	-1.0251972e-05
6	0xb444d452	-1.8331164e-07
7	0x355c49c8	8.206375e-07
8	0xb55758f9	-8.0223214e-07
9	0xb72454eb	-9.794933e-06
10	0xb6e49353	-6.8120803e-06
11	0xb649f4ce	-3.009383e-06
12	0xb53a0632	-6.9299415e-07
13	0xb67fe99b	-3.8133937e-06
14	0x347f3475	2.376781e-07
15	0xb7857603	-1.5909789e-05
16	0x34233f9d	1.52037e-07
17	0x3551d34d	7.816605e-07
18	0xb6dff29f	-6.6741627e-06
19	0xb6913f7e	-4.328728e-06
20	0xb705d8dd	-7.97791e-06
21	0xb557b9af	-8.0363947e-07
22	0xb7231774	-9.721018e-06
23	0x35f9ca92	1.8610901e-06
24	0xb709a2b0	-8.203715e-06
25	0x36cb4afa	6.0586e-06
26	0x353de7ff	7.0745585e-07
27	0xb6e8ffdf	-6.943926e-06
28	0xb58e3930	-1.0596468e-06
29	0xb3dbadd7	-1.02296035e-07
30	0xb6f07276	-7.1658824e-06
31	0x36a5923a	4.934406e-06
32	0x35129441	5.4604976e-07
33	0xb6f2038b	-7.2125745e-06
34	0x3618238a	2.2670451e-06
35	0x3622dba7	2.4267736e-06
36	0xb7c2326a	-2.3150078e-05
37	0x358f0bfa	1.0657816e-06
38	0x368343b3	3.9119855e-06
39	0xb786290d	-1.599316e-05
40	0xb61e566a	-2.3594134e-06
41	0xb7bfe897	-2.2877282e-05
42	0xb7a0356d	-1.9098365e-05
43	0xb6f22617	-7.2165963e-06
44	0xb67f3334	-3.8027765e-06
45	0x369bc531	4.642316e-06
46	0xb7af2dbd	-2.0882924e-05
47	0xb4b9e042	-3.4622104e-07
48	0x3713d497	8.81138e-06
49	0x34862fff	2.4994367e-07
50	0xb601968d	-1.931013e-06
51	0xb4220414	-1.508891e-07
52	0xb4e03d0e	-4.1767674e-07
53	0xb6f891cf	-7.4079503e-06
54	0x361d6a15	2.345657e-06
55	0xb72191d0	-9.630297e-06
56	0x332bf895	4.0040124e-08
57	0xb6fdf984	-7.569035e-06
58	0xb593a071	-1.0999048e-06
59	0xb77a8d2e	-1.4934032e-05
60	0xb7ace48e	-2.0610427e-05
61	0xb5881ae6	-1.0140618e-06
62	0x355f5ddd	8.321056e-07
63	0xb6071bbd	-2.0132713e-06
64	0xb6226f1d	-2.4204558e-06
65	0xb7968194	-1.7941733e-05
66	0xb51592ec	-5.5720625e-07
67	0xb389f0fe	-6.423396e-08
68	0xb8003ef0	-3.0576193e-05
69	0x34f143e3	4.4939142e-07
70	0xb69f387c	-4.745145e-06
71	0x00000000	0.0
72	0xb59a88d0	-1.1513712e-06
73	0xb4290ba2	-1.5743584e-07
74	0xb6a1033e	-4.7985513e-06
75	0xb762132f	-1.3475116e-05
76	0xb79a7bd4	-1.8415893e-05
77	0x00000000	0.0
78	0xb7f09cf6	-2.868332e-05
79	0xb5c4d45c	-1.4664943e-06
80	0x00000000	0.0
81	0xb88bb968	-6.662571e-05
82	0xb89a7d5c	-7.366642e-05
83	0x34c4e2a6	3.6672753e-07
84	0x00000000	0.0
85	0xb57d3134	-9.4321445e-07
86	0xb7d2ec8a	-2.5144098e-05
87	0xb887c6cd	-6.474331e-05
88	0xb6d0edd4	-6.22657e-06
89	0xb7206d6e	-9.562222e-06
90	0xb74be301	-1.2152596e-05
91	0xb8a0d738	-7.669482e-05
92	0xb5734b54	-9.063417e-07
93	0xb41c17ba	-1.4537264e-07
94	0xb65b8c6e	-3.2715284e-06
95	0xb5a02d0a	-1.1934037e-06
96	0xb887cc95	-6.475408e-05
97	0xb61f3e6f	-2.3729187e-06
98	0xb82962c6	-4.038473e-05
99	0xb81976aa	-3.6588557e-05
100	0xb734880d	-1.0760513e-05
101	0xb830714a	-4.206718e-05
102	0xb718dd48	-9.111427e-06
103	0xb76618dc	-1.3714856e-05
104	0xb832c5dd	-4.262278e-05
105	0xb6810826	-3.845448e-06
106	0xb72d5486	-1.0331283e-05
107	0xb62df097	-2.591905e-06
108	0xb7c252e5	-2.3165203e-05
109	0xb2ce0e6e	-2.3988118e-08
110	0xb6a37690	-4.871581e-06
111	0x00000000	0.0
112	0xb75a6500	-1.30173285e-05
113	0xb59f948a	-1.1889654e-06
114	0xb8ba6814	-8.888557e-05
115	0xb40576c4	-1.2429797e-07
116	0xb653d284	-3.1563986e-06
117	0xb62d2b31	-2.580415e-06
118	0xb5753448	-9.134569e-07
119	0xb699ba79	-4.5814636e-06
120	0xb89d447f	-7.499102e-05
121	0xb511ad1e	-5.426863e-07
122	0xb7e2e6e3	-2.7048814e-05
123	0xb7773579	-1.4734797e-05
124	0xb5b8e7b3	-1.3776502e-06
125	0xb78fc3ef	-1.7138167e-05
126	0xb722da1b	-9.706734e-06
127	0xb6b04399	-5.253078e-06
128	0x36e000f1	6.67583e-06
129	0xb61bb3c5	-2.320144e-06
130	0xb32489cf	-3.830956e-08
131	0xb3d41c5e	-9.877179e-08
132	0x350153b0	4.8178026e-07
133	0xb7047764	-7.895611e-06
134	0x36f2371e	7.2185785e-06
135	0x358b5808	1.0381927e-06
136	0xb517c87d	-5.654363e-07
137	0xb6c12510	-5.756163e-06
138	0xb638dada	-2.7545525e-06
139	0xb502a057	-4.86621e-07
140	0x3606843a	2.0044522e-06
141	0xb64d8ae0	-3.0628216e-06
142	0xb4a5a555	-3.085394e-07
143	0xb728c5c9	-1.0059631e-05
144	0x350b44f3	5.188187e-07
145	0x34c81698	3.7269342e-07
146	0xb518cb07	-5.6919856e-07
147	0xb629b053	-2.5285597e-06
148	0xb6e57249	-6.8380364e-06
149	0x3526c710	6.2129493e-07
150	0xb61e63ff	-2.360204e-06
151	0x35dd1dfc	1.647451e-06
152	0x35e08c60	1.6730155e-06
153	0x36a3cad3	4.8813904e-06
154	0x34062a39	1.2495083e-07
155	0xb6471559	-2.9665737e-06
156	0xb4735c53	-2.2664726e-07
157	0x341abf74	1.4412018e-07
158	0x35c6533a	1.4776372e-06
159	0x36bb068c	5.5737964e-06
160	0x35cd6ef4	1.5305982e-06
161	0xb54987a3	-7.507571e-07
162	0x358ecc1a	1.0639226e-06
163	0x35e5479d	1.7082672e-06
164	0xb751fe23	-1.2516542e-05
165	0x352377a0	6.089631e-07
166	0x371a6dee	9.20471e-06
167	0xb74888f2	-1.1952814e-05
168	0xb5b5d7ef	-1.3548396e-06
169	0xb78056c1	-1.5299187e-05
170	0xb752b126	-1.2558221e-05
171	0xb48820af	-2.5355754e-07
172	0xb65b5b9b	-3.2686864e-06
173	0x367e0279	3.7850389e-06
174	0xb7565b63	-1.2776672e-05
175	0xb4143a12	-1.38047e-07
176	0x374f303f	1.2349395e-05
177	0x35ea407b	1.7453125e-06
178	0x35e55bf5	1.7088593e-06
179	0x33d244b7	9.791386e-08
180	0xb4234a6c	-1.5207632e-07
181	0xb5d0fbb1	-1.557046e-06
182	0x362002be	2.3843454e-06
183	0x3549037e	7.4883417e-07
184	0x36208653	2.3920045e-06
185	0xb656f0d6	-3.202867e-06
186	0xb4d92fce	-4.0454182e-07
187	0xb6e7ab67	-6.9042903e-06
188	0xb755654f	-1.2719377e-05
189	0x3650615c	3.1051086e-06
190	0x31f3225b	7.0761366e-09
191	0xb364442b	-5.3147385e-08
192	0x368f303f	4.2673487e-06
193	0xb74c100c	-1.2163084e-05
194	0xb4977d70	-2.821721e-07
195	0xb48a5895	-2.5768955e-07
196	0x34ddf1b8	4.134033e-07
197	0xb71beb40	-9.293493e-06
198	0xb4c23a8f	-3.6177923e-07
199	0x3538ec00	6.8888767e-07
200	0xb561ef1a	-8.416697e-07
201	0xb716e732	-8.994526e-06
202	0xb6d8437d	-6.4451583e-06
203	0xb63c8c6b	-2.8095917e-06
204	0xb5a50f78	-1.229796e-06
205	0xb668dfd3	-3.4700977e-06
206	0xb4c0fab5	-3.59452e-07
207	0xb7724026	-1.443926e-05
208	0x33c04459	8.953129e-08
209	0x32014866	7.52525e-09
210	0xb6e4d199	-6.81933e-06
211	0xb6860bb5	-3.994874e-06
212	0xb6f0be5c	-7.174718e-06
213	0xb559df42	-8.116368e-07
214	0xb71b52d0	-9.258001e-06
215	0x35811a40	9.618889e-07
216	0xb6ff2922	-7.6043807e-06
217	0x36b71ed5	5.4574143e-06
218	0x3481410d	2.4075453e-07
219	0xb6f142cc	-7.190136e-06
220	0xb58841ef	-1.0151979e-06
221	0xb41dd094	-1.4697645e-07
222	0xb6e529c1	-6.8295926e-06
223	0x36918944	4.3373166e-06
224	0xb4b1b107	-3.3097623e-07
225	0xb6e12d16	-6.7107712e-06
226	0x35da54fd	1.6267e-06
227	0x35e1cac6	1.6822821e-06
228	0xb7af3aab	-2.0888945e-05
229	0x34e676e4	4.2927343e-07
230	0x3663feb8	3.3973902e-06
231	0xb7799f5a	-1.48786585e-05
232	0xb63a3a5b	-2.7750127e-06
233	0xb7af4782	-2.0894924e-05
234	0xb792998a	-1.7476053e-05
235	0xb6e4335b	-6.800908e-06
236	0xb68365b9	-3.9159463e-06
237	0x368c62de	4.183835e-06
238	0xb79ffab6	-1.9071023e-05
239	0xb4b18f62	-3.3073144e-07
240	0x37004367	7.645088e-06
241	0x33ce7984	9.614726e-08
242	0xb62ff69f	-2.6220584e-06
243	0xb400e650	-1.2004716e-07
244	0xb51eddb0	-5.9182184e-07
245	0xb6e674f6	-6.86815e-06
246	0x360b223a	2.0732537e-06
247	0xb7163ef8	-8.955358e-06
248	0xb52f95c7	-6.5410535e-07
249	0xb6eb1efa	-7.007152e-06
250	0xb5de8755	-1.6579676e-06
251	0xb768cd6b	-1.3876105e-05
252	0xb79d0ed9	-1.8722772e-05
253	0xb5ad0da2	-1.2893472e-06
254	0x34eb8877	4.3871452e-07
255	0xb609325b	-2.0443902e-06
