maddpg.pt (torch, 819311 bytes, 140 tensors)

weight f4 [64, 13]
0.046529233 -0.015773058 0.12579593 0.03594607 -0.06361249 -0.16394988 -0.21461232 0.01953876
-0.024263173 -0.19885622 -0.086156264 -0.17056248 -0.26677975 0.056585014 0.11847645 0.110363275
0.1415785 0.05710998 -0.00048798323 -0.08966306 -0.2257362 0.2614434 0.02660808 0.031298548
0.12966087 0.06312111 -0.25525165 0.05252537 -0.2219897 -0.038024694 -0.06303449 0.2758365
-0.02387315 -0.08153899 -0.16365045 0.01989013 0.20489872 -0.22061194 -0.26384765 -0.14755046
0.12603539 0.014849335 -0.00426355 0.18608475 -0.048431814 0.20233187 0.14747578 0.17825177
0.20483238 -0.10678643 -0.033649832 0.22887644 -0.008033425 0.25515696 -0.058930933 0.07135296
-0.10801065 -0.0781288 0.10439208 -0.22408204 -0.16656873 0.2055563 0.1832779 0.26148304
0.2709494 0.073664874 -0.025702953 -0.12210247 0.113960266 0.20982534 -0.07435496 -0.17653179
0.0011955798 -0.20046058 0.004453391 -0.05015388 -0.16011317 0.11519769 0.060657382 -0.1545851
-0.016307026 0.18713415 0.03091982 0.10822022 -0.18936299 -0.14314651 0.12215227 0.028062105
-0.06843656 -0.23639981 -0.2416765 -0.21741888 -0.18288171 0.11827332 -0.19231503 -0.0063394904
0.092098 0.03465578 -0.14959982 0.13962245 -0.17036659 0.069494784 0.19673908 0.015328556
-0.043381155 0.23725691 -0.013502657 -0.2233786 0.015368164 -0.050975025 -0.09739235 0.25412115
0.010171115 -0.22231078 -0.005093932 0.24798211 -0.2438375 0.09639126 0.1052129 0.0104313195
-0.11074774 -0.092532575 -0.2678176 -0.20306256 -0.21791577 -0.109623075 0.21338996 0.060944736
0.03548792 0.2455779 -0.030594707 0.20508781 0.09221104 -0.027094603 -0.16112708 -0.14791399
0.18555135 0.117842406 -0.22192235 0.07410291 -0.130927 0.006417364 -0.04659842 0.107745975
0.11025882 -0.24877797 -0.24049038 0.051727295 -0.095008105 -0.26131952 -0.11986287 0.18764761
-0.021424025 -0.18784064 -0.11835766 -0.15172668 -0.032975197 -0.14760658 -0.19567001 0.16765651
-0.101912454 -0.17676474 -0.03429039 -0.27337557 -0.17232051 -0.09563646 0.01946041 -0.22189184
0.0986315 0.05638203 0.104669005 0.12357479 -0.034772024 -0.15464777 -0.0099205375 0.06775591
-0.0015673935 -0.0060412884 0.03202489 -0.006992817 -0.08533624 -0.2317105 -0.21700712 -0.13552126
-0.16315994 0.17594284 -0.028514236 0.25593534 -0.11023702 0.16825509 0.25089607 -0.10304211
-0.25382775 -0.19085371 -0.052481994 0.19952404 0.15754825 0.18341619 -0.2729668 0.22354898
0.25795296 0.18505555 0.18782622 -0.0815005 0.12963915 0.21782514 0.25927106 -0.25345564
0.0477131 -0.08338289 0.26101837 -0.2336089 0.018489867 0.14803433 0.10914874 -0.21296412
-0.15977709 0.06794852 -0.04252 -0.22834516 -0.21082734 0.2127989 -0.19157247 -0.21943815
-0.118659675 0.08426401 -0.040822595 -0.23893504 0.20087463 0.27608636 0.15596089 0.118686736
-0.20483528 0.08045676 -0.19962156 -0.08557962 -0.12777682 0.0040789843 -0.20449996 -0.05835928
0.011330724 0.19108155 -0.027732566 0.23813441 0.20611024 0.11679202 0.24273464 -0.18477772
0.20434457 0.16494548 -0.21755373 0.21709642 0.0049082935 0.18069878 0.16319618 0.20157006
00000000: 7095 3e3d 8036 81bc a6d0 003e 303c 133d
00000010: 4447 82bd 7ae2 27be 55c3 5bbe c00f a03c
00000020: 90c3 c6bc f7a0 4bbe b272 b0bd eea7 2ebe
00000030: 5b97 88be b0c5 673d c8a3 f23d 2406 e23d
00000040: f4f9 103e 28ec 693d 00d8 ffb9 44a1 b7bd
00000050: 6427 67be e9db 853e 30f9 d93c e832 003d
00000060: d2c5 043e a445 813d 58b0 82be d824 573d
00000070: 4551 63be c8bf 1bbd 3a18 81bd 713a 8d3e
00000080: a091 c3bc eafd a6bd fc93 27be a0f0 a23c
00000090: f8d0 513e 19e8 61be 0a17 87be 7817 17be
000000a0: 6c0f 013e a04a 733c 40b5 8bbb 008d 3e3e
000000b0: 7060 46bd 1630 4f3e e403 173e a287 363e
000000c0: 94bf 513e d8b2 dabd 68d4 09bd 965e 6a3e
000000d0: a09e 03bc efa3 823e 9061 71bd 8021 923d
000000e0: b034 ddbd fe01 a0bd 84cb d53d c375 65be
000000f0: fe90 2abe 5a7d 523e 34ad 3b3e 1be1 853e
00000100: e1b9 8a3e 9cdd 963d 008f d2bc dc10 fabd
00000110: 0064 e93d 74dc 563e 6a47 98bd c0c4 34be
00000120: 00b5 9c3a 8a45 4dbe c0ed 913b 286e 4dbd
00000130: b5f4 23be c4ec eb3d e073 783d 8e4b 1ebe
00000140: 5096 85bc 18a0 3f3e 904b fd3c 90a2 dd3d
00000150: 5fe8 41be 0095 12be f82a fa3d 80e2 e53c
00000160: 7828 8cbd cb12 72be 0b7a 77be 0ea3 5ebe
00000170: 5845 3bbe 4839 f23d 3bee 44be 80bb cfbb
00000180: e09d bc3d 38f3 0d3d b230 19be 30f9 0e3e
00000190: 9474 2ebe 4853 8e3d f875 493e a024 7b3c
000001a0: 70b0 31bd 7af3 723e 403a 5dbc 5cbd 64be
000001b0: c0ca 7b3c 30cb 50bd a475 c7bd 2b1c 823e
000001c0: c0a4 263c 70a5 63be 00eb a6bb 06ef 7d3e
000001d0: 8ab0 79be c868 c53d dc79 d73d 20e8 2a3c
000001e0: b6cf e2bd b881 bdbd 631f 89be a2ef 4fbe
000001f0: 5025 5fbe 1082 e0bd e682 5a3e 30a1 793d
00000200: c85b 113d c678 7b3e c0a1 fabc 8a02 523e
00000210: 24d9 bc3d 80f5 ddbc 7ffe 24be c476 17be
00000220: 2c01 3e3e 5c57 f13d 9d3f 63be 44c3 973d
00000230: ba11 06be c048 d23b fcdd 3ebd eca9 dc3d
00000240: 60cf e13d a7bf 7ebe 1c43 76be 00e0 533d
00000250: 9c93 c2bd accb 85be aa7a f5bd b226 403e
00000260: 7081 afbc 4c59 40be 8065 f2bd 3d5e 1bbe
00000270: 0011 07bd 2e26 17be b85d 48be 26ae 2b3e
00000280: 7ab7 d0bd d101 35be 1474 0cbd e2f7 8bbe
00000290: ca74 30be 0cdd c3bd 706b 9f3c 9d37 63be
000002a0: 50ff c93d d8f0 663d b45c d63d c814 fd3d
000002b0: 1c6d 0ebd fc5b 1ebe c089 22bc 9cc3 8a3d
000002c0: 0071 cdba 00f6 c5bb 882c 033d 0024 e5bb
000002d0: c4c4 aebd 8445 6dbe 1d37 5ebe 16c6 0abe
000002e0: 6613 27be 5c2a 343e b096 e9bc f509 833e
000002f0: f2c3 e1bd 104b 2c3e 7375 803e be07 d3bd
00000300: b6f5 81be 286f 43be 5cf7 56bd 0850 4c3e
00000310: 5454 213e 74d1 3b3e 4ec2 8bbe 06ea 643e
00000320: 6912 843e 347f 3d3e 8455 403e bce9 a6bd
00000330: 20c0 043e 8e0d 5f3e 2dbf 843e f0c4 81be
00000340: d06e 433d a6c4 aabd 33a4 853e 2c37 6fbe
00000350: 1078 973c 5096 173e 6089 df3d 4413 5abe
00000360: 9b9c 23be 9828 8b3d 7429 2ebd 50d3 69be
00000370: 1fe3 57be f4e7 593e 932b 44be 65b4 60be
00000380: d803 f3bd 9c92 ac3d 9835 27bd 63ab 74be
00000390: 14b2 4d3e 315b 8d3e 36b4 1f3e 0812 f33d
000003a0: 57c0 51be 84c6 a43d 9869 4cbe 5e44 afbd
000003b0: edd7 02be 00a9 853b 7068 51be 240a 6fbd
000003c0: 80a4 393c e2aa 433e 682f e3bc 82d9 733e
000003d0: 900e 533e a830 ef3d 6e8f 783e 5f36 3dbe
000003e0: b43f 513e 78e7 283e 68c6 5ebe 864e 5e3e
000003f0: c0d5 a03b 1a09 393e e61c 273e 6268 4e3e

bias f4 [64]
-0.16324303 0.22712675 -0.019424945 0.0804863 -0.26987258 0.26718226 0.12155947 0.24675837
-0.04242997 0.23640814 -0.25758255 -0.26662117 0.2190294 0.13756037 0.13411695 -0.22220603
0.2587547 0.09552631 0.064103425 -0.27446243 0.041031122 -0.10768455 0.17286482 -0.0091282725
0.14951393 -0.1477103 0.076407254 0.25831965 0.015286386 0.23918012 0.119131744 -0.030567333
-0.025287062 0.0919556 0.092704624 -0.22261938 0.06128156 -0.26344508 -0.23737678 0.006919861
-0.15347412 -0.2187642 -0.031381443 0.15049705 -0.2610334 0.101792574 0.04939559 -0.12536588
-0.14797603 -0.12475321 0.0719133 -0.08530781 -0.15587741 -0.22558984 0.093150616 0.15502772
-0.24789105 -0.17428121 0.011137605 -0.08491574 -0.016934276 0.1528529 0.20377412 0.10457206
00000000: 2e29 27be ea93 683e 1021 9fbc 00d6 a43d
00000010: bd2c 8abe 1dcc 883e 2cf4 f83d 3aae 7c3e
00000020: 0ccb 2dbd fa14 723e dce1 83be 9282 88be
00000030: 3e49 603e a0dc 0c3e f455 093e fa89 63be
00000040: 7f7b 843e 4ca3 c33d a848 833d 5786 8cbe
00000050: 4010 283d b889 dcbd 7a03 313e c08e 15bc
00000060: 2e1a 193e 5e41 17be 687b 9c3d 7942 843e
00000070: c073 7a3c a2eb 743e 58fb f33d 5868 fabc
00000080: d026 cfbc 3853 bc3d ecdb bd3d 56f6 63be
00000090: 6002 7b3d 46e2 86be e612 73be 00c0 e23b
000000a0: 5228 1dbe b903 60be d489 00bd e61b 1a3e
000000b0: 2ba6 85be a078 d03d 0853 4a3d ea5f 00be
000000c0: 0787 17be 9c7e ffbd 4847 933d dcb5 aebd
000000d0: 549e 1fbe 0601 67be c0c5 be3d 96bf 1e3e
000000e0: 27d7 7dbe c676 32be 807a 363c 4ee8 adbd
000000f0: c0b9 8abc 7885 1c3e 2aaa 503e e029 d63d

weight f4 [64, 64]
-0.037544474 -0.07087888 -0.0072105676 0.065646544 0.052241385 0.042409062 0.065372795 -0.03587167
-0.0025110692 -0.016578913 -0.0804991 -0.0015902966 0.08609508 0.09190388 0.0074016303 -0.0063053668
-0.084719494 -0.08022112 0.07123469 0.019300938 -0.09818342 -0.008081436 -0.045055255 -0.111947745
-0.045073465 -0.08018041 0.101765946 0.04679747 -0.062165156 0.073257595 -0.010876194 0.030510709
-0.03157948 0.051419005 -0.04363951 -0.044938758 -0.005654633 0.04210405 0.07930493 0.007391289
-0.12234804 -0.05199617 -0.06703456 0.062253386 0.017209828 -0.048349738 -0.104228556 0.06824285
-0.0013999194 -0.030888796 0.0021089464 -0.121082544 0.053964257 -0.085982785 -0.12453002 -0.049092785
-0.07869461 -0.0034623593 0.013080075 0.051542446 -0.1229672 0.023344204 -0.117225185 0.023446381
0.040153995 0.031941712 -0.004202217 -0.021002486 0.028391302 0.016410783 0.10021442 -0.004642844
0.10042934 0.013984308 -0.04273829 0.02837558 -0.0051659346 -0.06420152 -0.10689002 0.10067025
-0.07098012 0.019534692 -0.08503313 0.109149694 -0.10126901 0.066389665 -0.0037138313 0.019976065
0.007057965 0.10437463 -0.027316883 0.033486098 -0.089432985 0.006288603 0.11363067 -0.1135024
-0.04562381 -0.123156935 0.03444995 -0.11800158 -0.06783524 -0.054246917 -0.006097883 -0.113454714
0.06535743 0.07586312 -0.031115219 -0.00076931715 0.07016164 -0.10627258 -0.054952085 0.01146473
0.047907174 0.06347415 -0.08309677 0.06849854 -0.050259545 -0.009944618 0.016177922 -0.109956264
-0.009937689 0.041222587 -0.09355585 0.045388162 0.08180764 -0.009656027 -0.050769106 0.017277882
-0.11579402 -0.11342554 0.05333975 0.112833336 0.08761884 -0.03784506 0.10038452 0.062379807
0.042624697 -0.054370314 0.06673612 0.08753587 0.057293937 0.09152478 0.06218204 0.050386563
-0.06309551 -0.09416433 0.052227452 0.032216743 0.121929884 -0.0058640093 -0.050562873 0.087904766
-0.0012143999 -0.06915635 -0.07534002 0.079689875 0.059439823 -0.07461488 -0.05595748 -0.0071401447
-0.11145271 -0.07417245 0.06445959 0.0027108341 0.011195809 0.10750589 -0.111692995 -0.09109165
0.104670584 0.09810771 -0.028190032 0.09238611 -0.07599817 -0.046567887 0.086697 -0.07058343
0.10138601 0.027757704 -0.124410644 -0.111856416 -0.0051387846 0.044618577 0.005274996 0.045167595
-0.010553703 0.003511101 0.10345031 0.074488685 -0.052962974 0.034212783 0.12242125 0.045878574
-0.051321223 -0.09770453 -0.0348887 0.0065262318 -0.04814522 0.024878874 0.0807085 0.106735244
0.090615764 -0.12211384 -0.12102537 0.12120029 0.0115416795 0.06639902 0.037231863 0.11806972
0.08455604 0.109777465 -0.04247424 0.10187207 0.009904265 -0.06405845 -0.05636573 0.10874793
0.12344749 0.08314885 0.034372523 -0.026239261 -0.04074028 -0.110694066 -0.090152785 -0.008197814
0.028687209 -0.09287663 0.015884086 -0.043497235 0.043763727 -0.026302025 -0.052777916 -0.08619264
0.08496924 -0.11594874 0.039612696 0.045386136 0.024634883 -0.10997786 -0.022433653 0.12335193
-0.089827165 0.104097426 0.022618935 0.08685912 0.030376703 -0.11731598 0.065684974 0.05475767
-0.09843314 -0.046666116 0.0461199 0.03212124 0.053619444 -0.116501555 0.03482534 0.06994523
00000000: 3cc8 19bd f228 91bd a046 ecbb b271 863d
00000010: 10fb 553d 20b5 2d3d 2ce2 853d 2cee 12bd
00000020: c090 24bb 80d0 87bc b6dc a4bd 8071 d0ba
00000030: 9e52 b03d 1a38 bc3d 6089 f23b 409d cebb
00000040: 6a81 adbd f84a a4bd 7ee3 913d 001d 9e3c
00000050: 6414 c9bd 0068 04bc dc8b 38bd dc44 e5bd
00000060: f49e 38bd a035 a4bd aa6a d03d b4ae 3f3d
00000070: e4a0 7ebd 1408 963d 1032 32bc 98f1 f93c
00000080: 7c59 01bd bc9c 523d 58bf 32bd b411 38bd
00000090: 804a b9bb 4c75 2c3d a06a a23d a032 f23b
000000a0: 9c91 fabd f0f9 54bd 6a49 89bd 68fd 7e3d
000000b0: a0fb 8c3c 600a 46bd c875 d5bd e8c2 8b3d
000000c0: 807d b7ba 800a fdbc 4036 0a3b 20fa f7bd
000000d0: a009 5d3d be17 b0bd 9809 ffbd 8415 49bd
000000e0: a42a a1bd c0e8 62bb d04d 563c 2c1e 533d
000000f0: 3ad6 fbbd 583c bf3c c213 f0bd a012 c03c
00000100: 8478 243d 50d5 023d c0b2 89bb 680d acbc
00000110: e094 e83c e86f 863c 383d cd3d 0023 98bb
00000120: e6ad cd3d 701e 653c 580e 2fbd e873 e83c
00000130: 0047 a9bb 167c 83bd 28e9 dabd 342c ce3d
00000140: 065e 91bd 3807 a03c da25 aebd e089 df3d
00000150: 2066 cfbd 4ef7 873d c063 73bb d8a4 a33c
00000160: 8046 e73b 5ec2 d53d a8c7 dfbc b828 093d
00000170: a428 b7bd a010 ce3b 32b7 e83d f273 e8bd
00000180: 08e0 3abd b439 fcbd 641b 0d3d d0aa f1bd
00000190: 34ed 8abd 0432 5ebd c0d0 c7bb f25a e8bd
000001a0: 1eda 853d 205e 9b3d 58e5 febc 00ac 49ba
000001b0: e8b0 8f3d 70a5 d9bd 7015 61bd 90d6 3b3c
000001c0: 503a 443d bcfe 813d a42e aabd f648 8c3d
000001d0: f4dc 4dbd c0ee 22bc 9087 843c c030 e1bd
000001e0: b0d1 22bc 04d9 283d 369a bfbd f0e8 393d
000001f0: c48a a73d 5034 1ebc 44f3 4fbd 588a 8d3c
00000200: 6a25 edbd a64b e8bd c87a 5a3d 2a15 e73d
00000210: 8271 b33d 6c03 1bbd 6696 cd3d f881 7f3d
00000220: 3c97 2e3d 68b3 5ebd f2ac 883d 0246 b33d
00000230: 0cad 6a3d 5871 bb3d 98b2 7e3d 2462 4e3d
00000240: 3838 81bd 3ad9 c0bd 74ec 553d b4f5 033d
00000250: 60b6 f93d e026 c0bb 041b 4fbd 6a07 b43d
00000260: 802c 9fba d8a1 8dbd de4b 9abd 7234 a33d
00000270: 2c77 733d b0cf 98bd ac33 65bd e0f7 e9bb
00000280: 5241 e4bd bae7 97bd 6403 843d 40a8 313b
00000290: a06e 373c 0c2c dc3d 4cbf e4bd 428e babd
000002a0: 885d d63d b2ec c83d c8ee e6bc ee34 bd3d
000002b0: eea4 9bbd f8bd 3ebd 328e b13d 0c8e 90bd
000002c0: 78a3 cf3d 2064 e33c 02cb febd fa14 e5bd
000002d0: 4063 a8bb f8c1 363d e0d9 ac3b a801 393d
000002e0: 70e9 2cbc 801a 663b c2dd d33d 868d 983d
000002f0: b4ef 58bd b422 0c3d feb7 fa3d 2ceb 3b3d
00000300: 3436 52bd 5019 c8bd 74e7 0ebd 00da d53b
00000310: ec33 45bd c8ce cb3c 804a a53d 0298 da3d
00000320: c294 b93d d216 fabd 26dc f7bd dc37 f83d
00000330: 5019 3d3c 36fc 873d 7080 183d 8ace f13d
00000340: b82b ad3d 02d3 e03d 78f9 2dbd 4ea2 d03d
00000350: 8045 223c 1431 83bd c0df 66bd 3cb7 de3d
00000360: 0ad2 fc3d f249 aa3d 34ca 0c3d b8f3 d6bc
00000370: 48df 26bd 92b3 e2bd 06a2 b8bd 2050 06bc
00000380: 7001 eb3c 1a36 bebd 581f 823c 282a 32bd
00000390: 9841 333d 5877 d7bc a82d 58bd c485 b0bd
000003a0: 5a04 ae3d 8876 edbd ec40 223d d0e6 393d
000003b0: 18cf c93c 123c e1bd c8c6 b7bc f09f fc3d
000003c0: 4ef7 b7bd 0831 d53d 584b b93c 32e3 b13d
000003d0: 90d8 f83c 5c43 f0bd d885 863d 9449 603d
000003e0: 5097 c9bd f824 3fbd 38e8 3c3d 9091 033d
000003f0: 10a0 5b3d 5e98 eebd 04a5 0e3d 723f 8f3d

bias f4 [64]
-0.034973353 0.10845637 0.025817469 -0.058279112 -0.06018044 -0.05679807 -0.06436321 0.11432341
0.05954753 0.08210945 0.10246596 0.082241446 0.10445602 -0.032195196 -0.026932761 -0.04256724
0.0828134 -0.120262414 0.04434748 -0.09026772 -0.02980265 -0.09845492 -0.11000548 -0.03024827
-0.082823694 0.06376958 0.06103024 0.060814828 -0.039152756 -0.07637851 -0.060795546 0.078417
-0.11694354 0.054110453 -0.084689796 0.1172483 0.04811327 -0.064039424 -0.036217004 -0.09345302
-0.11158049 -0.04501851 0.046415985 -0.09416601 -0.09140645 0.0847017 -0.09851825 -0.043125898
0.11123735 0.03832224 0.0008918345 0.04173191 -0.027558297 -0.04319708 -0.024217382 0.02472946
-0.12186074 -0.024155825 -0.014290184 0.056219995 -0.002083972 0.08217451 -0.015255347 0.05670598
00000000: 3840 0fbd 601e de3d 287f d33c 14b6 6ebd
00000010: c47f 76bd 18a5 68bd dcd0 83bd 6422 ea3d
00000020: 1ce8 733d 0029 a83d acd9 d13d 346e a83d
00000030: 0aed d53d 1cdf 03bd 18a2 dcbc fc5a 2ebd
00000040: 129a a93d 244c f6bd b4a5 353d 48de b8bd
00000050: b024 f4bc bca2 c9bd 8e4a e1bd 38cb f7bc
00000060: 789f a9bd a099 823d d8fa 793d f818 793d
00000070: a45e 20bd 566c 9cbd c004 79bd 1899 a03d
00000080: 1880 efbd eca2 5d3d d871 adbd e01f f03d
00000090: 6c12 453d 1a27 83bd 4858 14bd 4c64 bfbd
000000a0: 5084 e4bd 5465 38bd b01e 3e3d 1cda c0bd
000000b0: 4e33 bbbd 1678 ad3d f0c3 c9bd c8a4 30bd
000000c0: 68d0 e33d c8f7 1c3d 00ca 693a 14ef 2a3d
000000d0: f0c1 e1bc 6cef 30bd 8863 c6bc 7095 ca3c
000000e0: 2092 f9bd 70e2 c5bc 6021 6abc f046 663d
000000f0: 4093 08bb 1c4b a83d 90f1 79bc 8844 683d

weight f4 [64, 64]
0.08772309 0.0651155 0.010485172 0.08596519 -0.06689358 -0.011395931 -0.050259665 -0.02188015
-0.11638117 0.027677774 0.04342343 -0.023635358 0.09701449 -0.085268304 0.122055665 0.06222871
-0.10931215 0.055158332 -0.10328619 0.025590077 -0.04353203 -0.041248634 -0.051942006 0.029590294
-0.11021797 0.020870477 0.06661762 0.057260215 -0.03036657 0.05742976 0.057098538 -0.07166442
-0.03081569 0.11611396 -0.038821444 -0.04055974 -0.07521203 -0.026842564 -0.046945706 0.08666228
0.048728958 0.075093 0.112078935 0.09805912 -0.075129345 0.06093861 0.10597873 0.002637595
-0.08492926 0.058750376 -0.058059722 0.12096822 -0.042305037 -0.007724747 0.10618785 -0.05272317
-0.027179748 0.09749682 -0.03499277 -0.12267606 -0.07707843 0.05608195 -0.016785845 -0.019933358
-0.009701297 0.067932785 0.0062918365 0.03433852 0.07035321 0.12460899 0.0126746 0.09481323
-0.103318006 -0.05997722 0.07976714 0.0773938 0.03438221 0.01812464 0.11144261 -0.05065535
0.008292645 -0.054487064 -0.03473316 -0.07224937 -0.10772094 -0.013990164 0.116776094 0.10814749
0.051396176 0.0869654 0.08578688 0.09763187 0.034645915 -0.09569281 0.0002809316 0.08314158
0.012425691 0.026857018 0.05868551 0.029358283 -0.036389023 0.047765583 -0.10708581 0.0773664
0.05312541 0.09838171 0.06723198 0.062096566 0.053897142 -0.053484514 0.067644596 -0.054851532
0.03614448 0.08822343 -0.0521373 0.04022248 -0.010587931 -0.047467098 -0.122947276 0.016891047
-0.08609478 -0.07956685 0.012051821 -0.028970912 -0.0606478 -0.06289977 -0.112660795 -0.07647146
-0.09878492 -0.0079459995 0.09588422 0.05438158 -0.003066823 -0.06566052 0.033266082 0.037672848
-0.031694293 0.102149725 -0.048510298 -0.0057181567 0.023053616 -0.08069213 0.039636254 -0.12206124
-0.073317856 -0.008389607 -0.061168864 0.009267226 -0.07964657 -0.008588344 0.10246943 0.074237764
0.10258816 0.008460715 -0.121199235 -0.01346086 0.071942806 0.11413121 0.0045257956 -0.035625502
-0.090328455 0.05137603 0.060668647 -0.024178043 0.07334988 -0.10190542 -0.11775163 0.010540485
-0.06738497 -0.07111159 -0.027833074 0.06971316 -0.12036429 -0.11663908 0.0906754 0.10000819
0.074104816 0.11987515 -0.11590552 0.030884117 -0.0005045533 0.0617456 0.047855824 -0.076388344
0.013829395 0.06448704 0.07767452 0.03270091 -0.09051399 0.10086851 -0.0951124 0.014664143
0.04614587 0.07349157 0.029109493 -0.052185252 0.024049893 -0.04301943 0.11704123 -0.011330888
-0.05503969 -0.10749324 -0.012700826 0.0740138 0.00023776293 -0.050893888 -0.0488621 0.054543883
-0.028915197 -0.07396506 0.037200004 0.111566216 -0.057537124 -0.046530962 -0.004943639 0.106410146
0.066483155 0.09223288 0.007450357 -0.0042022914 0.039718583 0.12368913 -0.11111049 -0.068802014
0.089758456 0.069790736 -0.10919483 0.06632069 -0.039803773 -0.095494986 -0.013861224 -0.10466327
-0.014931828 -0.010280758 0.09367517 -0.07873054 0.115062594 -0.08643949 0.041089743 -0.09063272
0.060173422 -0.013789445 0.078585654 0.056006476 0.0824303 0.080923155 -0.068050414 -0.017700583
0.115015626 0.02930805 0.096410125 0.057110727 -0.08785662 -0.050390065 -0.06162028 -0.010384813
00000000: 2aa8 b33d 465b 853d 00ca 2b3c 840e b03d
00000010: 80ff 88bd 00b6 3abc 14dd 4dbd 003e b3bc
00000020: 4059 eebd 80bc e23c c4dc 313d f09e c1bc
00000030: 88af c63d 26a1 aebd 52f8 f93d 88e3 7e3d
00000040: 0cdf dfbd b4ed 613d b687 d3bd 48a2 d13c
00000050: a44e 32bd 54f4 28bd 24c1 54bd 5867 f23c
00000060: f6b9 e1bd 90f8 aa3c d26e 883d b089 6a3d
00000070: 50c3 f8bc 783b 6b3d 28e0 693d ccc4 92bd
00000080: 3071 fcbc 28cd ed3d 3c03 1fbd f821 26bd
00000090: c408 9abd f0e4 dbbc 244a 40bd fe7b b13d
000000a0: 0498 473d 5cca 993d a489 e53d 38d3 c83d
000000b0: 6add 99bd c49a 793d 600b d93d 80db 2c3b
000000c0: 64ef adbd 3ca4 703d 08d0 6dbd 30be f73d
000000d0: 0c48 2dbd e01f fdbb 0479 d93d 40f4 57bd
000000e0: 10a8 debc 6aac c73d 9454 0fbd 963d fbbd
000000f0: 4cdb 9dbd 30b6 653d 7882 89bc 484b a3bc
00000100: 30f2 1ebc 5820 8b3d c02b ce3b 8ca6 0c3d
00000110: 5815 903d 0033 ff3d 20a9 4f3c 702d c23d
00000120: 6498 d3bd acaa 75bd f45c a33d a480 9e3d
00000130: 5cd4 0c3d 207a 943c 063c e43d fc7b 4fbd
00000140: e0dd 073c d42d 5fbd 5c44 0ebd 7af7 93bd
00000150: cc9c dcbd 0037 65bc 4e28 ef3d 6e7c dd3d
00000160: cc84 523d ea1a b23d 08b1 af3d 38f3 c73d
00000170: e0e8 0d3d 98fa c3bd 004a 9339 2246 aa3d
00000180: 2095 4b3c 4003 dc3c 3860 703d c880 f03c
00000190: a80c 15bd d8a5 433d ce4f dbbd 4672 9e3d
000001a0: 089a 593d 5a7c c93d ecb0 893d f858 7e3d
000001b0: 40c3 5c3d 9412 5bbd 4089 8a3d 00ac 60bd
000001c0: 3c0c 143d 7cae b43d ec8d 55bd 54c0 243d
000001d0: 0079 2dbc dc6c 42bd c8cb fbbd 185f 8a3c
000001e0: 7652 b0bd f2f3 a2bd 0075 453c 6854 edbc
000001f0: d469 78bd 98d1 80bd b4ba e6bd 129d 9cbd
00000200: c04f cabd f02f 02bc f25e c43d 38bf 5e3d
00000210: c0fc 48bb 0679 86bd 0442 083d d84e 1a3d
00000220: e0d1 01bd e033 d13d bcb2 46bd 605f bbbb
00000230: f0da bc3c ea41 a5bd a059 223d 3efb f9bd
00000240: ac27 96bd 9074 09bc 348c 7abd 90d5 173c
00000250: be1d a3bd 20b6 0cbc 7edb d13d f809 983d
00000260: be19 d23d d09e 0a3c 4e37 f8bd f08a 5cbc
00000270: c056 933d a0bd e93d 204d 943b 0cec 11bd
00000280: 20fe b8bd ac6f 523d b07f 783d 0811 c6bc
00000290: 7638 963d cab3 d0bd c427 f1bd 00b2 2c3c
000002a0: 2201 8abd f4a2 91bd 3002 e4bc c6c5 8e3d
000002b0: 8e81 f6bd 78e0 eebd 06b4 b93d 18d1 cc3d
000002c0: 44c4 973d 1a81 f53d e05f edbd b000 fd3c
000002d0: 0044 04ba f4e8 7c3d 7804 443d 7e71 9cbd
000002e0: b094 623c c811 843d d213 9f3d 64f1 053d
000002f0: 665f b9bd 2694 ce3d 4aca c2bd e041 703c
00000300: 7403 3d3d c082 963d 0877 ee3c 34c0 55bd
00000310: 4804 c53c 2435 30bd 50b3 ef3d 30a5 39bc
00000320: 4c71 61bd 6a25 dcbd 2017 50bc 8c94 973d
00000330: 0050 7939 1c76 50bd a023 48bd 6869 5f3d
00000340: 90df ecbc fe7a 97bd 085f 183d d47c e43d
00000350: 0cac 6bbd 4097 3ebd 40fe a1bb 90ed d93d
00000360: 5228 883d 98e4 bc3d 2022 f43b 60b3 89bb
00000370: f4af 223d ba50 fd3d e68d e3bd 12e8 8cbd
00000380: 48d3 b73d 72ee 8e3d 8aa1 dfbd 24d3 873d
00000390: 4809 23bd e092 c3bd 301a 63bc b259 d6bd
000003a0: a0a4 74bc a070 28bc c4d8 bf3d 7a3d a1bd
000003b0: f0a5 eb3d 3007 b1bd b84d 283d a69d b9bd
000003c0: 6878 763d 20ed 61bc 84f1 a03d 0c67 653d
000003d0: 38d1 a83d 0abb a53d 045e 8bbd d000 91bc
000003e0: 508d eb3d 7017 f03c ac72 c53d f0ec 693d
000003f0: 2cee b3bd d065 4ebd 8c65 7cbd 1025 2abc

bias f4 [64]
0.07252452 0.09219609 0.019136816 0.1101992 -0.017211422 0.09690997 -0.11820355 0.0954563
0.031131819 -0.06322761 -0.090091646 -0.021821693 -0.09276235 0.12256619 -0.12468308 -0.035201207
0.080606505 -0.086786985 0.056649014 -0.026017994 -0.1213935 0.037142232 0.0038575083 0.017638415
0.06342426 -0.041588664 -0.06630705 -0.09795232 0.020727202 0.0006648153 0.10114403 -0.063628644
0.009528622 -0.11789949 -0.029782772 0.069984004 -0.014882907 -0.063161194 -0.007776633 -0.014343157
0.062051862 0.088085726 -0.00021979213 0.10873751 0.04738289 -0.08049686 0.091024205 -0.056165785
0.1070635 0.03353177 0.11841676 0.10884458 0.026915818 -0.03329581 0.05930102 0.10861187
-0.0040519238 -0.103785396 0.024259433 0.023621246 -0.07504587 -0.107216835 -0.032803357 0.086354
00000000: bc87 943d 4ed1 bc3d d0c4 9c3c 1eb0 e13d
00000010: f8fe 8cbc bc78 c63d b414 f2bd 987e c33d
00000020: 2808 ff3c 7a7d 81bd f881 b8bd 68c3 b2bc
00000030: 30fa bdbd fc03 fb3d d859 ffbd 242f 10bd
00000040: 0615 a53d 60bd b1bd cc08 683d b023 d5bc
00000050: 289d f8bd 7422 183d 40ce 7c3b 707e 903c
00000060: 94e4 813d e058 2abd fecb 87bd 3a9b c8bd
00000070: 18cc a93c 0047 2e3a 9a24 cf3d bc4f 82bd
00000080: f01d 1c3c 4a75 f1bd 00fb f3bc c653 8f3d
00000090: 70d7 73bc a85a 81bd 20d3 febb 90ff 6abc
000000a0: 182a 7e3d 4a66 b43d 0078 66b9 c6b1 de3d
000000b0: 9014 423d 8adb a4bd e66a ba3d 180e 66bd
000000c0: 1c44 db3d 9c58 093d 7c84 f23d e8e9 de3d
000000d0: 907e dc3c 3061 08bd a0e5 723d e66f de3d
000000e0: 00c6 84bb 708d d4bd b8bb c63c 5881 c13c
000000f0: a6b1 99bd 8094 dbbd d05c 06bd 5eda b03d

weight f4 [1, 64]
-0.071977764 -0.051137656 0.008692995 -0.018424466 -0.041184068 -0.0054245144 0.016236588 -0.061778784
-0.09532598 0.08114971 -0.090639725 0.0064955205 0.071120456 -0.044556692 -0.0800997 -0.011844814
-0.092038795 0.1072 -0.0068807304 -0.023950368 -0.047692418 0.119727075 -0.05799988 0.0030215234
0.0274539 0.08985442 -0.06016566 0.122657716 0.091160774 -0.03782545 -0.10024819 -0.115238845
-0.052191034 0.035110682 0.074061066 -0.062720984 -0.0944646 -0.106287464 -0.0882605 0.059399024
0.077669695 0.11212501 -0.087179765 -0.119693235 0.0059769303 0.08989176 0.06191428 0.06612159
0.0315336 -0.09071927 -0.07199097 0.0878209 -0.09062141 0.062877 0.07797921 0.09026982
-0.0834339 -0.001997888 0.0012886971 -0.04808852 0.107501924 0.06469369 0.06691098 -0.010064483
00000000: 1469 93bd b875 51bd 106d 0e3c e8ee 96bc
00000010: a0b0 28bd 20c0 b1bb 9802 853c c00b 7dbd
00000020: 443a c3bd d231 a63d 52a1 b9bd 60d8 d43b
00000030: 9aa7 913d 1481 36bd 500b a4bd c010 42bc
00000040: d67e bcbd ac8b db3d c077 e1bb 9033 c4bc
00000050: 2059 43bd 7833 f53d 4891 6dbd c004 463b
00000060: 00e7 e03c 9805 b83d 4470 76bd f833 fb3d
00000070: 80b2 ba3d dcee 1abd ec4e cdbd 5802 ecbd
00000080: 44c6 55bd 38d0 0f3d 54ad 973d dc73 80bd
00000090: a876 c1bd 3ead d9bd ecc1 b4bd 644c 733d
000000a0: 4a11 9f3d cca1 e53d 4e8b b2bd ba21 f5bd
000000b0: 20da c33b 2c19 b83d d499 7d3d c26a 873d
000000c0: 6029 013d 06cb b9bd 0070 93bd 72db b33d
000000d0: b897 b9bd a8c5 803d 90b3 9f3d 62df b83d
000000e0: 64df aabd 00ef 02bb 80e9 a83a 78f8 44bd
000000f0: f829 dc3d 207e 843d a008 893d 80e5 24bc

weight f4 [64, 16]
0.31998897 -0.015202046 0.2768823 0.018149745 -0.011274528 -0.016585613 -0.04444185 -0.116947465
-0.25435904 -0.13079008 0.045694232 0.017128885 -0.088224016 0.29927546 -0.18308711 -0.7617593
-0.27152798 -0.18134168 0.092901066 0.08236148 0.16043094 0.16082458 0.06469567 -0.14669056
-0.048598144 -0.41307014 0.32010442 -0.13157806 0.32411826 -0.00185972 -0.12899446 -0.7528219
-0.118748814 0.44096053 0.23447442 -0.061794754 0.14522402 0.009480496 -0.16831589 0.049986795
-0.2743736 -0.29283115 0.052564315 0.11214972 -0.15012637 0.08490831 0.1196819 0.0042696553
0.21365425 -0.32854193 -0.16813718 -0.054880966 0.25676453 -0.11922847 0.23515125 -0.19824724
0.2506813 0.22503628 0.22792836 -0.199868 0.110685684 0.25606608 -0.34176165 0.57558
0.14679101 -0.018411702 0.1533868 -0.097442254 -0.04866644 -0.18067391 0.09737193 -0.0937819
-0.08501173 -0.011514936 0.15771456 -0.29474336 -0.23998868 -0.00022885259 -0.27437112 0.055863418
0.12278941 -0.49661773 0.034143444 -0.154436 -0.067021064 -0.028357089 -0.06417824 0.12480854
0.0022301115 0.17648235 0.12805308 -0.0648908 0.09313977 -0.20493747 -0.040025234 -0.28183323
-0.00091922685 0.34821698 -0.18477915 -0.21893746 -0.06398073 0.046080995 -0.042633157 -0.14441991
0.20454243 -0.39139158 -0.10067312 0.08721374 0.16082816 0.06590071 -0.0017538738 0.22273703
0.09739858 -0.016588656 0.14752813 0.24795993 -0.12351221 -0.12014823 -0.08589923 0.015192831
-0.10146175 0.32737195 -0.13049328 0.07442297 0.12984477 -0.3255119 0.13412285 -0.060821623
0.20402527 0.057384726 0.16441503 0.25377977 -0.01489097 -0.12291616 0.00038230114 -0.15296595
-0.37252954 0.19900832 -0.13293955 -0.1816995 0.24499676 -0.10830582 -0.11813518 0.5447791
0.32866746 0.066191845 0.012336837 0.1598808 0.14901203 -0.106910236 -0.0907079 -0.07397256
0.354676 -0.18486035 -0.14552957 -0.15932754 -0.21565448 0.44451746 -0.15536878 -0.15110865
0.2524527 0.29791415 0.10547424 0.19703886 0.13041548 0.014698729 0.12266215 -0.046274956
-0.20839888 -0.09466175 -0.24955447 -0.17894685 -0.1306888 0.44493842 0.32366744 -0.36548528
0.2006658 -0.026922168 -0.21530263 -0.20518784 -0.18664943 0.14541185 0.14726149 -0.14865701
0.17910664 0.3123337 -0.13383555 0.10962711 -0.11000456 0.15094173 0.009282934 0.046843402
0.13621898 0.27947804 0.002959744 0.14706852 0.24565011 0.07941042 0.063403174 -0.21742998
0.07487248 -0.07488532 0.11959143 -0.12249413 -0.0099178525 -0.317088 -0.32156622 -1.0110599
-0.3691564 0.33198977 0.07099025 -0.07033565 0.15926553 0.09625893 -0.060932137 0.111428045
-0.101977676 0.018104998 0.063531026 -0.16241878 0.10114981 -0.049502425 -0.11362042 -0.23028366
0.097595125 0.046348732 0.113867156 0.11240172 0.08410781 -0.2304966 -0.22043478 -0.16657051
0.05893505 0.26724383 -0.18195263 -0.1866443 0.09062541 0.20400852 -0.37565207 0.39745536
0.0464625 0.060628157 -0.18351077 -0.1819687 -0.019038478 -0.116039686 -0.28014836 -0.056838866
-0.21689035 -0.11448688 -0.14971834 -0.32417738 0.04057863 0.37299225 -0.19459276 0.17286374
00000000: 98d5 a33e 0112 79bc 84c3 8d3e c6ae 943c
00000010: ccb8 38bc 8dde 87bc a808 36bd 2782 efbd
00000020: 593b 82be d6ed 05be e029 3b3d e051 8c3c
00000030: cbae b4bd a23a 993e 307b 3bbe a802 43bf
00000040: b705 8bbe a2b1 39be ea42 be3d 23ad a83d
00000050: 0248 243e 33af 243e 2a7f 843d 0d36 16be
00000060: d90e 47bd ee7d d3be bae4 a33e 66bc 06be
00000070: d4f2 a53e d9c1 f3ba 2017 04be f0b8 40bf
00000080: 9432 f3bd 94c5 e13e 101a 703e 7f1c 7dbd
00000090: 9bb5 143e 1554 1b3c 005b 2cbe f4be 4c3d
000000a0: b27a 8cbe f7ed 95be ae4d 573d c1ae e53d
000000b0: baba 19be 68e4 ad3d c91b f53d 77e8 8b3b
000000c0: 2ec8 5a3e a636 a8be 272c 2cbe ddca 60bd
000000d0: a476 833e 0e2e f4bd 7dcb 703e 5301 4bbe
000000e0: 4d59 803e e96f 663e 0d66 693e 32aa 4cbe
000000f0: 2daf e23d 181b 833e 62fb aebe 3659 133f
00000100: 6250 163e 23d4 96bc 6e11 1d3e ce8f c7bd
00000110: 7656 47bd 9502 39be ef6a c73d ba10 c0bd
00000120: a11a aebd 24a9 3cbc ed7f 213e 9ae8 96be
00000130: 98bf 75be 26f8 6fb9 5f7a 8cbe 0ad1 643d
00000140: 0479 fb3d ae44 febe ffd9 0b3d 7924 1ebe
00000150: 5742 89bd 204d e8bc e26f 83bd 9f9b ff3d
00000160: 1027 123b cab7 343e 5920 033e 78e5 84bd
00000170: 10c0 be3d 21db 51be 80f1 23bd 724c 90be
00000180: 45f8 70ba 7f49 b23e bf36 3dbe 2431 60be
00000190: 5408 83bd 6dbf 3c3d 1ba0 2ebd d0e2 13be
000001a0: 9273 513e 7a64 c8be b52d cebd 1e9d b23d
000001b0: 23b0 243e f4f6 863d 3de2 e5ba 2d15 643e
000001c0: e878 c73d efe4 87bc 9d11 173e 35e9 7d3e
000001d0: f8f3 fcbd 4610 f6bd efeb afbd 5aeb 783c
000001e0: 2ecb cfbd 4c9d a73e 08a0 05be 126b 983d
000001f0: 07f6 043e 7fa9 a6be 8057 093e 1820 79bd
00000200: 00ec 503e 3f0c 6b3d 6a5c 283e 6cef 813e
00000210: 41f9 73bc 78bb fbbd 976f c839 1ba3 1cbe
00000220: 31bc bebe d6c8 4b3e 4e21 08be 6f0f 3abe
00000230: 6ee0 7a3e 71cf ddbd dbf0 f1bd a576 0b3f
00000240: 1a47 a83e 978f 873d 7220 4a3c cbb7 233e
00000250: 9c96 183e c1f3 dabd 10c5 b9bd ed7e 97bd
00000260: 1898 b53e 084c 3dbe b405 15be c226 23be
00000270: 87d4 5cbe cb97 e33e fe18 1fbe 3abc 1abe
00000280: 7b41 813e 3488 983e e102 d83d 8ec4 493e
00000290: a38b 053e f0d2 703c 4b36 fb3d cf8a 3dbd
000002a0: 8466 55be 05de c1bd 358b 7fbe d83d 37be
000002b0: 49d3 05be f8ce e33e bdb7 a53e e320 bbbe
000002c0: 567b 4d3e e18b dcbc 4b78 5cbe c31c 52be
000002d0: 0721 3fbe d8e6 143e b7cb 163e 8b39 18be
000002e0: bb67 373e 34ea 9f3e 300c 09be 2e84 e03d
000002f0: 124a e1bd 7890 1a3e 7217 183c dede 3f3d
00000300: fd7c 0b3e bf17 8f3e 44f8 413b 2199 163e
00000310: b48b 7b3e eea1 a23d 86d9 813d f7a5 5ebe
00000320: be56 993d 7a5d 99bd 5aec f43d 34de fabd
00000330: 7d7e 22bc 5c59 a2be 54a4 a4be 696a 81bf
00000340: 1102 bdbe 90fa a93e 5663 913d 230c 90bd
00000350: 8116 233e 6723 c53d fa93 79bd 6334 e43d
00000360: acd9 d0bd ef50 943c 8e1c 823d 1c51 26be
00000370: a227 cf3d 0ec3 4abd d3b1 e8bd 7bcf 6bbe
00000380: f4df c73d 2bd8 3d3d 2f33 e93d df32 e63d
00000390: b740 ac3d 4d07 6cbe a8b9 61be 7691 2abe
000003a0: e165 713d 2fd4 883e ca51 3abe af1f 3fbe
000003b0: d199 b93d 9ce7 503e 7855 c0be 457f cb3e
000003c0: 764f 3e3d 3b55 783d 3fea 3bbe 0156 3abe
000003d0: 95f6 9bbc 37a6 edbd 9b6f 8fbe dfcf 68bd
000003e0: 8118 5ebe 1978 eabd c44f 19be 94fa a5be
000003f0: c735 263d d7f8 be3e 5343 47be 3103 313e

bias f4 [64]
-0.056171566 -0.0891288 -0.013304438 0.26355785 -0.22187561 -0.009741067 -0.11216993 0.017315904
0.1321291 -0.100236624 0.23540144 0.15180817 -0.023238476 -0.09751042 0.15527552 0.050221078
-0.0045021507 -0.13522288 -0.017296374 -0.20212571 -0.0041506994 0.13620156 -0.09922121 0.18345255
-0.1358081 0.11787436 0.06842394 -0.08999063 0.024246806 -0.14476879 -0.08710907 -0.17205971
-0.21660699 0.002949391 0.16812898 0.18922761 0.22519918 -0.16214731 -0.171616 0.03679837
0.036782432 0.056012284 -0.05623675 -0.010808483 -0.15306816 -0.02829139 -0.062303104 -0.12756939
-0.10576135 -0.055093706 -0.015016336 0.10545611 -0.22775573 -0.10714124 0.2252268 0.07742477
0.025534658 -0.20053986 0.036951557 -0.028808838 -0.1975797 -0.24411456 0.07896345 -0.19801767
00000000: 2814 66bd 2989 b6bd dcfa 59bc 0ef1 863e
00000010: 5c33 63be ff98 1fbc 59b9 e5bd 15da 8d3c
00000020: da4c 073e dc48 cdbd 130d 713e 9a73 1b3e
00000030: 9e5e bebc 8bb3 c7bd 8c00 1f3e 9eb4 4d3d
00000040: c786 93bb de77 0abe 20b1 8dbc 0bfa 4ebe
00000050: 9702 88bb 6c78 0b3e 7d34 cbbd fcda 3b3e
00000060: 4711 0bbe 1d68 f13d da21 8c3d 024d b8bd
00000070: 3da1 c63c 453e 14be 3d66 b2bd 6c30 30be
00000080: 39ce 5dbe 924a 413b 012a 2c3e e2c4 413e
00000090: 9d9a 663e f209 26be 1bbc 2fbe e3b9 163d
000000a0: 2da9 163d 236d 653d 8258 66bd 1016 31bc
000000b0: e6bd 1cbe 58c3 e7bc 8a31 7fbd 8da1 02be
000000c0: 6899 d8bd f0a9 61bd 1407 76bc 5ff9 d73d
000000d0: cc38 69be de6c dbbd dba1 663e e190 9e3d
000000e0: 0f2e d13c 525a 4dbe 845a 173d 8300 ecbc
000000f0: 5552 4abe 2bf9 79be 97b7 a13d 25c5 4abe

weight f4 [64, 64]
0.029343432 0.17073664 -0.034202583 -0.029666172 0.12693433 -0.06845876 0.08497021 0.004106474
-0.067454584 -0.009767202 0.08723801 -0.043376967 -0.0007054338 -0.08213733 0.07942047 -0.10156736
0.07020869 -0.07177673 0.1258053 0.041988004 -0.031042982 0.19174987 -0.09142299 0.0027859544
0.06772083 -0.050472297 -0.0063811624 -0.1146657 -0.028707046 0.03850297 0.0024391199 0.015510324
0.058497224 -0.16791213 0.0840273 0.021485595 0.05657494 -0.13008678 -0.1543044 -0.02462501
-0.082553245 0.0018221121 0.018471664 -0.042175 -0.09197845 0.004320663 -0.04298545 0.059936855
0.16398522 -0.05553035 0.115736544 -0.024786783 -0.02156352 0.020033207 0.08417854 -0.0016387132
-0.06286726 0.0402682 0.13700922 -0.02470527 0.013175093 -0.07391618 -0.21032795 0.06648555
-0.13583688 0.04063073 0.11777035 -0.100353196 0.1304501 -0.12111046 0.2024304 -0.07252688
-0.06846954 0.08338474 -0.08387583 -0.049757324 -0.07387812 0.113290384 0.006828547 0.08355113
0.091344066 0.18694806 0.0015595617 0.017701153 -0.105361745 0.044069573 0.04534302 0.27029783
0.07432818 -0.049384102 0.028787877 0.03229433 -0.109876506 -0.14215113 -0.09043593 -0.07857519
-0.073915444 0.054683547 0.13484427 -0.10732751 -0.043408602 -0.15711063 -0.22288534 0.29416773
0.07857403 0.10803379 0.0030817015 0.13589305 -0.07199757 -0.104788646 -0.011021639 -0.016120724
0.07478634 -0.0062439027 -0.0018616492 -0.08360736 0.05155905 0.00057097763 0.10976221 0.13699089
-0.026022002 -0.092803806 -0.19952251 -0.036658272 -0.0826827 -0.08981647 -0.14922017 0.023466935
-0.12825818 -0.06743175 -0.27165484 0.019820943 -0.029029386 -0.06533987 0.08068308 0.021857256
-0.08320432 -0.12320828 -0.13579643 0.011762082 -0.073461205 0.12749246 -0.014917947 0.09817015
0.076593176 0.012789107 0.07434825 -0.017781202 -0.05290814 -0.023975851 0.04691618 -0.0759464
-0.03871461 0.0057155737 0.15127026 0.016136073 -0.10788914 -0.30969968 -0.03089807 0.03020457
0.08818973 -0.10882372 0.08082029 -0.018055776 0.24841681 -0.121536046 0.08899434 0.13211562
-0.1884593 0.30897626 -0.035649754 0.045909036 -0.07873861 0.18579426 -0.105654754 -0.16605729
-0.10593893 -0.021019652 0.08922752 -0.043248825 0.15506347 -0.011830877 -0.00570498 0.03418176
0.0010087193 -0.002289396 0.12106495 -0.029551819 -0.20170784 0.12601976 0.09585356 -0.022121346
-0.1509869 -0.11010799 0.27492148 -0.17975247 -0.021555524 -0.15368007 -0.066136986 -0.050146062
0.136851 0.0023735417 0.28367975 0.06542876 -0.09813541 0.043689676 0.09696947 -0.07597431
0.051876556 -0.03281 -0.03773693 -0.24883287 -0.14149918 -0.15108861 -0.12842767 0.001246419
0.021474432 -0.07196483 -0.106102504 -0.070293784 0.09665579 0.11671289 0.11187401 -0.031146938
-0.17299591 -0.061341222 0.08103352 0.074318506 -0.2241503 -0.0846331 -0.112056926 -0.1535451
0.08408032 -0.31506482 0.0967715 -0.22223674 0.112685226 0.10997187 -0.04794322 -0.032834366
-0.08333175 -0.04984589 -0.09427098 0.09587024 -0.15761329 -0.11799689 0.024902541 0.022635028
0.04143223 -0.030858181 -0.017495768 -0.064090796 -0.012387423 0.06595462 -0.03507491 0.036699004
00000000: a361 f03c 96d5 2e3e 0218 0cbd 7906 f3bc
00000010: 13fb 013e 1b34 8cbd dd04 ae3d 9a8f 863b
00000020: a125 8abd 9d06 20bc d7a9 b23d 0cac 31bd
00000030: dcec 38ba 9e37 a8bd 33a7 a23d 8c02 d0bd
00000040: 93c9 8f3d aeff 92bd 1bd3 003e 9dfb 2b3d
00000050: da4d febc 145a 443e fa3b bbbd 8f94 363b
00000060: 38b1 8a3d 0abc 4ebd 1219 d1bb dad5 eabd
00000070: 0a2b ebbc 4ab5 1d3d a4d9 1f3b 041f 7e3c
00000080: c99a 6f3d 28f1 2bbe 8116 ac3d 8f02 b03c
00000090: 20bb 673d 7835 05be f901 1ebe 64ba c9bc
000000a0: ad11 a9bd f0d3 ee3a e351 973c b1bf 2cbd
000000b0: 335f bcbd 5994 8d3b 8311 30bd 5980 753d
000000c0: beeb 273e cb73 63bd 4807 ed3d a70d cbbc
000000d0: fba5 b0bc ae1c a43c cc65 ac3d 17ca d6ba
000000e0: 8dc0 80bd 45f0 243d 254c 0c3e b562 cabc
000000f0: 58dc 573c 5e61 97bd 3660 57be 9329 883d
00000100: d318 0bbe 696c 263d 9531 f13d fa85 cdbd
00000110: b694 053e c308 f8bd ea49 4f3e f988 94bd
00000120: c239 8cbd 9ec5 aa3d 17c7 abbd 56ce 4bbd
00000130: 694d 97bd ca04 e83d 01c2 df3b db1c ab3d
00000140: 9912 bb3d 506f 3f3e 356a cc3a 0202 913c
00000150: e6c7 d7bd 4c82 343d 9ab9 393d 7a64 8a3e
00000160: 5f39 983d fc46 4abd 8ed4 eb3c 0f47 043d
00000170: ef06 e1bd 1190 11be 7936 b9bd 07ec a0bd
00000180: fb60 97bd dbfb 5f3d 9e14 0a3e 87ce dbbd
00000190: 38cd 31bd 9ce1 20be 0e3c 64be 279d 963e
000001a0: 6ceb a03d d240 dd3d 5ff6 493b 8c27 0b3e
000001b0: 7673 93bd 6e9b d6bd 1b94 34bc 9c0f 84bc
000001c0: 9529 993d a799 ccbb 9502 f4ba 563a abbd
000001d0: 952f 533d a9ad 153a 02cb e03d 5747 0c3e
000001e0: 182c d5bc ec0f bebd a14f 4cbe fc26 16bd
000001f0: 8c55 a9bd b3f1 b7bd 2ccd 18be bb3d c03c
00000200: 1d56 03be a819 8abd 5816 8bbe 885f a23c
00000210: 09cf edbc e9d0 85bd 2c3d a53d fd0d b33c
00000220: 0767 aabd 9f54 fcbd 380e 0bbe bfb5 403c
00000230: d472 96bd 628d 023e 686a 74bc 6e0d c93d
00000240: e2dc 9c3d 6789 513c e543 983d e2a9 91bc
00000250: 35b6 58bd 0169 c4bc 2e2b 403d c989 9bbd
00000260: 3693 1ebd b549 bb3b 97e6 1a3e cc2f 843c
00000270: fbf4 dcbd f590 9ebe f31d fdbc 936f f73c
00000280: d19c b43d f8de debd 1c85 a53d b5e9 93bc
00000290: fa60 7e3e e4e7 f8bd aa42 b63d 5149 073e
000002a0: 7afb 40be 2332 9e3e 7a05 12bd 1d0b 3c3d
000002b0: b541 a1bd da40 3e3e 8561 d8bd ec0a 2abe
000002c0: 82f6 d8bd 6831 acbc ebbc b63d ae25 31bd
000002d0: f5c8 1e3e 4bd6 41bc d7f0 babb 2c02 0c3d
000002e0: 0137 843a b109 16bb e7f0 f73d a816 f2bc
000002f0: 808c 4ebe 530b 013e df4e c43d d337 b5bc
00000300: 4f9c 1abe 4c80 e1bd 82c2 8c3e 0811 38be
00000310: 3695 b0bc 4f5e 1dbe d472 87bd f565 4dbd
00000320: ab22 0c3e 6c8d 1b3b 793e 913e 84ff 853d
00000330: 38fb c8bd f2f3 323d ee97 c63d 6b98 9bbd
00000340: 837c 543d c763 06bd 0a92 1abd 0bce 7ebe
00000350: 29e5 10be f9b6 1abe 8b82 03be e25e a33a
00000360: 26eb af3c 4c62 93bd 454c d9bd 30f6 8fbd
00000370: 79f3 c53d 2b07 ef3d 331e e53d dd27 ffbc
00000380: d725 31be ef40 7bbd e7f4 a53d 4d34 983d
00000390: a887 65be 1e54 adbd 1a7e e5bd ed3a 1dbe
000003a0: 4e32 ac3d 2d50 a1be 2330 c63d 0792 63be
000003b0: 83c7 e63d ef38 e13d 1c60 44bd 547d 06bd
000003c0: d6a9 aabd 342b 4cbd 2511 c1bd 9e57 c43d
000003d0: 6165 21be 5aa8 f1bd 6a00 cc3c 186d b93c
000003e0: d8b4 293d 4cca fcbc 4953 8fbc 0942 83bd
000003f0: 9ef4 4abc 3713 873d b5aa 0fbd b251 163d

bias f4 [64]
0.008779062 -0.028738994 0.055097304 0.11102951 -0.03814167 -0.12503357 0.0381242 -0.09441019
-0.06360603 0.08064689 0.03396086 -0.052521765 0.15450422 0.027288375 -0.01721259 -0.12141642
0.018523565 -0.0370941 -0.066697404 0.07153407 0.030910129 0.008134475 -0.025986737 0.019505532
0.08621127 0.049961764 -0.10015163 -0.07797932 0.027465217 -0.018810432 0.11920496 -0.015957259
0.09098958 0.064930506 -0.099211276 0.071262255 -0.047500473 -0.08876248 -0.084138304 0.051804613
-0.025353968 0.021099532 0.0046271505 -0.006778503 -0.020877682 0.12373565 -0.0050356346 -0.093983434
-0.03682671 -0.10624109 -0.10214732 0.13319975 -0.009528799 -0.095787846 -0.044918768 -0.012581466
0.0119769955 0.032293413 0.13165285 -0.087609045 0.018214185 0.14006554 0.05899065 -0.027734242
00000000: 0ed6 0f3c 0a6e ebbc b6ad 613d 7163 e33d
00000010: 713a 1cbd cd08 00be 1f28 1c3d 215a c1bd
00000020: e143 82bd 322a a53d 8b1a 0b3d 1021 57bd
00000030: 5b36 1e3e df8b df3c 6b01 8dbc 2ca9 f8bd
00000040: bbbe 973c fcef 17bd a698 88bd 7480 923d
00000050: 3d37 fd3c 7646 053c 23e2 d4bc 11ca 9f3c
00000060: 898f b03d b5a4 4c3d 4c1c cdbd 9fb3 9fbd
00000070: bcfe e03c 5618 9abc bb21 f43d ccb8 82bc
00000080: bf58 ba3d 49fa 843d 482f cbbd f2f1 913d
00000090: db8f 42bd 1ac9 b5bd b450 acbd 1331 543d
000000a0: 20b3 cfbc edd8 ac3c 5a9f 973b 341e debb
000000b0: ac07 abbc 1e69 fd3d f701 a5bb 637a c0bd
000000c0: 9bd7 16bd ee94 d9bd 9d32 d1bd 8465 083e
000000d0: ae1e 1cbc 6b2c c4bd befc 37bd 7e22 4ebc
000000e0: 293b 443c 1946 043d 01d0 063e 5f6c b3bd
000000f0: ea35 953c 576d 0f3e 2ea0 713d ec32 e3bc

weight f4 [64, 64]
-0.005420048 -0.01326934 -0.05358866 0.20292291 0.118231334 -0.28770894 -0.07206223 0.22661464
-0.08826957 -0.13115914 -0.0069648717 -0.11824977 -0.02843657 0.0702328 -0.06341161 0.13803278
0.08615468 -0.052396826 0.025845774 0.14537993 0.11476042 0.08029713 -0.16817158 -0.08883996
0.092704386 -0.09130514 -0.20188685 0.009752057 -0.051495332 0.10003732 0.087179966 0.028380314
-0.20680384 0.093551 0.04804711 -0.0037478176 0.09571744 0.020569406 0.046641152 0.0748764
0.025878904 0.13780494 -0.16628753 -0.15719984 0.029455034 0.028144155 -0.030273544 -0.028503332
0.032848857 -0.1633328 -0.047874544 0.02106162 0.15255204 -0.033468455 -0.09873966 -0.03941973
-0.40109846 -0.18262354 0.046481404 0.059497442 0.17210427 -0.011092225 -0.003559293 0.08704916
-0.09029965 -0.04756951 -0.4457411 0.17791152 -0.022033285 -0.16023454 0.15063764 0.21826665
-0.43578392 -0.25096938 0.044206258 -0.1539597 -0.046589974 0.12657897 -0.06647141 0.25656772
0.18888839 -0.44171372 0.3166493 0.34212533 0.012448949 -0.04150246 -0.122567154 -0.2775646
0.030620584 0.18878001 -0.22894613 0.2764392 0.33222216 0.05142208 0.11214373 -0.006001319
-0.2109181 0.038058594 -0.00576365 -0.15150943 -0.03272376 -0.15290134 -0.013096029 0.058053255
0.11804786 0.18958922 -0.2861728 0.09182704 -0.013557759 0.13139279 -0.09159257 -0.0384707
0.12927835 -0.4327342 -0.43040627 0.050159827 -0.12222731 -0.16451254 0.19246729 0.045595948
0.004428665 -0.5944191 0.22271991 0.28916204 0.13894126 0.011825664 0.24213855 0.026626268
-0.18588357 -0.31145942 -0.29597515 0.12283233 0.119454645 -0.261692 0.12578578 0.31793344
-0.040357184 -0.16456378 0.030623725 -0.02512147 0.103785574 0.035934303 -0.36375713 0.15613467
0.04406539 -0.07240373 0.6957506 0.2428202 0.04164539 0.026655825 -0.14747758 -0.0353226
0.08093739 0.051969983 -0.31438985 0.0858317 0.2671452 -0.008238701 -0.017690837 0.07249687
-0.28256974 -0.015953163 -0.061875522 -0.14453317 0.1155643 -0.29186732 0.15041907 -0.22012356
0.037391745 -0.08567169 0.029963339 0.18371764 0.119122714 -0.0941334 -0.18375427 -0.1303972
-0.004464391 -0.094970904 -0.21473002 -0.054812036 -0.09907139 -0.3025784 -0.115406886 -0.051116504
-0.3740725 -0.24696617 0.02443442 0.38000137 0.044729643 0.0023964506 -0.3584888 0.13468789
0.07131471 0.11139672 -0.0868109 0.10416549 -0.025796901 0.053704735 -0.0040151 -0.10006304
0.043620836 0.08828863 -0.16448176 -0.07537697 0.0857356 0.15893833 0.13196339 -0.138141
0.1854279 -0.018031538 -0.22685617 -0.2621107 -0.10127488 -0.17419007 0.21530074 -0.01826206
0.03481061 -0.09822105 0.22201072 -0.30571792 -0.22694881 0.012622792 -0.04296934 -0.03884887
0.3122166 -0.063425675 -0.10615942 0.10058409 0.14712355 0.27138552 -0.112155594 0.06322712
-0.00927831 0.11091659 0.003582117 0.029769719 -0.13769214 0.109793134 0.11066019 0.2497336
0.1321714 0.16614594 -0.027907977 0.18394113 0.18418273 0.27315846 -0.12365708 0.06521491
0.20329377 -0.055736966 -0.10969524 -0.12957035 -0.15007515 -0.02383101 -0.19046094 -0.0829299
00000000: a89a b1bb a567 59bc c87f 5bbd 06cb 4f3e
00000010: 4523 f23d 964e 93be 5d95 93bd ab0d 683e
00000020: adc6 b4bd 954e 06be 9439 e4bb ef2c f2bd
00000030: cff3 e8bc 37d6 8f3d f2dd 81bd 7758 0d3e
00000040: dd71 b03d 0e9e 56bd 84ba d33c 7ade 143e
00000050: 8307 eb3d d272 a43d 2c35 2cbe baf1 b5bd
00000060: ccdb bd3d 30fe babd 6dbb 4ebe 17c7 1f3c
00000070: c5ec 52bd 5ee0 cc3d 698b b23d d57d e83c
00000080: 63c4 53be ab97 bf3d 0ccd 443d f29d 75bb
00000090: 8107 c43d 2c81 a83c cb0a 3f3d cc58 993d
000000a0: ffff d33c bd1c 0d3e 4747 2abe fff8 20be
000000b0: af4b f13c 928e e63c 3900 f8bc d27f e9bc
000000c0: 868c 063d b740 27be 1918 44bd 6b89 ac3c
000000d0: 9a36 1c3e 3816 09bd 0538 cabd 9576 21bd
000000e0: c75c cdbe aa01 3bbe 4963 3e3d 97b3 733d
000000f0: 1a3c 303e 2abc 35bc 0743 69bb d446 b23d
00000100: 06ef b8bd 3fd8 42bd 2d38 e4be 702e 363e
00000110: 267f b4bc 8614 24be c140 1a3e 4b81 5f3e
00000120: 121f dfbe 0f7f 80be 9f11 353d 9da7 1dbe
00000130: 21d5 3ebd eb9d 013e 2a22 88bd d85c 833e
00000140: f56b 413e 4d28 e2be db1f a23e 0d2b af3e
00000150: adf6 4b3c 7cfe 29bd 7d04 fbbd f21c 8ebe
00000160: 05d8 fa3c 8c4f 413e db70 6abe 7089 8d3e
00000170: 0619 aa3e f59f 523d 9dab e53d b6a6 c4bb
00000180: eafa 57be 54e3 1b3d 00dd bcbb 4a25 1bbe
00000190: 5909 06bd 2b92 1cbe ba90 56bc 40c9 6d3d
000001a0: 14c3 f13d ad23 423e 3e85 92be d10f bc3d
000001b0: 5d21 5ebc d58b 063e e394 bbbd 7493 1dbd
000001c0: 8b61 043e 568f ddbe 365e dcbe 6474 4d3d
000001d0: 5052 fabd fa75 28be 2516 453e d1c2 3a3d
000001e0: 561e 913b da2b 18bf b010 643e 0c0d 943e
000001f0: 9e46 0e3e 6ec0 413c 2bf3 773e 551f da3c
00000200: 4358 3ebe 9c77 9fbe 0e8a 97be 848f fb3d
00000210: a3a4 f43d 7efc 85be fdcd 003e 2cc8 a23e
00000220: 934d 25bd 6883 28be 9bde fa3c 8bcb cdbc
00000230: 888d d43d d92f 133d 603e babe c4e1 1f3e
00000240: e97d 343d 6848 94bd b61c 323f dca5 783e
00000250: 5b94 2a3d 515d da3c 5d04 17be 6eae 10bd
00000260: 81c2 a53d 7ade 543d b5f7 a0be 88c8 af3d
00000270: 41c7 883e 9efb 06bc 60ec 90bc 3d79 943d
00000280: fbac 90be 35b0 82bc 3071 7dbd 8100 14be
00000290: faac ec3d a26f 95be 7507 1a3e 1268 61be
000002a0: 1628 193d a474 afbd ad75 f53c 7a20 3c3e
000002b0: 9cf6 f33d 03c9 c0bd 142a 3cbe d886 05be
000002c0: 074a 92bb 1b80 c2bd 30e2 5bbe 9682 60bd
000002d0: f1e5 cabd 8eeb 9abe 725a ecbd 8a5f 51bd
000002e0: 6e86 bfbe b3e4 7cbe b12a c83c 8a8f c23e
000002f0: 6e36 373d c50d 1d3b d88b b7be 9feb 093e
00000300: 720d 923d f723 e43d eac9 b1bd b754 d53d
00000310: 0654 d3bc 7ff9 5b3d 1a91 83bb daed ccbd
00000320: c3ab 323d abd0 b43d e86d 28be 3e5f 9abd
00000330: 2596 af3d bbc0 223e 6921 073e d674 0dbe
00000340: d0e0 3d3e e0b6 93bc fc4c 68be 6033 86be
00000350: 3469 cfbd e25e 32be cc77 5c3e 519a 95bc
00000360: 9295 0e3d 1e28 c9bd c756 633e 0f87 9cbe
00000370: 4565 68be d4cf 4e3c 9e00 30bd fe1f 1fbd
00000380: dbda 9f3e 52e5 81bd 1c6a d9bd 08ff cd3d
00000390: 8ea7 163e 0bf3 8a3e d5b1 e5bd 387d 813d
000003a0: 0e04 18bc 3d28 e33d f3c1 6a3b a0df f33c
000003b0: 2bff 0cbe 39db e03d cfa1 e23d 2aba 7f3e
000003c0: f157 073e 2922 2a3e 459f e4bc 105b 3c3e
000003d0: 669a 3c3e 6ddb 8b3e ec3f fdbd 658f 853d
000003e0: 3e2c 503e 724c 64bd e6a7 e0bd 17ae 04be
000003f0: 4dad 19be 4039 c3bc 3108 43be 27d7 a9bd

bias f4 [64]
-0.055024568 0.036938198 0.06246052 -0.006031944 0.05909163 0.09624222 0.040215194 0.104429215
-0.10622325 0.12816921 -0.036761303 -0.14335045 0.11652376 0.0010753699 0.079525344 -0.0045068297
0.09204602 0.11652024 -0.08477376 0.13056752 -0.07396439 0.022599192 0.18013595 0.08945021
0.097477585 0.06932606 0.10265926 -0.086209826 0.04795474 0.06280579 0.13841924 -0.11957992
0.16409437 0.057139304 -0.08013348 -0.062250268 -0.006309975 -0.060687173 0.067886025 -0.0021377476
0.032152753 0.015240918 -0.0736498 0.09023725 -0.058039967 -0.051404707 -0.01326952 -0.09517172
0.14020425 -0.056237537 -0.068157285 -0.024658434 -0.1123934 0.084672906 0.08491943 0.1161198
-0.054512106 0.14618517 -0.004217714 0.11695346 0.15219143 0.15071915 0.08501241 0.002414115
00000000: 7161 61bd 824c 173d 9ad6 7f3d 9da7 c5bb
00000010: 110a 723d a41a c53d b0b8 243d fcde d53d
00000020: 938b d9bd ca3e 033e 0593 16bd 76ca 12be
00000030: 02a4 ee3d 6df3 8c3a 2fde a23d 07ae 93bb
00000040: a082 bc3d 2aa2 ee3d dd9d adbd 7eb3 053e
00000050: a47a 97bd f121 b93c 8f75 383e ac31 b73d
00000060: 54a2 c73d d2fa 8d3d 053f d23d c78e b0bd
00000070: 306c 443d 52a0 803d c6bd 0d3e 51e6 f4bd
00000080: 5b08 283e e70a 6a3d 061d a4bd 23fa 7ebd
00000090: e8c3 cebb 1d93 78bd d407 8b3d 7419 0cbb
000000a0: 9bb2 033d 0bb5 793c b5d5 96bd 4fce b83d
000000b0: 51bb 6dbd be8d 52bd 6768 59bc 64e9 c2bd
000000c0: b491 0f3e 5559 66bd 0c96 8bbd 7c00 cabc
000000d0: 832e e6bd fd68 ad3d 3dea ad3d 38d0 ed3d
000000e0: 1648 5fbd 91b1 153e c034 8abb 4c85 ef3d
000000f0: 12d8 1b3e 1f56 1a3e fd1a ae3d 2136 1e3b

weight f4 [1, 64]
0.13674627 0.34855607 0.30531138 -0.42133522 1.9714444 1.3955531 -0.38288933 -0.3991651
0.64924604 0.29482627 -0.113780804 -0.28954342 0.50412077 -0.0105398 -0.2462161 0.13629021
-0.2444941 0.3971847 -0.33391243 0.15718094 0.32082534 0.57796437 0.20043552 -0.2729198
-0.48238182 -0.37441677 0.13379374 -0.46468896 -0.1643439 0.059114575 0.10676278 0.56948364
0.16709203 0.72539765 0.08585411 1.744402 0.48982382 -0.28438917 -0.2965963 0.23811324
-0.29394722 -0.30936474 -0.060064796 0.1268829 -0.24698108 0.5005041 0.030520577 -0.29363945
0.5002469 -0.35953456 0.016183078 0.44808584 -0.08524093 -0.27410743 -0.41506445 -0.3435295
0.5080977 1.9583923 -0.32851028 0.1906946 0.18962872 0.16831926 -0.2842505 -0.33584845
00000000: 3707 0c3e f175 b23e c651 9c3e 40b9 d7be
00000010: 4a58 fc3f 7ca1 b23f 120a c4be 5e5f ccbe
00000020: fd34 263f 78f3 963e e905 e9bd 093f 94be
00000030: 0f0e 013f 20af 2cbc 1320 7cbe a98f 0b3e
00000040: a95c 7abe cb5b cb3e 92f6 aabe 0af4 203e
00000050: 3843 a43e 79f5 133f f83e 4d3e 25bc 8bbe
00000060: c0fa f6be 8eb3 bfbe 3a01 093e b6eb edbe
00000070: c449 28be 2022 723d 72a6 da3d aec9 113f
00000080: 2c1a 2b3e a9b3 393f 48d4 af3d 9148 df3f
00000090: 30ca fa3e 759b 91be 78db 97be f5d3 733e
000000a0: 4080 96be 0e65 9ebe 8106 76bd 97ed 013e
000000b0: 9ce8 7cbe 0921 003f 4a06 fa3c e957 96be
000000c0: 2e10 003f ea14 b8be 6092 843c 826b e53e
000000d0: cc92 aebd cf57 8cbe 5483 d4be 19e3 afbe
000000e0: b112 023f 99ac fa3f 8032 a8be 7245 433e
000000f0: 082e 423e e25b 2c3e 4889 91be 54f4 abbe
