maddpg.pt (torch, 346479 bytes, 80 tensors)

weight f4 [64, 7]
0	0xc0a2b615	-5.084727
1	0x3e80bdd2	0.2514482
2	0x40a019ec	5.0031643
3	0xc0aca2f4	-5.3948917
4	0xc04b107d	-3.1728814
5	0x409653d3	4.6977324
6	0x409fe866	4.997119
7	0xbf83ee2f	-1.0307063
8	0xc0af1da8	-5.47237
9	0x3fc4db04	1.5379338
10	0xbfff675b	-1.9953417
11	0x40580cfc	3.3757925
12	0x3fd0a04a	1.6298916
13	0x3fa61a54	1.2976785
14	0xc04f3011	-3.2373087
15	0x40c394a6	6.1118956
16	0x409560fe	4.66809
17	0xc056d3d6	-3.3566794
18	0xc08eaaa3	-4.4583297
19	0x40946573	4.637384
20	0x408b5145	4.3536706
21	0xc08b6959	-4.35661
22	0xbf6514a0	-0.89484596
23	0x40805a48	4.0110207
24	0xc0a1fa05	-5.06177
25	0xbfcb819d	-1.589893
26	0x408880fd	4.2657456
27	0x4076fe38	3.8592663
28	0xc08f71a0	-4.4826202
29	0xbf1b5014	-0.60669065
30	0x40874994	4.2277317
31	0xc09c724f	-4.8889537
32	0xbfdf4cda	-1.7445328
33	0x40875727	4.2293887
34	0x4086db98	4.214306
35	0xbf46d54d	-0.7766922
36	0xc0aade98	-5.339672
37	0x3fb27f7a	1.3945153
38	0xc002a07a	-2.0410447
39	0x4045cdc7	3.0906847
40	0x3fab8a1a	1.340152
41	0x3f9077a7	1.1286515
42	0xc05a8030	-3.414074
43	0x40c8ff7c	6.281187
44	0x40948c5e	4.6421347
45	0xc06131f5	-3.5186741
46	0xc089afae	-4.3026953
47	0x408a379d	4.3192887
48	0x4097f1ab	4.7482505
49	0xbf435c2e	-0.7631253
50	0xc0acfa86	-5.4055815
51	0x3fc6edfd	1.5541378
52	0xbfe70fb0	-1.8051662
53	0x403322e0	2.7990036
54	0x3fd20381	1.6407319
55	0x3f8feffe	1.1245115
56	0xbfa002df	-1.2500876
57	0xc0accc18	-5.399914
58	0x3fca625c	1.5811267
59	0xc00a047d	-2.156524
60	0x404b3491	3.1750834
61	0x3fdb00d0	1.7109623
62	0x3fd6046a	1.6720097
63	0xc0822a4d	-4.0676637
64	0xbfa8c171	-1.3184034
65	0x4080a414	4.020029
66	0xc08727b8	-4.2235985
67	0x3f4814ba	0.78156626
68	0x4076be5a	3.8553681
69	0x4080bc36	4.022975
70	0xbf5f6c57	-0.8727469
71	0xc0a4e970	-5.153496
72	0x3fc5ca3c	1.5452342
73	0xbfdf94d5	-1.7467295
74	0x405a18d7	3.407766
75	0x3fa80db4	1.3129182
76	0x3f9d03c9	1.226678
77	0xc090a5fd	-4.5202622
78	0xbf41d53f	-0.7571601
79	0x408cf05a	4.40434
80	0xc09ab93b	-4.835111
81	0xbfdedb08	-1.7410593
82	0x408f7d00	4.484009
83	0x408ad239	4.338162
84	0xc086569d	-4.198073
85	0xbf9d5552	-1.2291663
86	0x407595bb	3.8372638
87	0xc099f99b	-4.8117194
88	0x3f8aaea2	1.0834544
89	0x406f53d3	3.7394912
90	0x406a1df7	3.658079
91	0xc055825a	-3.336081
92	0x40c885ae	6.2663183
93	0x4090c052	4.5234766
94	0xc063fb35	-3.5622075
95	0xc089d745	-4.307528
96	0x40851be3	4.159654
97	0x4092c752	4.586831
98	0xc09a0359	-4.8129086
99	0x3bfdb9a6	0.0077430783
100	0x409b74e9	4.8580213
101	0xc0a63410	-5.1938553
102	0xc02e9a9f	-2.7281873
103	0x408fba4f	4.4914927
104	0x40963706	4.6942167
105	0xc073afc5	-3.8076031
106	0x40c6ad5b	6.2086616
107	0x4091da4c	4.5578976
108	0xc0413211	-3.0186808
109	0xc08cfa24	-4.4055347
110	0x4087aca4	4.2398243
111	0x408c1321	4.377335
112	0xc034e23d	-2.8263085
113	0x40bd8029	5.9218946
114	0x408e8f14	4.4549656
115	0xc06697e5	-3.603021
116	0xc0a12073	-5.035211
117	0x408b7bb2	4.3588495
118	0x408a3637	4.319118
119	0xbf4e51a1	-0.80593306
120	0xc0aa3830	-5.319359
121	0x3fb309a0	1.3987312
122	0xbfe78c38	-1.8089666
123	0x403a25c9	2.9085562
124	0x3f9a63cc	1.2061706
125	0x3fd8a3d6	1.6924999
126	0xc07e9bcc	-3.978259
127	0xbf857216	-1.0425441
128	0x40859e07	4.1755404
129	0xc092fa96	-4.593089
130	0x3f14daf0	0.5814657
131	0x4089610e	4.2930975
132	0x408bf347	4.373447
133	0xbf8c1dee	-1.0946634
134	0xc0abb303	-5.365602
135	0x3fd76715	1.6828333
136	0xbfc2ddd4	-1.5223947
137	0x403cbfe6	2.9492126
138	0x3fbe7fc9	1.4882747
139	0x3f6f6600	0.93515015
140	0xbf48ccc6	-0.7843746
141	0xc0acb1ae	-5.3966894
142	0x3fbdaed1	1.4818975
143	0xbfeb4a61	-1.8382074
144	0x404b0a4e	3.172504
145	0x3f95ca60	1.1702385
146	0x3fbce79a	1.4758179
147	0xbf82014e	-1.0156648
148	0xc0ac9bcd	-5.3940187
149	0x3fc309b1	1.5237333
150	0xbfdbc02c	-1.7168021
151	0x403b99c8	2.931261
152	0x3f840700	1.0314636
153	0x3fac8155	1.3476969
154	0xbf946eea	-1.1596348
155	0xc0a49512	-5.143197
156	0x3f8ca29b	1.0987123
157	0xbfece855	-1.8508402
158	0x404ea545	3.2288373
159	0x3fc0b785	1.5056006
160	0x3fd641a8	1.6738787
161	0xbf88a40e	-1.0675066
162	0xc0a8fc67	-5.280811
163	0x3fd3378c	1.6501327
164	0xbfd30b4a	-1.648782
165	0x4036d066	2.8564696
166	0x3fcdd1e8	1.6079683
167	0x3f8ed535	1.1158816
168	0xc05d3c6b	-3.4568126
169	0x40c9824a	6.2971544
170	0x40985d64	4.7614
171	0xc056c014	-3.3554735
172	0xc08bdc61	-4.3706517
173	0x40848e03	4.1423354
174	0x409a1b99	4.815869
175	0xc09cfec9	-4.9061017
176	0x3e67170b	0.22567384
177	0x40941d59	4.6285825
178	0xc0ad8a8b	-5.423162
179	0xc050fa85	-3.2652905
180	0x409aa0a0	4.8321075
181	0x408f29b1	4.4738393
182	0xbf6a5128	-0.91530085
183	0xc0ac20cb	-5.379003
184	0x3fc1c4ec	1.5138221
185	0xbfd9582c	-1.6980033
186	0x403368ec	2.803279
187	0x3fc1c390	1.5137806
188	0x3fb5cc21	1.420292
189	0xbf58eecb	-0.8473937
190	0xc0ac5fc6	-5.386691
191	0x3f8a0936	1.0784061
192	0xbff0b6c9	-1.8805782
193	0x4042ccd6	3.0437522
194	0x3fbad4ac	1.4596152
195	0x3fbba12a	1.4658558
196	0xc072e330	-3.7951164
197	0x40cf1708	6.4715614
198	0x408bafd7	4.365215
199	0xc04ad084	-3.1689768
200	0xc0960815	-4.6884866
201	0x4098b599	4.7721677
202	0x408bece6	4.3726683
203	0xbf5d5c0e	-0.8646859
204	0xc0a0c3b3	-5.023889
205	0x3fdb35af	1.7125758
206	0xbfbc3832	-1.470465
207	0x40579448	3.3684254
208	0x3fd8d0e5	1.693875
209	0x3fcf2ed3	1.6186165
210	0xc06ec608	-3.7308369
211	0x40c3d0ec	6.119253
212	0x4086011c	4.1876354
213	0xc04def20	-3.21772
214	0xc08aa54b	-4.3326774
215	0x408ee0fe	4.464965
216	0x40823287	4.068668
217	0xbf73542b	-0.95050305
218	0xc0a6f563	-5.2174544
219	0x3fca8c3a	1.5824044
220	0xbff50cab	-1.9144491
221	0x404ee9c0	3.233017
222	0x3fabd5d7	1.3424634
223	0x3f79c74b	0.9756972
224	0xbf99b57a	-1.2008507
225	0xc0a6369e	-5.194167
226	0x3fb23fc9	1.3925716
227	0xc00fb8e7	-2.2456605
228	0x4033117c	2.7979422
229	0x3fb2d10e	1.3970048
230	0x3fbbde3d	1.4677197
231	0xbfa56d39	-1.2923957
232	0xc0a9e53a	-5.3092318
233	0x3f844f77	1.0336751
234	0xc001ed4e	-2.030109
235	0x402bf831	2.6870234
236	0x3fd92e41	1.696724
237	0x3f7feec3	0.99973696
238	0xc0a0b63d	-5.022246
239	0x3dd2572d	0.10270534
240	0x4098471b	4.75868
241	0xc09c2f98	-4.88081
242	0xc04c95c9	-3.1966422
243	0x40937687	4.6082187
244	0x409f1a87	4.971988
245	0xc04c288f	-3.1899755
246	0xc006185c	-2.0952368
247	0x405c77a2	3.4448018
248	0xc082c674	-4.086725
249	0x4024a6be	2.5726771
250	0x406a3f6d	3.6601212
251	0x406913a6	3.6418242
252	0xc06c4d76	-3.6922278
253	0xbfcf63ff	-1.6202391
254	0x40806ea1	4.0135045
255	0xc089c18f	-4.3048778

bias f4 [64]
0	0x408c1122	4.3770914
1	0x3f8421ee	1.0322855
2	0x409a4842	4.8213205
3	0x4090b38d	4.521918
4	0x408d930e	4.424201
5	0x3f769855	0.9632619
6	0x40840e13	4.126718
7	0x3fb33d58	1.4003096
8	0x3f8fee73	1.1244644
9	0x40608667	3.5082033
10	0x3fb0a9be	1.3801801
11	0x40894d93	4.2907195
12	0x407f72bd	3.991378
13	0x409680cb	4.703222
14	0x408da07c	4.4258404
15	0x409a8994	4.829294
16	0x408d83c1	4.4223332
17	0x3f8a2834	1.0793519
18	0x40858871	4.1729054
19	0x3fc7ce95	1.5609919
20	0x3fc4b2f1	1.5367109
21	0x3f845bf7	1.0340565
22	0x3fd53b54	1.665873
23	0x3fb302a3	1.398518
24	0x4097c76c	4.7430935
25	0x40988380	4.7660522
26	0x3f847dd1	1.0350896
27	0x3fa9cb45	1.3265158
28	0x4096a317	4.7074084
29	0x3fc736ac	1.556356
30	0x4089995e	4.2999716
31	0x3f8905a2	1.0704844
32	0x3fc3a396	1.5284297
33	0x3fc27221	1.5191079
34	0x40934627	4.6023135
35	0x403f340a	2.9875512
36	0x406708f5	3.6099217
37	0x3f86e2fc	1.053802
38	0x3fc7e693	1.5617241
39	0x4080012a	4.000142
40	0x4094b0c8	4.6465797
41	0x409a97d1	4.8310323
42	0x40855952	4.1671534
43	0x3fdba889	1.7160808
44	0x4093694e	4.6066046
45	0x3fde4e62	1.736767
46	0x4097b658	4.7410088
47	0x4093c474	4.617731
48	0x40832ea0	4.0994415
49	0x3f808453	1.0040382
50	0x3f9fab9a	1.2474244
51	0x3fd4b2fc	1.6617122
52	0x3fafe4a5	1.3741652
53	0x4058c919	3.387274
54	0x3fcc90ac	1.598165
55	0x409aa15f	4.8321986
56	0x3f906401	1.1280519
57	0x4093cfac	4.6191006
58	0x3f9155c6	1.1354301
59	0x3fb2393d	1.3923718
60	0x3fac0637	1.3439397
61	0x3fe4e4fa	1.7882378
62	0x408d2494	4.410715
63	0x4083e02e	4.1211157

weight f4 [64, 64]
0	0x3feed2dc	1.8658099
1	0x409185e4	4.547594
2	0xc0a0c662	-5.0242167
3	0x403858c7	2.8804185
4	0x4032f65c	2.7962866
5	0x40930c74	4.59527
6	0xc098142d	-4.752463
7	0x409ba432	4.8637934
8	0x40894c90	4.290596
9	0x405bac88	3.4324055
10	0x40a3feae	5.124839
11	0x402bffba	2.6874833
12	0x4063f58e	3.5618625
13	0xc098e693	-4.7781463
14	0x401984d8	2.3987331
15	0xc09b9bcb	-4.8627677
16	0xc0b1ae36	-5.552516
17	0x40973257	4.724895
18	0x405f3077	3.487333
19	0x40963615	4.694102
20	0x409d77f2	4.920892
21	0x4096e36c	4.7152615
22	0x408f2966	4.4738035
23	0x4091b927	4.5538516
24	0xc09a1e6f	-4.816215
25	0x3ff73b4b	1.931497
26	0x409895ab	4.76827
27	0x4090643d	4.512236
28	0xc0a50717	-5.1571155
29	0x40adbf79	5.429623
30	0xc0a21227	-5.064716
31	0x40914f96	4.540965
32	0x40860af3	4.1888366
33	0x408a4c1a	4.3217897
34	0x3ff86f2d	1.9408928
35	0x408292b7	4.0804095
36	0x407ab8c5	3.9175274
37	0x408a722a	4.326436
38	0x40900c92	4.5015345
39	0x40241c20	2.5642166
40	0xc09ff7ab	-4.998983
41	0x400b6659	2.1781218
42	0x403084f0	2.7581139
43	0x4089349e	4.287673
44	0x401b09bf	2.4224699
45	0x40a8b8dc	5.272566
46	0x400aa931	2.1665766
47	0xc09a159a	-4.815137
48	0x400845e4	2.1292658
49	0x409867a4	4.7626514
50	0x408ac211	4.3361897
51	0x4091ce82	4.5564585
52	0x408e5d40	4.448883
53	0x40751161	3.8291857
54	0x409578cf	4.670997
55	0x400b6ddc	2.1785803
56	0x409410af	4.6270366
57	0x4001d497	2.0286005
58	0x4092dc4d	4.589392
59	0x408c0161	4.3751683
60	0x408c2843	4.3799148
61	0x40ba877e	5.8290396
62	0xc09ea0e0	-4.957138
63	0x40057cb7	2.085737
64	0x408c903e	4.3926077
65	0xc0336138	-2.8028088
66	0x40c87c13	6.265146
67	0x406716eb	3.6107738
68	0x40738ae8	3.8053532
69	0xc046b244	-3.1046305
70	0x40c6820a	6.203374
71	0xc05587b2	-3.3364072
72	0xbfdcef47	-1.7260522
73	0x4044b28c	3.0733976
74	0xc0746b5a	-3.8190522
75	0x40701ba1	3.7516863
76	0x404935b2	3.1439023
77	0x40c20f48	6.0643654
78	0x4088c54e	4.274085
79	0x40c6f7dc	6.2177563
80	0x40d1f742	6.561433
81	0xc0478142	-3.1172643
82	0x4052a8e3	3.291558
83	0xc0628dd3	-3.5399063
84	0xc06e9697	-3.7279413
85	0xc070c7dd	-3.7621987
86	0xc0096eb8	-2.1473827
87	0xc0289852	-2.634297
88	0x40c3d7eb	6.120107
89	0x408bfdef	4.3747478
90	0xc058d89c	-3.3882208
91	0xc04a69ad	-3.1627
92	0x40c577c6	6.170871
93	0xc0807859	-4.014691
94	0x40c6b22b	6.209249
95	0xc03704f9	-2.8596785
96	0xbfb41549	-1.4068996
97	0xbff21440	-1.891243
98	0x408d8313	4.4222503
99	0x3ff96743	1.9484638
100	0x402402df	2.5626752
101	0xc0185501	-2.3801882
102	0xbff3bf21	-1.9042703
103	0x407f792d	3.991771
104	0x40c64fd0	6.1972427
105	0x40846d3c	4.1383343
106	0x4076d994	3.85703
107	0xbfa67a03	-1.3005985
108	0x40824003	4.070314
109	0xc0876f3d	-4.232329
110	0x4085eea0	4.185379
111	0x40c939a0	6.2882843
112	0x40826fd5	4.0761514
113	0xc064700b	-3.5693386
114	0xc00c87c0	-2.1957855
115	0xc01795b9	-2.3685133
116	0xc0176dc3	-2.3660743
117	0x402d41b4	2.7071352
118	0xc02ce222	-2.701302
119	0x4084ae41	4.146271
120	0xc03577e3	-2.8354423
121	0x408bd6f3	4.369989
122	0xc00c61a5	-2.1934597
123	0xbffcfff0	-1.9765606
124	0xbfc9505a	-1.5727646
125	0xc07d8fd0	-3.9619026
126	0x40c8709d	6.2637467
127	0x40856995	4.1691384
128	0x408a105b	4.3144965
129	0xc027aba1	-2.6198504
130	0x40c7669e	6.2312765
131	0x405e6e6c	3.4754896
132	0x407029f9	3.7525618
133	0xc04019a1	-3.0015643
134	0x40c254dc	6.072859
135	0xc0604c86	-3.5046706
136	0xbfdbf887	-1.718522
137	0x404c5a02	3.1929936
138	0xc0801aa7	-4.0032535
139	0x406cf334	3.702344
140	0x404496c4	3.071702
141	0x40c90d67	6.282886
142	0x408b0080	4.343811
143	0x40c8aff6	6.2714796
144	0x40d16c06	6.5444365
145	0xc04ad325	-3.1691372
146	0x404ac3a1	3.1681902
147	0xc0589ee7	-3.3846986
148	0xc07a8e60	-3.9149399
149	0xc06af0f8	-3.6709576
150	0xbff997f8	-1.9499502
151	0xc021bba6	-2.5270782
152	0x40c92a57	6.2864184
153	0x4090bb6e	4.5228796
154	0xc05e6245	-3.474748
155	0xc04c4726	-3.1918426
156	0x40c954f0	6.2916183
157	0xc0784e67	-3.8797853
158	0x40c6d015	6.2129006
159	0xc0329beb	-2.7907665
160	0xbfb5c143	-1.4199604
161	0xbfd5a5ba	-1.6691201
162	0x40892ad4	4.286478
163	0x4002131e	2.0324168
164	0x402c5135	2.6924565
165	0xc012850f	-2.2893713
166	0xc0091b55	-2.1422932
167	0x4076b939	3.855055
168	0x40c911c1	6.283417
169	0x408c8122	4.3907633
170	0x406fe870	3.7485619
171	0xbfaaf76d	-1.3356758
172	0x40883bd8	4.257305
173	0xc08b102c	-4.345724
174	0x4082fc58	4.0933037
175	0x40c2ba17	6.085216
176	0x4083ef17	4.122936
177	0xc0659565	-3.5872433
178	0xc0013861	-2.019066
179	0xc01d84c2	-2.461228
180	0xc0053ea1	-2.0819476
181	0x40319715	2.7748463
182	0xc02bf176	-2.6866126
183	0x4081c79d	4.055617
184	0xc045047e	-3.0783992
185	0x408ad373	4.3383117
186	0xc010bf27	-2.261667
187	0xc003dbb4	-2.0602846
188	0xbfe5c9c8	-1.7952204
189	0xc080eb63	-4.0287337
190	0x40c28568	6.078785
191	0x4082f73b	4.0926795
192	0x3fee83d8	1.8633986
193	0x40910929	4.532368
194	0xc09f2d67	-4.9742923
195	0x403aa219	2.9161437
196	0x4037f581	2.8743594
197	0x4092f86d	4.5928254
198	0xc09d038c	-4.906683
199	0x409a7c64	4.8276844
200	0x408c557e	4.385436
201	0x405e6a5e	3.4752421
202	0x40a788d5	5.235453
203	0x4034f7ae	2.8276172
204	0x405da9f4	3.463498
205	0xc09814ba	-4.75253
206	0x400af6a4	2.1713037
207	0xc09fe1ec	-4.9963284
208	0xc0b2c585	-5.5866113
209	0x4098aff0	4.7714767
210	0x40663eee	3.597591
211	0x4097c2b3	4.742517
212	0x409c2cbf	4.880462
213	0x40973a35	4.7258554
214	0x4090e648	4.5281105
215	0x408fd2d6	4.494487
216	0xc09afbf1	-4.8432546
217	0x3fe80b24	1.81284
218	0x4097a892	4.7393274
219	0x4093ee30	4.6228256
220	0xc0a329a7	-5.0988345
221	0x40aeefa9	5.4667554
222	0xc09a7d3d	-4.827788
223	0x4096457f	4.6959834
224	0x4086161d	4.1901994
225	0x4085a8b2	4.1768427
226	0x40044ad6	2.0670676
227	0x4082c46a	4.0864763
228	0x407a99ef	3.9156454
229	0x408edcc6	4.46445
230	0x408fd8c5	4.495211
231	0x40270334	2.6095705
232	0xc09ee922	-4.9659586
233	0x400f4f4b	2.2392147
234	0x4025f3c0	2.5930023
235	0x408e7b47	4.4525485
236	0x401ffadd	2.4996865
237	0x40aaa82e	5.3330297
238	0x40085a36	2.130506
239	0xc09e7122	-4.95131
240	0x400305c6	2.0472274
241	0x409887a8	4.7665596
242	0x408a9134	4.330225
243	0x40964674	4.6961
244	0x408e22a0	4.4417267
245	0x406d3f90	3.7070045
246	0x4090b798	4.5224113
247	0x40143e84	2.3163157
248	0x4096d20a	4.7131395
249	0x3fffb0c2	1.9975817
250	0x408da4d2	4.4263697
251	0x40914470	4.539604
252	0x40892c3b	4.286649
253	0x40bc3cab	5.8824058
254	0xc0987216	-4.7639265
255	0x3fffc27a	1.9981225

bias f4 [64]
0	0x3fc4e3b0	1.5381985
1	0x4095ee0c	4.6853085
2	0x40960fb1	4.6894155
3	0x3fbf81e5	1.4961516
4	0x3dab17e5	0.08354167
5	0xbd7b66c4	-0.0613773
6	0x4094c1ca	4.648656
7	0xbd821d54	-0.0635325
8	0x3f6a10db	0.9143197
9	0x3fba50ad	1.455587
10	0x3fbe7d62	1.4882014
11	0x4090ad4c	4.5211544
12	0x3fc8b3ef	1.5679911
13	0x3fb1ff8b	1.390611
14	0x4093d5ff	4.6198726
15	0x3fbe5d26	1.4872177
16	0x3fc38ad3	1.5276741
17	0x40916b80	4.5443726
18	0x3fb7f9dc	1.4373126
19	0x4095f63d	4.6863084
20	0x3fc59428	1.5435839
21	0x3afa9b33	0.0019119739
22	0x3fbf66cc	1.4953246
23	0x40946859	4.6377378
24	0x3fd098f8	1.6296682
25	0x40968ffa	4.7050753
26	0x3fbb4349	1.4629909
27	0x4097a3ee	4.738761
28	0x3fc1c497	1.513812
29	0x3fca5558	1.5807295
30	0x3fc0e63c	1.5070262
31	0x3fc479a1	1.5349618
32	0x3fcb4bf3	1.5882553
33	0xbcee4de2	-0.029089872
34	0x3fc90db6	1.5707309
35	0x3f65e0bb	0.89796036
36	0x3fb60f0e	1.4223344
37	0x3fcc085e	1.5940053
38	0x3f0d77f6	0.5526117
39	0xbd8c68c8	-0.06855923
40	0x4095c346	4.680087
41	0x3fc9cf3e	1.576637
42	0x3c0cf31b	0.008602883
43	0x3fb3798d	1.4021469
44	0x3fc76a87	1.5579385
45	0xbd9a5385	-0.07535461
46	0x40936a49	4.6067243
47	0x4096c97e	4.712096
48	0x3a531800	0.00080525875
49	0x3fbb34b0	1.4625454
50	0x3fc07796	1.5036495
51	0x3fa8f56f	1.31999
52	0x40920493	4.5630584
53	0x3fc7a614	1.5597558
54	0x3f47c453	0.7803394
55	0x3fb0f668	1.3825197
56	0x3fac72db	1.3472551
57	0x40937498	4.6079826
58	0x3f993019	1.1967803
59	0x3fb82e3a	1.4389107
60	0xbd2821a8	-0.041047722
61	0x40961996	4.6906233
62	0x3f12e6bf	0.5738334
63	0x3fc46c39	1.5345527

weight f4 [1, 64]
0	0x409a4eb6	4.8221083
1	0xc0cd668d	-6.4187684
2	0xc0caa1f9	-6.332272
3	0x4098f46a	4.7798357
4	0xbbc85a29	-0.0061142636
5	0xbcb3125b	-0.021859339
6	0xc0c9f71b	-6.3114142
7	0xbb8beb05	-0.00426996
8	0xc00af7e3	-2.1713798
9	0x4099025a	4.781537
10	0x409914fe	4.7838125
11	0xc0cb7e42	-6.3591623
12	0x409b2e94	4.849436
13	0x409ae393	4.84028
14	0xc0ca4284	-6.3206196
15	0x409b06c3	4.8445754
16	0x4099b4da	4.8033266
17	0xc0ce1cea	-6.4410295
18	0x409c6e31	4.888451
19	0xc0cbaf65	-6.3651605
20	0x409bd965	4.8702874
21	0xbd815186	-0.063143775
22	0x409ba23f	4.8635554
23	0xc0cb69d7	-6.35667
24	0x4098b7f3	4.7724547
25	0xc0cc1c4c	-6.378454
26	0x4095b25b	4.678022
27	0xc0cd13af	-6.408653
28	0x409c2c2d	4.8803926
29	0x409cd59c	4.9010754
30	0x40996784	4.793886
31	0x409b3a43	4.850862
32	0x40992172	4.7853327
33	0xbc8521f2	-0.016251538
34	0x4098e9bd	4.7785325
35	0x4019adfa	2.4012437
36	0x409ab9e1	4.8351903
37	0x409a523c	4.8225384
38	0xbfb0c09c	-1.380878
39	0xbd832ae7	-0.06404667
40	0xc0cd867f	-6.422668
41	0x409c2952	4.880044
42	0xbcc3a2fb	-0.023881426
43	0x409c76ec	4.889517
44	0x4098b436	4.7719984
45	0x3b7e60e8	0.0038815085
46	0xc0cd501d	-6.4160295
47	0xc0cb38f3	-6.350702
48	0x3d4925e0	0.049108386
49	0x409d9873	4.9248595
50	0x409914d0	4.7837906
51	0x409c1817	4.8779407
52	0xc0cd852a	-6.4225054
53	0x40991a7d	4.7844834
54	0x40161b1a	2.3454041
55	0x4099c628	4.805439
56	0x409cfe7d	4.9060655
57	0xc0cb2726	-6.348529
58	0x4095fd19	4.6871457
59	0x409c35f6	4.881587
60	0xbdc510f9	-0.09622378
61	0xc0cce55f	-6.4029994
62	0xbfce3b08	-1.6111765
63	0x40997069	4.794972

exp_avg f4 [64, 7]
0	0x42db33a0	109.60083
1	0xc2edbe8a	-118.87215
2	0xc1d4b4ba	-26.588245
3	0x42f94051	124.62562
4	0x42f1ce06	120.90239
5	0xc1aa2a2e	-21.270596
6	0xc1d4b4ba	-26.588245
7	0x42c818aa	100.04817
8	0x42296417	42.347744
9	0xc1b387f5	-22.441385
10	0x42e3ffeb	113.99984
11	0xc385147a	-266.15997
12	0xc18f9ff8	-17.95311
13	0xc1b387f5	-22.441385
14	0x41921bcd	18.263575
15	0xc357f58f	-215.95921
16	0xc0f0cd2f	-7.525047
17	0x41c0991f	24.074766
18	0x43fc0173	504.01132
19	0xc0c0a427	-6.020038
20	0xc0f0cd2f	-7.525047
21	0x42ddc272	110.879776
22	0xc2b0b709	-88.35749
23	0xc1d391c5	-26.446177
24	0x42fdbdee	126.87096
25	0x4231cf3a	44.45237
26	0xc1a9416c	-21.156944
27	0xc1d391c5	-26.446177
28	0x42e29b1f	113.30297
29	0xc2ba84b6	-93.2592
30	0xc1d86bd7	-27.052656
31	0x4301781d	129.4692
32	0x4253a12f	52.907406
33	0xc1ad2314	-21.642128
34	0xc1d86bd7	-27.052656
35	0x42d8cd43	108.4009
36	0x422c1c21	43.02747
37	0xc1c111ea	-24.133747
38	0x42f7d426	123.91435
39	0xc38c3058	-280.3777
40	0xc19a74bc	-19.307
41	0xc1c111ea	-24.133747
42	0x419130fa	18.148914
43	0xc35328b7	-211.15904
44	0xc0eb818a	-7.359563
45	0x41bfedc3	23.991095
46	0x43f4d342	489.65045
47	0xc0bc679f	-5.887649
48	0xc0eb818a	-7.359563
49	0x42e7554d	115.6666
50	0x423132e5	44.2997
51	0xc1cc91a7	-25.57112
52	0x43036e5a	131.43106
53	0xc394d76b	-297.68295
54	0xc1a3a7b8	-20.456894
55	0xc1cc91a7	-25.57112
56	0x42a78c1e	83.77367
57	0x4220e4a5	40.223286
58	0xc1967025	-18.804758
59	0x42c057a7	96.171196
60	0xc36bba02	-235.7266
61	0xc170b372	-15.04381
62	0xc1967025	-18.804758
63	0x42e2a498	113.32147
64	0xc2874a49	-67.64509
65	0xc1d2c143	-26.344366
66	0x43026f2a	130.43423
67	0xc106e00e	-8.429701
68	0xc1a89a9b	-21.07549
69	0xc1d2c143	-26.344366
70	0x42ff4cc4	127.64993
71	0x424664d4	49.598465
72	0xc1e56384	-28.673592
73	0x430fdff6	143.87485
74	0xc3a23069	-324.3782
75	0xc1b782cf	-22.938871
76	0xc1e56384	-28.673592
77	0x42df6af2	111.70888
78	0xc2b6f415	-91.47672
79	0xc1d53d80	-26.65503
80	0x42ff923a	127.7856
81	0x424b9064	50.891006
82	0xc1aa979b	-21.324026
83	0xc1d53d80	-26.65503
84	0x42e5f7e2	114.984146
85	0xc2895e99	-68.68476
86	0xc1d5915c	-26.695976
87	0x430458e2	132.3472
88	0xc10fdefe	-8.991941
89	0xc1aadab1	-21.356783
90	0xc1d5915c	-26.695976
91	0x4193d9cc	18.481346
92	0xc352abbe	-210.67087
93	0xc0ee58fe	-7.4483633
94	0x41c3595a	24.418629
95	0x43f3d5de	487.67084
96	0xc0bead9c	-5.9586926
97	0xc0ee58fe	-7.4483633
98	0x42e027c0	112.07764
99	0xc2dee6cd	-111.45078
100	0xc1d893ff	-27.072264
101	0x42ffaeae	127.84117
102	0x42c5819a	98.75313
103	0xc1ad4332	-21.65781
104	0xc1d893ff	-27.072264
105	0x41989cff	19.076658
106	0xc355491f	-213.28563
107	0xc0fa4493	-7.820871
108	0x41c8c231	25.09482
109	0x43f7b4c1	495.41214
110	0xc0c836dd	-6.256697
111	0xc0fa4493	-7.820871
112	0x41a1de81	20.233644
113	0xc35ce79f	-220.90477
114	0xc1000337	-8.000785
115	0x41d91ff3	27.1406
116	0x4403c49c	527.072
117	0xc0ccd1f6	-6.40063
118	0xc1000337	-8.000785
119	0x42df3e57	111.62176
120	0x422e8972	43.634224
121	0xc1c66dce	-24.803616
122	0x42fe2123	127.06472
123	0xc38fd9bb	-287.70102
124	0xc19ebe40	-19.842896
125	0xc1c66dce	-24.803616
126	0x42eb87ac	117.764984
127	0xc29463be	-74.19481
128	0xc1dc0e66	-27.50703
129	0x4307679b	135.40471
130	0x3f277227	0.6540856
131	0xc1b00b86	-22.005627
132	0xc1dc0e66	-27.50703
133	0x42e0c567	112.38555
134	0x422e0290	43.502502
135	0xc1c87cff	-25.061033
136	0x42fd4fe1	126.65601
137	0xc390bc4a	-289.471
138	0xc1a063ff	-20.048826
139	0xc1c87cff	-25.061033
140	0x42f7223d	123.56687
141	0x423fa166	47.907616
142	0xc1dbdde1	-27.48334
143	0x430bbe7b	139.74406
144	0xc39e8018	-317.00073
145	0xc1afe4b4	-21.986671
146	0xc1dbdde1	-27.48334
147	0x42eac42d	117.383156
148	0x42368f28	45.6398
149	0xc1d11499	-26.135057
150	0x43055ac7	133.3546
151	0xc39736ae	-302.4272
152	0xc1a743ae	-20.908047
153	0xc1d11499	-26.135057
154	0x42b517e2	90.546646
155	0x422398ea	40.89933
156	0xc1a2eda3	-20.366034
157	0x42cefeb9	103.497505
158	0xc377c731	-247.77809
159	0xc18257b5	-16.292826
160	0xc1a2eda3	-20.366034
161	0x42c67127	99.221
162	0x42237997	40.86874
163	0xc1b15e1a	-22.170948
164	0x42e19320	112.78735
165	0xc38358c8	-262.6936
166	0xc18de4e1	-17.736757
167	0xc1b15e1a	-22.170948
168	0x4199d72a	19.23006
169	0xc35450da	-212.31583
170	0xc0f6768f	-7.7019725
171	0x41ca2db7	25.272322
172	0x43f6321b	492.39145
173	0xc0c52ba8	-6.161579
174	0xc0f6768f	-7.7019725
175	0x42db0023	109.50027
176	0xc2eee357	-119.44402
177	0xc1d4ba08	-26.590836
178	0x42f8ea78	124.45795
179	0x42f50b33	122.52187
180	0xc1aa2e6d	-21.272669
181	0xc1d4ba08	-26.590836
182	0x42e34b14	113.64664
183	0x422fb6ea	43.928627
184	0xc1ca37a2	-25.277164
185	0x430165d1	129.39772
186	0xc392e0c7	-293.75607
187	0xc1a1c61a	-20.22173
188	0xc1ca37a2	-25.277164
189	0x42d9ef43	108.96731
190	0x422cb41d	43.17589
191	0xc1c23a0b	-24.278341
192	0x42f8e24d	124.44199
193	0xc38d12be	-282.14642
194	0xc19b61a2	-19.422672
195	0xc1c23a0b	-24.278341
196	0x41970ad2	18.880283
197	0xc35626a5	-214.15096
198	0xc0f653fb	-7.6977515
199	0x41c8d61b	25.104544
200	0x43fa6194	500.76233
201	0xc0c51002	-6.158204
202	0xc0f653fb	-7.6977515
203	0x430371be	131.4443
204	0x424ac6d9	50.694187
205	0xc1ebf229	-29.493242
206	0x4313b680	147.71289
207	0xc3a6880a	-333.0628
208	0xc1bcc1bb	-23.594595
209	0xc1ebf229	-29.493242
210	0x418fa8da	17.957447
211	0xc355aacd	-213.66719
212	0xc0efd347	-7.4945407
213	0x41c0668e	24.050076
214	0x43f86585	496.79312
215	0xc0bfdc32	-5.9956293
216	0xc0efd347	-7.4945407
217	0x42cf19d8	103.550476
218	0x4229af05	42.420918
219	0xc1b9bb8f	-23.216581
220	0x42eca74d	118.32676
221	0xc3875a4b	-270.7054
222	0xc194960b	-18.573263
223	0xc1b9bb8f	-23.216581
224	0x42a0a626	80.32451
225	0x421bfbb4	38.995804
226	0xc19008c5	-18.004282
227	0x42b92585	92.57328
228	0xc362679a	-226.4047
229	0xc1667470	-14.403427
230	0xc19008c5	-18.004282
231	0x42a762bd	83.69285
232	0x421b3b86	38.80813
233	0xc195fa0d	-18.747095
234	0x42c082e1	96.25562
235	0xc368eb46	-232.91904
236	0xc16ff67c	-14.997677
237	0xc195fa0d	-18.747095
238	0x42dc06f0	110.01355
239	0xc2eb7036	-117.71916
240	0xc1d57843	-26.683722
241	0x42fa2e31	125.09022
242	0x42eaf01c	117.46896
243	0xc1aac69d	-21.34698
244	0xc1d57843	-26.683722
245	0x42d414dc	106.04074
246	0xc20aef9d	-34.733997
247	0xc1c284df	-24.314878
248	0x42f51762	122.54567
249	0xc29e1b03	-79.05276
250	0xc19b9d80	-19.451904
251	0xc1c284df	-24.314878
252	0x42e14c76	112.64934
253	0xc24ff893	-51.99275
254	0xc1cf15ad	-25.885584
255	0x4301e53a	129.89542

exp_avg_sq f4 [64, 7]
0	0x45d41d5f	6787.6714
1	0x45bfa4b2	6132.587
2	0x43b35428	358.65747
3	0x46002475	8201.114
4	0x4587ef8f	4349.945
5	0x43658a74	229.54083
6	0x43b35428	358.65747
7	0x4550b02a	3339.0103
8	0x44b40f1f	1440.4725
9	0x432b2f11	171.18385
10	0x455f5b4b	3573.7058
11	0x4699ad3b	19670.615
12	0x42db1d83	109.55764
13	0x432b2f11	171.18385
14	0x46a42da5	21014.822
15	0x46cb760b	26043.021
16	0x447159e1	965.40436
17	0x46af9db4	22478.852
18	0x47a627c3	85071.52
19	0x441a76ec	617.85815
20	0x447159e1	965.40436
21	0x4589fb9f	4415.4526
22	0x453ab6f2	2987.434
23	0x43718367	241.51329
24	0x45abcd75	5497.682
25	0x441c831f	626.04877
26	0x431a9185	154.56844
27	0x43718367	241.51329
28	0x459725c4	4836.7207
29	0x45550f76	3408.9663
30	0x43841b5b	264.2137
31	0x45bbd93b	6011.154
32	0x4455c81c	855.1267
33	0x432918c0	169.09668
34	0x43841b5b	264.2137
35	0x456c7cd4	3783.8018
36	0x44be838c	1524.1108
37	0x4342be73	194.74394
38	0x458006b5	4096.8384
39	0x46ac5613	22059.037
40	0x42f945aa	124.63606
41	0x4342be73	194.74394
42	0x469a1fb7	19727.857
43	0x46c1114e	24712.652
44	0x44622be1	904.6856
45	0x46a50494	21122.29
46	0x479c7d40	80122.5
47	0x4410bff9	578.9996
48	0x44622be1	904.6856
49	0x45863b26	4295.3936
50	0x44ca857c	1620.1714
51	0x435e9309	222.57436
52	0x4591d9ee	4667.241
53	0x46c4d536	25194.605
54	0x430e7295	142.44759
55	0x435e9309	222.57436
56	0x451b17cc	2481.4873
57	0x4493aabf	1181.3358
58	0x42fc5e46	126.18413
59	0x4525164f	2641.3943
60	0x46699957	14950.335
61	0x42a1840a	80.75789
62	0x42fc5e46	126.18413
63	0x455989e9	3480.6194
64	0x44d253a9	1682.6144
65	0x4341a608	193.64856
66	0x4589dc16	4411.5107
67	0x4366405f	230.25145
68	0x42f7dec2	123.935074
69	0x4341a608	193.64856
70	0x45a63db1	5319.7114
71	0x44ff4d7e	2042.4216
72	0x438b3815	278.43814
73	0x45b32bf2	5733.493
74	0x46ec5a60	30253.188
75	0x43323349	178.20033
76	0x438b3815	278.43814
77	0x4591333c	4646.4043
78	0x454b1809	3249.5022
79	0x437df2f5	253.94905
80	0x45b49456	5778.542
81	0x4445045c	788.0681
82	0x432286fd	162.5273
83	0x437df2f5	253.94905
84	0x45625b49	3621.7053
85	0x44dc7388	1763.6104
86	0x43486df8	200.42957
87	0x458f4535	4584.651
88	0x43588e7f	216.55663
89	0x43004665	128.27498
90	0x43486df8	200.42957
91	0x469912ef	19593.467
92	0x46bff40b	24570.021
93	0x4460a9f8	898.65576
94	0x46a3fd01	20990.502
95	0x479b34ad	79465.35
96	0x440fc8f3	575.13983
97	0x4460a9f8	898.65576
98	0x45c1c389	6200.442
99	0x45a3930c	5234.381
100	0x43a5e68d	331.80118
101	0x45ecb413	7574.5093
102	0x453308e6	2864.5562
103	0x43545a41	212.35255
104	0x43a5e68d	331.80118
105	0x469f6005	20400.01
106	0x46c5bbe6	25309.95
107	0x446b849a	942.0719
108	0x46aac59d	21858.807
109	0x47a04b0b	82070.086
110	0x4416bb3d	602.9256
111	0x446b849a	942.0719
112	0x46b7d6d0	23531.406
113	0x46db3abe	28061.371
114	0x44870d1b	1080.4095
115	0x46c6881d	25412.057
116	0x47b76062	93888.766
117	0x442cdd9c	691.46265
118	0x44870d1b	1080.4095
119	0x457a79b1	4007.6057
120	0x44c27096	1555.5183
121	0x434f3584	207.20905
122	0x45876b28	4333.3945
123	0x46b6c5f5	23394.979
124	0x43049d1d	132.61372
125	0x434f3584	207.20905
126	0x45788853	3976.5203
127	0x450242a7	2084.1658
128	0x435d624e	221.384
129	0x459d44f6	5032.62
130	0x43423423	194.20366
131	0x430daf8d	141.68575
132	0x435d624e	221.384
133	0x457df4a3	4063.2898
134	0x44c25a2f	1554.8182
135	0x4352d7e4	210.84332
136	0x458877ea	4366.9893
137	0x46b916f0	23691.469
138	0x4306f095	134.93977
139	0x4352d7e4	210.84332
140	0x459c8c98	5009.574
141	0x44ecfbfa	1895.8743
142	0x438236c6	260.42792
143	0x45a8e5d7	5404.73
144	0x46e24d28	28966.578
145	0x4326ac84	166.67389
146	0x438236c6	260.42792
147	0x458cb3e6	4502.4873
148	0x44d58ee6	1708.4656
149	0x4369a254	233.6341
150	0x4597fb05	4863.3774
151	0x46cca5b4	26194.852
152	0x43158695	149.52571
153	0x4369a254	233.6341
154	0x452e74ec	2791.3076
155	0x449d633c	1259.1011
156	0x430ed62b	142.8366
157	0x453a3260	2979.1484
158	0x46822be4	16661.945
159	0x42b6d4a7	91.41534
160	0x430ed62b	142.8366
161	0x45493292	3219.1606
162	0x44a727f4	1337.2485
163	0x43258d54	165.55206
164	0x455796dc	3449.4287
165	0x4694d617	19051.045
166	0x42d3e826	105.953415
167	0x43258d54	165.55206
168	0x469d3f12	20127.535
169	0x46c3cf28	25063.578
170	0x446738d5	924.888
171	0x46a83990	21532.781
172	0x479e6ee0	81117.75
173	0x4413fb6f	591.92865
174	0x446738d5	924.888
175	0x45d576c7	6830.847
176	0x45c156f5	6186.8696
177	0x43b47228	360.89185
178	0x4600e592	8249.393
179	0x458a6384	4428.4395
180	0x4366f8a3	230.97124
181	0x43b47228	360.89185
182	0x4582da00	4187.25
183	0x44c620c9	1585.0245
184	0x43593320	217.1997
185	0x458d78af	4527.0854
186	0x46bf67c7	24499.889
187	0x430b0203	139.00786
188	0x43593320	217.1997
189	0x456ff518	3839.3184
190	0x44be5650	1522.6973
191	0x43463af9	198.23036
192	0x45818346	4144.409
193	0x46af451a	22434.55
194	0x42fdbc26	126.86748
195	0x43463af9	198.23036
196	0x46a3529e	20905.309
197	0x46c86365	25649.697
198	0x44710c04	964.18774
199	0x46af8f53	22471.662
200	0x47a3cffc	83871.97
201	0x441a451f	617.08
202	0x44710c04	964.18774
203	0x45b01bda	5635.4814
204	0x4504efb2	2126.981
205	0x4393ebf9	295.84354
206	0x45bd5eb0	6059.836
207	0x46faa1b9	32080.861
208	0x433d5704	189.3399
209	0x4393ebf9	295.84354
210	0x469ee697	20339.295
211	0x46c629c0	25364.875
212	0x446a6e6f	937.7255
213	0x46aa5b88	21805.766
214	0x47a113e9	82471.82
215	0x44160938	600.14404
216	0x446a6e6f	937.7255
217	0x455a1094	3489.0361
218	0x44b6012e	1456.0369
219	0x4333ce7f	179.80663
220	0x456a9f55	3753.9583
221	0x469f6d92	20406.785
222	0x42e62708	115.07623
223	0x4333ce7f	179.80663
224	0x450cfae3	2255.6804
225	0x4484cd21	1062.4103
226	0x42e68f03	115.27932
227	0x4516d926	2413.5718
228	0x465501f3	13632.487
229	0x42938ec5	73.77885
230	0x42e68f03	115.27932
231	0x4516d3e3	2413.243
232	0x448a4dc5	1106.4303
233	0x42f65bc4	123.17923
234	0x452140a6	2580.0405
235	0x4663097b	14530.37
236	0x429dab61	78.834724
237	0x42f65bc4	123.17923
238	0x45d05da1	6667.7036
239	0x45b9cc01	5945.5005
240	0x43b0cb72	353.58942
241	0x45fc6f1c	8077.8887
242	0x457b1046	4017.017
243	0x43624c17	226.29723
244	0x43b0cb72	353.58942
245	0x4513083d	2352.515
246	0x43e9b4dc	467.41296
247	0x43072e04	135.17975
248	0x453aa364	2986.212
249	0x4502766e	2087.4019
250	0x42ad07b1	86.51502
251	0x43072e04	135.17975
252	0x45381373	2945.2156
253	0x4475221d	980.533
254	0x43261252	166.07156
255	0x456ae81a	3758.5063

exp_avg f4 [64]
0	0xc1d4b4ba	-26.588245
1	0xc1b387f5	-22.441385
2	0xc0f0cd30	-7.5250473
3	0xc1d391c5	-26.446177
4	0xc1d86bd8	-27.052658
5	0xc1c111ea	-24.133747
6	0xc0eb8188	-7.359562
7	0xc1cc91a8	-25.571121
8	0xc1967025	-18.804758
9	0xc1d2c143	-26.344366
10	0xc1e56384	-28.673592
11	0xc1d53d81	-26.655031
12	0xc1d5915c	-26.695976
13	0xc0ee5905	-7.4483666
14	0xc1d893ff	-27.072264
15	0xc0fa4491	-7.82087
16	0xc1000337	-8.000785
17	0xc1c66dce	-24.803616
18	0xc1dc0e66	-27.50703
19	0xc1c87cfe	-25.061031
20	0xc1dbdde3	-27.483343
21	0xc1d11499	-26.135057
22	0xc1a2eda3	-20.366034
23	0xc1b15e1c	-22.170952
24	0xc0f6768d	-7.7019715
25	0xc1d4ba08	-26.590836
26	0xc1ca37a2	-25.277164
27	0xc1c23a0b	-24.278341
28	0xc0f65400	-7.697754
29	0xc1ebf229	-29.493242
30	0xc0efd33d	-7.494536
31	0xc1b9bb8e	-23.21658
32	0xc19008c6	-18.004284
33	0xc195fa0d	-18.747095
34	0xc1d57843	-26.683722
35	0xc1c284df	-24.314878
36	0xc1cf15ad	-25.885584
37	0xc1a37357	-20.431318
38	0xc1a2aa1b	-20.33306
39	0xc1d3e246	-26.485485
40	0xc0f4d1dc	-7.6506176
41	0xc1d9ae2c	-27.210045
42	0xc1d54105	-26.656748
43	0xc18ed316	-17.85307
44	0xc1da72df	-27.30609
45	0xc1f2a77e	-30.331783
46	0xc1d25e18	-26.295944
47	0xc0f6db73	-7.714288
48	0xc1ce13db	-25.759695
49	0xc1cc6737	-25.550398
50	0xc1a3ded9	-20.483812
51	0xc1b19030	-22.195404
52	0xc1a16f74	-20.17942
53	0xc1d16ca9	-26.178057
54	0xc1b908d3	-23.129309
55	0xc1d15a3c	-26.16906
56	0xc1c5c4ed	-24.721155
57	0xc1d2f5c8	-26.37001
58	0xc1a59d82	-20.701908
59	0xc19f091e	-19.879452
60	0xc193f911	-18.496614
61	0xc1fdf96c	-31.746788
62	0xc0ec38b4	-7.381922
63	0xc1cd07a9	-25.62874

exp_avg_sq f4 [64]
0	0x43b35429	358.6575
1	0x432b2f11	171.18385
2	0x447159e2	965.4044
3	0x43718367	241.51329
4	0x43841b5a	264.21368
5	0x4342be75	194.74397
6	0x44622be1	904.6856
7	0x435e9309	222.57436
8	0x42fc5e45	126.18412
9	0x4341a609	193.64857
10	0x438b3815	278.43814
11	0x437df2f5	253.94905
12	0x43486df6	200.42953
13	0x4460a9f7	898.6557
14	0x43a5e68c	331.80115
15	0x446b8499	942.07184
16	0x44870d1b	1080.4095
17	0x434f3583	207.20903
18	0x435d6250	221.38403
19	0x4352d7e5	210.84334
20	0x438236c4	260.42786
21	0x4369a252	233.63406
22	0x430ed62b	142.8366
23	0x43258d54	165.55206
24	0x446738d4	924.88794
25	0x43b47229	360.89188
26	0x4359331f	217.19969
27	0x43463af8	198.23035
28	0x44710c03	964.1877
29	0x4393ebf9	295.84354
30	0x446a6e71	937.72565
31	0x4333ce7f	179.80663
32	0x42e68f02	115.27931
33	0x42f65bc5	123.17924
34	0x43b0cb72	353.58942
35	0x43072e05	135.17976
36	0x43261251	166.07155
37	0x4310e362	144.88821
38	0x431138c7	145.22179
39	0x438725ad	270.29434
40	0x446f82b1	958.04205
41	0x43a9e0aa	339.7552
42	0x43826e61	260.86234
43	0x42decc43	111.39895
44	0x439fd895	319.69205
45	0x439d871f	315.05563
46	0x439c5ab7	312.7087
47	0x4465d10d	919.2664
48	0x439cd88c	313.69177
49	0x435d9983	221.59966
50	0x430e4358	142.26306
51	0x4323e6f8	163.90222
52	0x430b71a7	139.44395
53	0x432e05de	174.02292
54	0x43315e36	177.36801
55	0x4397b921	303.44632
56	0x4349f045	201.93855
57	0x43a9a310	339.27393
58	0x43131dae	147.11594
59	0x430a0c79	138.04872
60	0x42f76483	123.69631
61	0x43aefc48	349.97095
62	0x446292c2	906.2931
63	0x439a04ac	308.0365

exp_avg f4 [64, 64]
0	0xc083abe3	-4.1147323
1	0xc0fa4401	-7.8208013
2	0x3f7c0066	0.9843811
3	0xc0b0376d	-5.506766
4	0xc0a87fb5	-5.265589
5	0xc0e7b5ce	-7.240943
6	0x3f31ad7c	0.6940534
7	0xc0da2ceb	-6.817983
8	0xc0faa0d6	-7.8321333
9	0xc0fa87ee	-7.829093
10	0xc0f2203c	-7.566435
11	0xc0aa8c85	-5.3296533
12	0xc109fd96	-8.624411
13	0x3f317ada	0.6932808
14	0xc08cc1b0	-4.3986435
15	0x3f6078d0	0.87684345
16	0x3fee11d5	1.8599192
17	0xc0de0e89	-6.9392743
18	0xc0fc7cc5	-7.8902307
19	0xc0e02b38	-7.0052757
20	0xc0eaf358	-7.342205
21	0xc0dfa867	-6.989307
22	0xc0f343c4	-7.602022
23	0xc0de241b	-6.9419074
24	0x3f477b11	0.7792216
25	0xc077d4c2	-3.8723607
26	0xc0d9d825	-6.807635
27	0xc0e5e3e5	-7.184069
28	0x3f9863f7	1.1905507
29	0xc0ee1019	-7.439465
30	0x3f4ffdff	0.8124694
31	0xc0edefc8	-7.43552
32	0xc0e99821	-7.2998204
33	0xc0e099b1	-7.018761
34	0xc06f931d	-3.743354
35	0xc118b847	-9.54499
36	0xc1184d49	-9.518868
37	0xc0f920bf	-7.7852473
38	0xc0f05b99	-7.5111814
39	0xc090f0c6	-4.5293913
40	0x3f55f5ae	0.83578
41	0xc08f59a7	-4.479694
42	0xc0a9587f	-5.2920527
43	0xc0db20c6	-6.8477507
44	0xc09a804b	-4.828161
45	0xc0ecdd7b	-7.402036
46	0xc076f500	-3.8587036
47	0x3f2f01cc	0.68362117
48	0xc05e82d3	-3.4767349
49	0xc0dc957c	-6.8932476
50	0xc0e00d42	-7.0016184
51	0xc0dd23c9	-6.9106183
52	0xc0e4d5cb	-7.151098
53	0xc108b510	-8.544205
54	0xc0d4fd99	-6.6559567
55	0xc0822f6e	-4.0682898
56	0xc0ec4838	-7.383816
57	0xc06c13bf	-3.6887052
58	0xc0edb5ae	-7.4284277
59	0xc0e5d14c	-7.181799
60	0xc0fc7de6	-7.8903685
61	0xc1038278	-8.219353
62	0x3f3d0277	0.73831886
63	0xc0492e3e	-3.1434474
64	0xc1d4a0fc	-26.578606
65	0x411c6672	9.775011
66	0xc212d3e6	-36.706932
67	0xc18fffca	-17.999897
68	0xc19842b3	-19.032568
69	0x411107a4	9.064365
70	0xc2132e74	-36.795364
71	0x4108853f	8.532531
72	0x4119639a	9.586817
73	0xc10b99c8	-8.725044
74	0x41180f1f	9.503692
75	0xc1968843	-18.816534
76	0xc10d89a6	-8.846106
77	0xc21330a2	-36.797493
78	0xc1c1120b	-24.13381
79	0xc2134802	-36.82032
80	0xc216a9a0	-37.66565
81	0x410b1244	8.691959
82	0xc12903f7	-10.563468
83	0x410cc415	8.797872
84	0x4113565b	9.208583
85	0x410c4608	8.767097
86	0x4116da88	9.428352
87	0x410ad035	8.675832
88	0xc2143398	-37.050385
89	0xc1d440dc	-26.53167
90	0x41087663	8.528903
91	0x410ffb3a	8.998835
92	0xc2195afe	-38.33886
93	0x4115d1e2	9.363741
94	0xc211494f	-36.32159
95	0x4114e546	9.305975
96	0x410cba1c	8.795437
97	0x41095dc4	8.585392
98	0xc1cd2522	-25.643131
99	0xbf1587f2	-0.5841056
100	0xc0729535	-3.7903569
101	0x411abca4	9.671055
102	0x4114a70a	9.290781
103	0xc1a544d6	-20.658611
104	0xc21123a1	-36.284794
105	0xc1c1ed71	-24.240938
106	0xc19ccc87	-19.599867
107	0x4102aab6	8.166677
108	0xc1b8919f	-23.071104
109	0x41151db5	9.319753
110	0xc1c0e954	-24.11393
111	0xc214f2cb	-37.237103
112	0xc1c44b1e	-24.536678
113	0x410a4cee	8.643782
114	0x410b33a9	8.700112
115	0x410a7f4c	8.656078
116	0x410e0bff	8.877929
117	0xc0a2cb56	-5.0873213
118	0x41055750	8.333817
119	0xc1be948a	-23.822529
120	0x4113f3a6	9.2469845
121	0xc1cadda4	-25.358223
122	0x41139f4a	9.226389
123	0x410df15b	8.871425
124	0x411967de	9.587858
125	0x4125e3c6	10.368109
126	0xc212ae9b	-36.670513
127	0xc1c023f5	-24.017557
128	0xc1d1c20d	-26.219751
129	0x411a4921	9.642854
130	0xc210d850	-36.211243
131	0xc18e0e3a	-17.756947
132	0xc196348c	-18.775658
133	0x410f11a9	8.941812
134	0xc21131ac	-36.298508
135	0x4106acd9	8.417199
136	0x411750b2	9.457201
137	0xc109b803	-8.607425
138	0x411600d3	9.375201
139	0xc1948010	-18.56253
140	0xc10ba16d	-8.726911
141	0xc21133d4	-36.300613
142	0xc1be76bf	-23.807981
143	0xc2114ad6	-36.323082
144	0xc214a0c4	-37.156998
145	0x41093101	8.574464
146	0xc126bc89	-10.421029
147	0x410add06	8.678961
148	0x41115876	9.084097
149	0x410a60a0	8.64859
150	0x4114d072	9.30089
151	0x4108efe4	8.558567
152	0xc2123344	-36.550064
153	0xc1d16337	-26.173445
154	0x41069e32	8.413622
155	0x410e08f1	8.877183
156	0xc21748d5	-37.821125
157	0x4113cb6e	9.237165
158	0xc20f530f	-35.831112
159	0x4112e1eb	9.180156
160	0x410ad309	8.676522
161	0x41078260	8.46933
162	0xc1ca5ffd	-25.29687
163	0xbf1395b6	-0.57650316
164	0xc06f5337	-3.739454
165	0x4118a51b	9.540309
166	0x4112a481	9.165162
167	0xc1a309ab	-20.37972
168	0xc20f2de0	-35.7948
169	0xc1bf4f25	-23.913645
170	0xc19aaeb0	-19.335297
171	0x4100e68a	8.056284
172	0xc1b613c1	-22.759645
173	0x411319b8	9.193779
174	0xc1be4e86	-23.788342
175	0xc212efe5	-36.734272
176	0xc1c1a490	-24.205353
177	0x41086e59	8.52694
178	0x410951fd	8.582517
179	0x4108a014	8.539082
180	0x410c2080	8.757935
181	0xc0a09ab8	-5.0188866
182	0x410389ef	8.221175
183	0xc1bc01d1	-23.500887
184	0x4111f389	9.121957
185	0xc1c82062	-25.015812
186	0x4111a059	9.101647
187	0x410c0610	8.75148
188	0x411754e1	9.458222
189	0x4123a5c1	10.227967
190	0xc210b38b	-36.175335
191	0xc1bd8bbb	-23.693228
192	0xc0825647	-4.073032
193	0xc0f80e62	-7.7517557
194	0x3f7b2aff	0.9811248
195	0xc0ae84a3	-5.453691
196	0xc0a6dda7	-5.214557
197	0xc0e5aaad	-7.1770844
198	0x3f318765	0.6934722
199	0xc0d840ac	-6.7578945
200	0xc0f868ad	-7.762778
201	0xc0f83349	-7.7562604
202	0xc0effd9c	-7.499708
203	0xc0a8e5fa	-5.2780733
204	0xc108b563	-8.544284
205	0x3f315543	0.69270724
206	0xc08b59f8	-4.3547325
207	0x3f5fe47a	0.87458
208	0x3feca5d5	1.8488108
209	0xc0dc196f	-6.8781047
210	0xc0fa2121	-7.816544
211	0xc0de3173	-6.9435363
212	0xc0e8e11f	-7.2774806
213	0xc0ddafd1	-6.927712
214	0xc0f11d14	-7.5347996
215	0xc0dc2e51	-6.880654
216	0x3f472424	0.7778952
217	0xc0754de8	-3.83288
218	0xc0d7ecab	-6.74764
219	0xc0e3dcfb	-7.120725
220	0x3f97c3b2	1.1856596
221	0xc0ebf6a4	-7.3738575
222	0x3f4f8b9f	0.8107242
223	0xc0ebd63f	-7.369903
224	0xc0e785e7	-7.2350955
225	0xc0de9cd2	-6.956643
226	0xc06d2203	-3.705201
227	0xc11752f9	-9.457757
228	0xc116e6e4	-9.43137
229	0xc0f6ed01	-7.716431
230	0xc0ee3b81	-7.4447637
231	0xc08f83b4	-4.484827
232	0x3f5574ce	0.83381355
233	0xc08debc6	-4.435031
234	0xc0a7b3ba	-5.2406893
235	0xc0d92ef4	-6.7869816
236	0xc098f9c4	-4.780489
237	0xc0eac6d4	-7.336771
238	0xc074766d	-3.8197281
239	0x3f2ee622	0.68319905
240	0xc05c3c78	-3.4411907
241	0xc0daa3db	-6.832502
242	0xc0de1285	-6.9397607
243	0xc0db302f	-6.849632
244	0xc0e2d037	-7.087917
245	0xc1077249	-8.465402
246	0xc0d31cc9	-6.597264
247	0xc080e0d2	-4.027444
248	0xc0ea329e	-7.318679
249	0xc069ab8a	-3.651095
250	0xc0eb9bd6	-7.362773
251	0xc0e3c911	-7.1182942
252	0xc0fa4106	-7.8204374
253	0xc1025979	-8.146844
254	0x3f3cc046	0.73730886
255	0xc0471b26	-3.111032

exp_avg_sq f4 [64, 64]
0	0x416bc0ed	14.734601
1	0x415e3789	13.888558
2	0x4178c3db	15.547816
3	0x41413bca	12.077097
4	0x413faf77	11.980338
5	0x413ae06f	11.679793
6	0x41777fbc	15.468685
7	0x412329ab	10.197673
8	0x4159b3e7	13.606421
9	0x415bc905	13.736577
10	0x414f6704	12.96265
11	0x4141fe44	12.124577
12	0x418505b1	16.627779
13	0x41774550	15.454422
14	0x4155346b	13.325297
15	0x417b572d	15.708783
16	0x4189ba34	17.21592
17	0x4129ff6b	10.624858
18	0x416f784d	14.96687
19	0x412e040a	10.875986
20	0x4141f084	12.12122
21	0x412ca1a8	10.789467
22	0x414dc803	12.861331
23	0x41294add	10.580777
24	0x417becef	15.745345
25	0x41632204	14.195805
26	0x41228d69	10.159524
27	0x4137f23d	11.49664
28	0x418a464e	17.284328
29	0x41489699	12.536767
30	0x4173ca0f	15.236831
31	0x41461b3e	12.381651
32	0x41368d45	11.40949
33	0x4128deed	10.554425
34	0x41550eca	13.316111
35	0x418dd5f5	17.729471
36	0x4190d54c	18.104149
37	0x4159dc47	13.616279
38	0x41487227	12.527869
39	0x4134dbc7	11.303657
40	0x41734a13	15.205585
41	0x4159ba73	13.60802
42	0x41474cbd	12.456235
43	0x411c525d	9.770108
44	0x41577439	13.465875
45	0x4146c5a4	12.423252
46	0x41466388	12.3993
47	0x417dd391	15.864152
48	0x41416246	12.086493
49	0x4126f127	10.433875
50	0x412aff59	10.687341
51	0x41276e27	10.464393
52	0x4133867a	11.220331
53	0x416943ec	14.5790825
54	0x4119e678	9.618767
55	0x41494e1c	12.58157
56	0x41439bae	12.225508
57	0x41500a71	13.002549
58	0x414397c4	12.224552
59	0x4133b365	11.2312975
60	0x415c1934	13.756153
61	0x417c8449	15.782296
62	0x4176a32e	15.414839
63	0x41319f02	11.10132
64	0x43f2655e	484.79193
65	0x41b2f3ea	22.369099
66	0x44490f8f	804.2431
67	0x436a892d	234.53584
68	0x438038d0	256.44385
69	0x4197f58c	18.994896
70	0x444cc787	819.1176
71	0x41849072	16.57053
72	0x41a33042	20.398563
73	0x42c75774	99.67081
74	0x41aa3865	21.277536
75	0x437c1a76	252.10336
76	0x42e0b4e3	112.353294
77	0x444ca3fb	818.5622
78	0x43c7552b	398.66537
79	0x444bf073	815.757
80	0x444deba6	823.682
81	0x418a5a70	17.294159
82	0x42fd9dfd	126.80857
83	0x418e475a	17.78484
84	0x419ea37d	19.829828
85	0x418d0e32	17.631931
86	0x41a095e0	20.073181
87	0x418814be	17.010128
88	0x444f30e2	828.7638
89	0x43edf436	475.9079
90	0x41844b10	16.536652
91	0x4195b7b6	18.714703
92	0x445d0283	884.03925
93	0x41a51311	20.63431
94	0x444664e7	793.5766
95	0x41a0731a	20.056202
96	0x41834d95	16.412882
97	0x417e4038	15.890678
98	0x43db3c6e	438.4721
99	0x42035578	32.833466
100	0x426c1ab9	59.026096
101	0x41ab2211	21.391634
102	0x419bf65e	19.495296
103	0x438f2f55	286.36978
104	0x4445a1bf	790.5273
105	0x43ca8ba3	405.0909
106	0x43888562	273.04205
107	0x415ab2e7	13.668677
108	0x43ba250f	372.28952
109	0x41a3ab55	20.458658
110	0x43bfe234	383.7672
111	0x4452836d	842.0535
112	0x43c312e1	390.1475
113	0x418840cf	17.031645
114	0x41869866	16.824413
115	0x41871caf	16.889006
116	0x418ce456	17.611492
117	0x427abb0b	62.68266
118	0x417941f1	15.578599
119	0x43bd607d	378.7538
120	0x419f46be	19.909542
121	0x43d4ccdc	425.60046
122	0x4199df8e	19.234158
123	0x418b3972	17.40305
124	0x41a1390d	20.152857
125	0x41d0b6cc	26.089256
126	0x444af3c8	811.8091
127	0x43b60bfa	364.09357
128	0x43eb4afd	470.58585
129	0x41ada471	21.705294
130	0x44430e59	780.2242
131	0x4363bf29	227.74672
132	0x43790382	249.0137
133	0x4193742d	18.431726
134	0x4446a8d3	794.6379
135	0x4180a2a4	16.079414
136	0x419e5a33	19.794043
137	0x42c196b0	96.79431
138	0x41a52e21	20.647524
139	0x4374cd16	244.80112
140	0x42da345d	109.10227
141	0x44468691	794.1026
142	0x43c183b7	387.02902
143	0x4445d875	791.38214
144	0x4447c606	799.0941
145	0x418640de	16.781673
146	0x42f6493f	123.14306
147	0x418a0fdf	17.25775
148	0x4199ef86	19.241955
149	0x4188dfd4	17.109291
150	0x419bd559	19.479174
151	0x41840d4e	16.506496
152	0x4448ffa5	803.99445
153	0x43e6fc22	461.9698
154	0x41805f84	16.046638
155	0x41914740	18.15979
156	0x445665e8	857.5923
157	0x41a03102	20.02393
158	0x444077d4	769.8723
159	0x419bb21a	19.461964
160	0x417ed688	15.927376
161	0x4176b99c	15.420315
162	0x43d4d3af	425.65378
163	0x41ff1621	31.885805
164	0x42654a90	57.322815
165	0x41a60f4c	20.75747
166	0x4197582b	18.91805
167	0x438b084a	278.06476
168	0x443fbab1	766.91705
169	0x43c4a18b	393.26205
170	0x43848fcd	265.12344
171	0x41543eeb	13.265361
172	0x43b4b76d	361.433
173	0x419ed3aa	19.853352
174	0x43ba4a73	372.58163
175	0x444c3801	816.87506
176	0x43bd6318	378.77417
177	0x4184370e	16.526882
178	0x41829cea	16.326618
179	0x41831e19	16.389696
180	0x4188b7e5	17.089792
181	0x42738218	60.877045
182	0x4171e2da	15.117884
183	0x43b7dba0	367.71582
184	0x419a8e81	19.319582
185	0x43ce958f	413.16843
186	0x419551a2	18.66486
187	0x41871ae3	16.888128
188	0x419c7341	19.556276
189	0x41ca86d4	25.315834
190	0x4444e361	787.5528
191	0x43b0bf6c	353.49548
192	0x416839a3	14.514071
193	0x4159c98c	13.611706
194	0x41778009	15.468759
195	0x413d57c8	11.833931
196	0x413bed95	11.745503
197	0x413737b7	11.451102
198	0x4176425e	15.391203
199	0x4120022f	10.000533
200	0x4155328e	13.324842
201	0x4156beca	13.421579
202	0x414b6353	12.711749
203	0x413e2aa7	11.885413
204	0x4181ed90	16.240997
205	0x417607ea	15.376932
206	0x4151b721	13.107209
207	0x417a0ed6	15.628622
208	0x4188fda2	17.123844
209	0x4126b1f8	10.418449
210	0x4169f555	14.6223955
211	0x412aa4cf	10.665236
212	0x413e31e9	11.887185
213	0x41294bc2	10.580996
214	0x414999a0	12.600006
215	0x4125efac	10.371014
216	0x417aa922	15.666292
217	0x415fd2a4	13.988926
218	0x411f683b	9.962947
219	0x41345b10	11.272232
220	0x418996b7	17.198591
221	0x4144b63e	12.294493
222	0x41728b62	15.159029
223	0x41423060	12.13681
224	0x4132bd0a	11.171152
225	0x41256502	10.33716
226	0x4151eccf	13.120315
227	0x418a867d	17.315668
228	0x418d6ed7	17.679121
229	0x415570aa	13.340006
230	0x41445f63	12.273288
231	0x41319e16	11.101095
232	0x41720ad0	15.12764
233	0x415623fb	13.383784
234	0x41436e3f	12.214416
235	0x41190c88	9.565559
236	0x4153b13e	13.230772
237	0x4142ef8b	12.183482
238	0x4143529b	12.207667
239	0x417c8fc8	15.785103
240	0x413e8d74	11.909534
241	0x4123b670	10.23204
242	0x41278d01	10.471925
243	0x41241d05	10.257085
244	0x412fe554	10.993488
245	0x4163d6d2	14.239946
246	0x4116e294	9.430317
247	0x41461a1a	12.381372
248	0x413fc735	11.986135
249	0x414cfa8e	12.811171
250	0x413fa3b2	11.977465
251	0x41300b67	11.002784
252	0x4157845f	13.469817
253	0x41779cc2	15.475771
254	0x417564a2	15.337069
255	0x412f195d	10.943692

exp_avg f4 [64]
0	0xbdf70066	-0.12060623
1	0xbe8b5912	-0.27216393
2	0xbe89767e	-0.26848215
3	0xbdf4a9f0	-0.119464755
4	0xb43a4d44	-1.7350709e-07
5	0x00000004	6e-45
6	0xbe8920b7	-0.26782772
7	0x00000004	6e-45
8	0xb9dbae02	-0.0004190058
9	0xbdf43a32	-0.119251624
10	0xbdf4fe11	-0.11962522
11	0xbe8a002f	-0.26953265
12	0xbdf8d24d	-0.12149487
13	0xbdf7ea27	-0.12105208
14	0xbe8953eb	-0.26821837
15	0xbdf86e14	-0.12130371
16	0xbdf5edb4	-0.12008229
17	0xbe8bd8da	-0.27313882
18	0xbdfab80d	-0.12242136
19	0xbe8a219b	-0.26978764
20	0xbdf9c337	-0.121954374
21	0xb63e47a5	-2.835391e-06
22	0xbdf91a10	-0.12163174
23	0xbe89f3f3	-0.2694393
24	0xbdf3c7ee	-0.11903368
25	0xbe8a6b9a	-0.27035218
26	0xbdf2b96e	-0.11851774
27	0xbe8b248b	-0.27176318
28	0xbdf9fd8e	-0.12206565
29	0xbdfb5def	-0.12273776
30	0xbdf5509f	-0.11978268
31	0xbdf87a8d	-0.1213275
32	0xbdf50d57	-0.11965435
33	0x00000004	6e-45
34	0xbdf4a0ef	-0.11944758
35	0x39aea80d	0.00033313074
36	0xbdf7ac85	-0.12093452
37	0xbdf74bbd	-0.12074993
38	0xb9a1ab4d	-0.00030835942
39	0x00000004	6e-45
40	0xbe8b653e	-0.2722568
41	0xbdf9e9fc	-0.12202832
42	0x00000004	6e-45
43	0xbdfd0a28	-0.12355453
44	0xbdf3c3d7	-0.11902588
45	0x00000004	6e-45
46	0xbe8b31d6	-0.2718646
47	0xbe89d2bb	-0.26918587
48	0x00000000	0.0
49	0xbe012014	-0.12609893
50	0xbdf46e9d	-0.1193516
51	0xbdf9d099	-0.1219799
52	0xbe8b71ab	-0.2723516
53	0xbdf4ee79	-0.119595475
54	0x3a30a9a3	0.0006739145
55	0xbdf622cc	-0.12018356
56	0xbdfc04db	-0.123056136
57	0xbe89de37	-0.2692735
58	0xbdf450cc	-0.11929473
59	0xbdfa0fa6	-0.12210016
60	0x00000004	6e-45
61	0xbe8b1f2c	-0.2717222
62	0xb9c35fbf	-0.00037264635
63	0xbdf581ac	-0.119876236

exp_avg_sq f4 [64]
0	0x3bc239fe	0.0059273234
1	0x3dcb5911	0.099290974
2	0x3dc50dcc	0.09621772
3	0x3bbddbbc	0.0057940166
4	0x2fb3dc5d	3.2716488e-10
5	0x2fdc17ba	4.0034626e-10
6	0x3dc3954e	0.09549962
7	0x2d03d82f	7.49449e-12
8	0x36b8eebc	5.5114197e-06
9	0x3bbdfa86	0.005797687
10	0x3bbe52c2	0.0058082053
11	0x3dc6f64b	0.097149454
12	0x3bc4e96d	0.006009272
13	0x3bc39180	0.0059682727
14	0x3dc43581	0.095805176
15	0x3bc490fd	0.0059987293
16	0x3bc0215a	0.005863351
17	0x3dcce984	0.10005477
18	0x3bc8e5cb	0.006130909
19	0x3dc76a02	0.09737016
20	0x3bc717ed	0.00607585
21	0x309bd3a4	1.1337886e-09
22	0x3bc5f0ba	0.0060406597
23	0x3dc6d23d	0.097080685
24	0x3bbd1e2b	0.0057714186
25	0x3dc859ba	0.09782739
26	0x3bb53663	0.005530165
27	0x3dcaa74b	0.0989519
28	0x3bc7c179	0.006096062
29	0x3bc9f4a9	0.006163199
30	0x3bbf0b46	0.0058302013
31	0x3bc4b504	0.006003024
32	0x3bbf0242	0.0058291266
33	0x29e82a0f	1.0310166e-13
34	0x3bbdd189	0.005792801
35	0x374370a9	1.16491365e-05
36	0x3bc360df	0.0059624757
37	0x3bc28cea	0.0059372084
38	0x35fbb0f6	1.875246e-06
39	0x2e74511f	5.5551227e-11
40	0x3dcb984a	0.09941156
41	0x3bc7b901	0.006095052
42	0x2ed0ea4d	9.500365e-11
43	0x3bc95c7c	0.006145058
44	0x3bbd0df7	0.005769487
45	0x27367d9a	2.5325663e-15
46	0x3dcb1d02	0.09917642
47	0x3dc660c8	0.09686428
48	0x00000000	0.0
49	0x3bce0538	0.006287243
50	0x3bbe194c	0.0058013555
51	0x3bc792f1	0.006090515
52	0x3dcba1ed	0.09942994
53	0x3bbe32ad	0.005804381
54	0x375d61ec	1.3195426e-05
55	0x3bc08858	0.0058756284
56	0x3bcabbf4	0.0061869565
57	0x3dc646a1	0.0968144
58	0x3bb61745	0.005556973
59	0x3bc7fbf3	0.0061030327
60	0x2fa832d7	3.0595146e-10
61	0x3dca35b6	0.09873526
62	0x3636d1ca	2.7242227e-06
63	0x3bbf588b	0.0058394126
