maddpg.pt (torch, 361903 bytes, 84 tensors)

weight f4 [64, 10]
-0.73029506 0.38002756 0.37352848 -0.37153542 -0.33810267 -0.019551754 -0.04483266 -0.07168211
0.49481586 0.24000686 0.21461563 0.39734897 0.4366373 -0.16679677 0.22763564 0.6275312
-0.5294077 0.38710263 0.040574934 0.4918459 0.18561289 0.71157616 0.39310077 -0.21689673
0.50704324 0.35468063 -0.7320094 0.7407188 0.30312917 0.52301866 -0.0869711 0.99389297
0.32906583 0.20330079 1.634583 0.2278786 -0.8294843 -0.2167048 0.06591027 0.063582666
0.08590187 -1.036221 0.35353902 0.46590132 1.2184601 0.065103024 -0.2046557 -0.66999114
0.3619818 0.17308265 -0.4957183 -0.03844277 0.6040696 -0.77124465 0.09263236 0.5780356
-0.37745646 0.37720418 0.88017267 0.60138404 -0.1118507 -0.10586574 -0.12663646 -0.5730451
0.6916865 -0.27750647 -0.33462653 -0.87060547 -0.18256138 -0.2804147 -0.8525795 -0.43132418
0.7793481 0.17356831 -0.21016687 0.5447547 -0.5561506 0.061646357 0.46253172 0.65727943
-0.13700978 -0.05869861 -0.6293595 -0.3611971 -0.6211854 -0.52029467 1.2631624 1.0500438
-0.24547814 -0.3530917 0.23563376 -0.16432695 0.35913232 0.26928353 -0.6984821 0.58457553
0.9565863 0.67216086 0.32839167 0.619804 -0.7034513 0.39505818 0.84413046 0.16526756
-0.008288948 0.5081001 0.10246664 -0.29719785 0.3303783 0.9179538 0.6127335 -0.6349595
-0.40536052 0.24647696 0.8008623 -0.4402321 -0.65321606 0.8549611 -0.6468601 -0.91786104
-1.0236809 1.0246423 -0.31472915 0.025017368 -0.3616166 -0.050685756 0.14349787 0.6311906
0.07120612 -0.10769822 -0.11244786 -0.40186003 -0.52904487 -0.23979907 -0.7344865 -0.26920038
-1.0104911 -0.2617062 -0.102588266 -0.105343565 -0.061144795 0.5285019 -0.15974914 1.4561598
-0.3632088 -0.027372712 -0.81002307 0.6809729 0.15561002 -0.19604816 0.41622347 0.04415214
1.3546748 0.11800995 0.38074976 1.3559108 0.519944 0.5667881 1.3465751 1.1488993
-1.1945577 0.16360031 0.58506656 0.22080079 -0.78793573 0.6579299 -0.57102156 1.04179
0.7763252 0.5355407 0.52700156 0.7984269 -0.033433765 0.450094 -1.0883559 -0.3698486
-0.29052436 -0.5631521 -0.50051904 -0.038242336 -0.22651143 0.18642555 -0.06064997 0.87395126
-0.43821153 -0.21776485 0.3332373 -0.0007650316 -0.20024326 0.082630895 0.14327861 -1.4492722
0.15775055 -0.1743943 -0.12628272 0.19424805 -1.0060164 1.0971454 0.506895 -0.030712176
-0.7644835 0.48960957 0.859391 -0.43863547 0.7776088 0.41474462 -0.29756683 -0.9423112
0.7591587 0.52499795 -1.2992597 0.07989949 0.22025944 -0.07542447 0.09050218 0.61261606
0.22594377 0.47331962 0.32542542 0.30719727 -0.3300238 0.5919199 0.4643165 -0.8337081
0.05611782 0.41629136 0.41256437 0.19898774 0.44109493 0.48717892 0.6322587 0.12500021
-0.43074247 0.476458 1.3998841 -0.34627268 -0.6824314 -0.76222456 -0.0537341 -0.5788916
-0.05383965 0.68573546 1.0021412 0.5400321 -0.28114113 0.95071816 -0.2867126 0.20623621
0.9782744 0.5294684 0.61554724 -0.6449774 0.14462073 0.4386997 -0.07652321 0.58578783
00000000: 9ef4 3abf f992 c23e 203f bf3e e439 bebe
00000010: cb1b adbe 002b a0bc 74a2 37bd 12ce 92bd
00000020: 8158 fd3e 5cc4 753e 33c4 5b3e 5371 cb3e
00000030: ed8e df3e c6cc 2abe 5119 693e e2a5 203f
00000040: 4387 07bf 5132 c63e e731 263d 3ad3 fb3e
00000050: 4e11 3e3e db29 363f 8144 c93e 2d1a 5ebe
00000060: 96cd 013f b398 b53e f864 3bbf bf9f 3d3f
00000070: bf33 9b3e 8de4 053f e71d b2bd c56f 7e3f
00000080: 517b a83e 152e 503e 043a d13f 0259 693e
00000090: 1559 54bf dde7 5dbe f7fb 863d a137 823d
000000a0: 52ed af3d e4a2 84bf 1103 b53e 9e8a ee3e
000000b0: 80f6 9b3f bc54 853d 4491 51be 8a84 2bbf
000000c0: ae55 b93e 943c 313e cace fdbe 2a76 1dbd
000000d0: 4ea4 1a3f 4a70 45bf 09b6 bd3d 24fa 133f
000000e0: f941 c1be e820 c13e ff52 613f 4ef4 193f
000000f0: fb11 e5bd 23d0 d8bd fdac 01be 15b3 12bf
00000100: 5e12 313f 5415 8ebe 2b54 abbe 00e0 5ebf
00000110: 5ff1 3abe 8492 8fbe a642 5abf 86d6 dcbe
00000120: 5b83 473f e4bb 313e fc35 57be 0b75 0b3f
00000130: e35f 0ebf e480 7c3d f5d0 ec3e 7743 283f
00000140: 4b4c 0cbe f46d 70bd b41d 21bf d4ee b8be
00000150: 0206 1fbf 0832 05bf 4eaf a13f d667 863f
00000160: 9f5e 7bbe 6fc8 b4be fa49 713e 5345 28be
00000170: 31e0 b73e 88df 893e b9cf 32bf bea6 153f
00000180: d7e2 743f bc12 2c3f f422 a83e 7aab 1e3f
00000190: 6215 34bf 1145 ca3e ef18 583f e63b 293e
000001a0: 5ece 07bc d912 023f 08da d13d 512a 98be
000001b0: 5827 a93e 05ff 6a3f 1adc 1c3f b58c 22bf
000001c0: 6a8b cfbe 7564 7c3e 5005 4d3f 1a66 e1be
000001d0: 2b39 27bf bbde 5a3f a098 25bf f1f8 6abf
000001e0: fa07 83bf 7b27 833f 2e24 a1be 39f1 cc3c
000001f0: d025 b9be de9b 4fbd 1bf1 123e b595 213f
00000200: 84d4 913d e290 dcbd 104b e6bd 99c0 cdbe
00000210: 7c6f 07bf e38d 75be 4f07 3cbf a2d4 89be
00000220: c657 81bf 5bfe 85be cc19 d2bd 5ebe d7bd
00000230: f772 7abd e74b 073f 4795 23be 7263 ba3f
00000240: 81f6 b9be bd3c e0bc ac5d 4fbf 3d54 2e3f
00000250: 3c58 1f3e d9c0 48be 3e1b d53e e0d8 343d
00000260: fc65 ad3f 33af f13d a2f1 c23e 7c8e ad3f
00000270: 0d1b 053f 0619 113f 935c ac3f 220f 933f
00000280: 44e7 98bf d786 273e ecc6 153f 9a19 623e
00000290: 28b6 49bf 186e 283f 782e 12bf 6059 853f
000002a0: 40bd 463f 3219 093f 93e9 063f b565 4c3f
000002b0: d8f1 08bd b972 e63e 3f4f 8bbf cc5c bdbe
000002c0: 9cbf 94be bc2a 10bf 0422 00bf ffa3 1cbd
000002d0: 9df2 67be 57e6 3e3e 1a6c 78bd 45bb 5f3f
000002e0: 435d e0be c0fd 5ebe 149e aa3e 678c 48ba
000002f0: 920c 4dbe 633a a93d a1b7 123e c081 b9bf
00000300: 5c89 213e 6b94 32be 4250 01be f6e8 463e
00000310: 25c5 80bf 436f 8c3f dfc3 013f 1a98 fbbc
00000320: 31b5 43bf 1bae fa3e 0c01 5c3f d494 e0be
00000330: 5f11 473f 6859 d43e ae5a 98be 4f3b 71bf
00000340: 3958 423f 4466 063f 244e a6bf 58a2 a33d
00000350: b18b 613e 2578 9abd 3559 b93d 68d4 1c3f
00000360: ce5d 673e f356 f23e 299e a63e f648 9d3e
00000370: e1f8 a8be 1088 173f e4ba ed3e e56d 55bf
00000380: cddb 653d 2424 d53e a33b d33e 71c3 4b3e
00000390: 32d7 e13e 846f f93e b5db 213f 0e00 003e
000003a0: 478a dcbe 4ef2 f33e 672f b33f a74a b1be
000003b0: d3b3 2ebf 2621 43bf 4a18 5cbd 3d32 14bf
000003c0: f786 5cbd 5c8c 2f3f 2a46 803f 8b3f 0a3f
000003d0: bbf1 8fbe 4462 733f fecb 92be 962f 533e
000003e0: 3170 7a3f 3e8b 073f 8194 1d3f 3d1d 25bf
000003f0: 7517 143e 3f9d e03e 33b8 9cbd 31f6 153f

bias f4 [64]
0.116469935 0.39240834 0.6516514 -0.18186635 0.21710458 0.6074775 -0.41126412 0.71060985
-0.17475043 0.6386279 0.40756202 -0.6171798 -0.13363963 -0.5298477 0.03618721 0.7332844
0.22319895 -0.29217708 -0.015181585 0.33942816 0.6781576 0.5133449 0.744117 -0.18238966
0.8908269 0.65881824 1.3632659 -0.7452045 0.7193129 0.6375158 0.6886657 0.5192381
0.4868489 0.9017999 0.2409787 -0.13914646 0.33538476 -0.32976475 0.07687771 -0.33137548
0.653799 1.0965723 0.4517588 0.21033208 1.1251975 -1.2712506 -0.95514774 -0.5333494
-0.4999381 -0.34673944 0.45211393 -0.18779169 0.4941443 -0.16745879 0.034443136 -0.75419843
-0.008678312 -0.5372028 0.3528176 0.21887545 -0.29473507 0.11091071 0.43870598 -0.5547823
00000000: ca87 ee3d bfe9 c83e a0d2 263f 2c3b 3abe
00000010: aa50 5e3e a583 1b3f 3691 d2be 87ea 353f
00000020: c7f1 32be 1e7d 233f f8ab d03e 7fff 1dbf
00000030: d4d8 08be 19a4 07bf 0a39 143d 87b8 3b3f
00000040: 448e 643e 3c98 95be 2fbc 78bc 87c9 ad3e
00000050: bd9b 2d3f 926a 033f 747e 3e3f 5bc4 3abe
00000060: 3b0d 643f 50a8 283f 7f7f ae3f b9c5 3ebf
00000070: e424 383f 3c34 233f 654c 303f caec 043f
00000080: 4244 f93e 5cdc 663f 1fc3 763e 697c 0ebe
00000090: 8db7 ab3e edd6 a8be 1072 9d3d 0caa a9be
000000a0: 5f5f 273f 7b5c 8c3f ee4c e73e 4b61 573e
000000b0: 7906 903f 57b8 a2bf 9084 74bf 9689 08bf
000000c0: e3f7 ffbe d587 b1be 7a7b e73e 774c 40be
000000d0: 7b00 fd3e 517a 2bbe 3f14 0d3d 2613 41bf
000000e0: 7b2f 0ebc 1f86 09bf 82a4 b43e e320 603e
000000f0: 84e7 96be 2825 e33d 129e e03e 3606 0ebf

weight f4 [64, 64]
-0.36668766 0.58924115 -0.22411631 -0.19595338 1.4709204 -0.47903752 1.1626987 -0.36029416
0.7830496 -0.2679121 -1.0261028 -0.2898367 -1.658252 0.89739245 0.6170112 0.484965
0.28346863 -0.62339884 -0.80095136 0.41846728 -0.29169708 0.27850103 -0.6585393 0.6549496
-0.36774898 -0.017968342 -1.2076837 -0.63001066 -0.66675824 0.89646876 -0.6461116 -0.8159781
0.25182065 0.3189122 -0.13244061 -2.622087 0.28710434 -0.3523918 0.029052943 -0.8371147
0.14445078 -0.13917409 -0.18937066 1.4489266 -0.6863719 1.8160063 -0.21454498 0.03186521
-0.6115971 -2.1586905 -0.46806625 0.91709363 -0.66328835 -2.0342336 -0.25756466 1.2731569
-0.019596646 0.6270331 0.5925683 1.3236066 -0.36547762 -0.0042070416 0.16084786 -0.14124036
0.25306043 0.1487468 0.13567096 0.0956487 -3.388411 -0.32693097 -2.0905435 0.3320605
0.46172407 0.16194563 0.71233374 -0.8839482 0.08250894 0.71839494 0.25733495 -0.94628286
-0.24009041 -1.9626958 -3.0763571 0.09640862 -0.0692395 -0.6914294 0.42783195 1.9727083
0.099763036 -0.94864684 0.13022156 2.1528616 0.028657824 -0.029998882 0.4648235 0.5367372
0.53212255 -0.7402791 -0.9246575 -1.3949157 -0.5853245 -3.0921354 -0.3111191 -0.45605487
0.007360179 -0.26833954 0.6590416 -0.5329764 0.08185344 -0.86356896 1.5141602 -2.962805
0.33138064 1.8150922 0.49436632 -0.5080554 0.5891893 0.7293398 -0.4902908 0.608416
0.8099382 -0.3329135 -0.3821139 0.031719916 0.47799042 -2.17523 -0.11513027 -2.8731906
-0.48957142 0.7427099 -0.010247409 0.31954852 1.4895478 -0.3299772 0.97001606 0.052291747
0.44975653 0.12073362 0.53993547 0.4577775 -0.3093578 0.7167048 0.20483452 1.1080078
-0.4783983 -0.124719754 0.7386609 -0.45908794 -0.21059234 0.7666119 -0.32023874 0.8775744
-0.3640544 0.77336246 -0.9228136 0.4180964 -0.21019104 1.1978298 -0.20004694 -0.44156095
0.47614336 1.0405248 0.38988984 0.4274889 0.91868526 -0.1638064 0.1638687 0.10449561
0.028272508 0.57095623 0.26047778 1.4163059 -0.07051862 0.69919866 0.42818826 0.25507528
0.10465077 0.46469808 0.08152368 0.33060753 -0.58358425 0.27150863 0.04891969 -0.5216524
-0.43660256 -0.32499436 1.0687071 1.0203613 0.15323915 0.23826885 0.3099374 0.09412324
-0.9210983 0.5957719 -3.978738 -2.5362866 0.25340492 0.15474111 0.4605786 -0.26794833
-0.38929024 0.5847553 -0.2351952 -0.7922897 -0.5111058 -0.7455605 -0.6155613 -1.27926
0.91140544 0.1983645 -0.120925836 -0.27099493 0.10191167 -0.969509 -1.4309422 -2.1875622
0.64183444 0.862772 -0.86825365 0.5905802 1.2939035 0.6154055 -0.57974446 0.5268401
1.3271866 -0.14082599 0.7029256 0.14938985 1.377087 -0.102827206 -1.5964748 0.19626917
-0.9101207 0.7442732 0.057637997 0.8018467 -0.066046 0.31136748 0.1848577 -0.3826667
-0.90279484 1.4735876 -1.4653496 0.41358998 -0.14577901 0.3217284 0.38680097 -2.137799
0.97694576 -0.27641124 -0.5948171 0.5499302 -0.47894844 -1.1526307 -0.85785794 0.55535096
00000000: 7cbe bbbe 82d8 163f bf7e 65be 01a8 48be
00000010: 1f47 bc3f 6844 f5be 50d3 943f 7a78 b8be
00000020: f075 483f c62b 89be 5657 83bf 7a65 94be
00000030: 9a41 d4bf 83bb 653f 72f4 1d3f 554d f83e
00000040: cd22 913e 1197 1fbf 260b 4dbf 5841 d63e
00000050: 5259 95be b097 8e3e 0896 28bf c7aa 273f
00000060: 9849 bcbe 5832 93bc 6195 9abf 6148 21bf
00000070: abb0 2abf fa7e 653f 9267 25bf f1e3 50bf
00000080: a3ee 803e 7648 a33e 839e 07be 46d0 27c0
00000090: 57ff 923e b36c b4be 7000 ee3c 264d 56bf
000000a0: e8ea 133e a783 0ebe 62ea 41be 6d76 b93f
000000b0: 12b6 2fbf e572 e83f aeb1 5bbe 1885 023d
000000c0: a191 1cbf fc27 0ac0 61a6 efbe a6c6 6a3f
000000d0: 44cd 29bf e230 02c0 84df 83be cef6 a23f
000000e0: 2589 a0bc 3e85 203f 8eb2 173f f16b a93f
000000f0: e21f bbbe 39db 89bb 4db5 243e 50a1 10be
00000100: 2391 813e 1551 183e 54ed 0a3e 77e3 c33d
00000110: badb 58c0 7f63 a7be 77cb 05c0 d503 aa3e
00000120: 1967 ec3e 13d5 253e 815b 363f 6e4a 62bf
00000130: 72fa a83d bbe8 373f 68c1 833e 983f 72bf
00000140: 43da 75be 9e39 fbbf 09e3 44c0 e271 c53d
00000150: 70cd 8dbd 8401 31bf ca0c db3e b581 fc3f
00000160: 9050 cc3d 85da 72bf cd58 053e 7cc8 0940
00000170: d0c3 ea3c 37c0 f5bc 59fd ed3e 9c67 093f
00000180: 2f39 083f ee82 3dbf 5bb6 6cbf 998c b2bf
00000190: d4d7 15bf 8ce5 45c0 014b 9fbe 0680 e9be
000001a0: a82d f13b cd63 89be f3b6 283f 2471 08bf
000001b0: c7a2 a73d db12 5dbf 00d0 c13f 999e 3dc0
000001c0: b9aa a93e f154 e83f 951d fd3e eb0f 02bf
000001d0: 1cd5 163f 03b6 3a3f 6507 fbbe 27c1 1b3f
000001e0: 1c58 4f3f a373 aabe 6fa4 c3be beec 013d
000001f0: 29bb f43e f836 0bc0 6bc9 ebbd 5be2 37c0
00000200: 1ba9 fabe 3c22 3e3f c0e4 27bc dd9b a33e
00000210: 81a9 be3f c6f2 a8be f952 783f df2f 563d
00000220: 7d46 e63e 3043 f73d 3639 0a3f d061 ea3e
00000230: 2564 9ebe f779 373f 24c0 513e 33d3 8d3f
00000240: 9ff0 f4be 126d ffbd e118 3d3f 930d ebbe
00000250: 85a5 57be ad40 443f 55f6 a3be b7a8 603f
00000260: 5765 babe 15fb 453f 833d 6cbf bb10 d63e
00000270: 523c 57be 7d52 993f 1bd9 4cbe 4714 e2be
00000280: 10c9 f33e eb2f 853f a49f c73e d3df da3e
00000290: f52e 6b3f ddbc 27be 32cd 273e cb01 d63d
000002a0: bf9b e73c 302a 123f 585d 853e 8349 b53f
000002b0: 116c 90bd affe 323f 7e3b db3e 3a99 823e
000002c0: 2553 d63d e8ec ed3e e3f5 a63d 6445 a93e
000002d0: c765 15bf 2e03 8b3e 0360 483d 038b 05bf
000002e0: 5f8a dfbe a965 a6be 65cb 883f 339b 823f
000002f0: b9ea 1c3e c0fc 733e 1db0 9e3e afc3 c03d
00000300: 19cd 6bbf 8284 183f a5a3 7ec0 8552 22c0
00000310: 4abe 813e 7474 1e3e f5d0 eb3e 8630 89be
00000320: 0d51 c7be 86b2 153f 03d7 70be 7fd3 4abf
00000330: d4d7 02bf 0edd 3ebf 6d95 1dbf cbbe a3bf
00000340: de51 693f 1020 4b3e f7a7 f7bd d9bf 8abe
00000350: 11b7 d03d be31 78bf 1d29 b7bf 0501 0cc0
00000360: 434f 243f a0de 5c3f df45 5ebf 4430 173f
00000370: a19e a53f 378b 1d3f 226a 14bf fede 063f
00000380: 40e1 a93f b034 10be eff2 333f a7f9 183e
00000390: 6344 b03f 1297 d2bd 4959 ccbf c9fa 483e
000003a0: acfd 68bf b088 3e3f d215 6c3d d345 4d3f
000003b0: 2043 87bd 8f6b 9f3e 564b 3d3e e4ec c3be
000003c0: 901d 67bf 859e bc3f 9390 bbbf 11c2 d33e
000003d0: 1847 15be 96b9 a43e c70a c63e b3d1 08c0
000003e0: 1e19 7a3f c685 8dbe ef45 18bf 3ac8 0c3f
000003f0: bb38 f5be 6789 93bf 949c 5bbf 7b2b 0e3f

bias f4 [64]
-0.2270514 -0.27799836 0.43504077 0.28194013 0.37525347 0.23706554 -0.09977791 -0.1446916
0.09332548 0.2883594 0.2288483 0.04614297 0.0069112754 0.10441613 0.102681816 0.2334526
0.44997698 0.0436159 0.08267992 0.15012592 0.76280075 0.06439479 -0.012609899 -0.11750601
-0.25559622 -0.13552314 0.09340468 0.21779886 0.09444074 0.00082840776 0.068574645 0.20385231
0.054996986 -0.040053315 -0.09256616 0.16892548 0.11153711 0.28651577 -0.11641133 0.44774655
0.18896656 -0.080177866 0.064083315 -0.025011485 -0.17372033 0.23602746 -0.015368078 0.37956312
0.39322358 -0.03407823 0.7284409 0.2922542 0.10124678 0.31930652 0.8190682 -0.24086836
0.12530868 0.09178016 -0.04897047 -0.23749195 0.06924853 -0.016204573 0.12669866 -0.1746934
00000000: 2a80 68be cd55 8ebe aabd de3e 755a 903e
00000010: 3921 c03e 4fc1 723e 5c58 ccbd 092a 14be
00000020: 6e21 bf3d d8a3 933e 3557 6a3e 6900 3d3d
00000030: fb77 e23b 20d8 d53d d84a d23d 330e 6f3e
00000040: 6263 e63e 96a6 323d 1754 a93d 9cba 193e
00000050: e946 433f 6ae1 833d c099 4ebc fea6 f0bd
00000060: 82dd 82be 94c6 0abe f44a bf3d aa06 5f3e
00000070: 266a c13d 8129 593a dd70 8c3d a9be 503e
00000080: 8544 613d f20e 24bd 5493 bdbd cdfa 2c3e
00000090: 916d e43d 32b2 923e 1069 eebd 093f e53e
000000a0: 7380 413e 4b34 a4bd 1d3e 833d e3e4 ccbc
000000b0: bee3 31be 2fb1 713e 64ca 7bbc 1956 c23e
000000c0: 9a54 c93e 9d95 0bbd 1a7b 3a3f 58a2 953e
000000d0: 795a cf3d 257c a33e 74ae 513f 32a6 76be
000000e0: eb50 003e 3df7 bb3d 4295 48bd 1731 73be
000000f0: 2cd2 8d3d 74bf 84bc 4bbd 013e d4e2 32be

weight f4 [2, 64]
-0.5927499 0.23887318 -0.9214965 -0.7753406 -0.04132648 -0.6752779 0.0017383867 -8.025353
-2.185826 1.3450303 -0.9805715 -1.9143642 1.532333 0.70619786 6.4797797 -2.0279548
0.9544915 -0.90465456 0.5096185 0.530534 -0.020604987 -0.7171738 1.0085087 1.2295289
-0.017189613 -3.6375003 -0.7893702 -1.6798908 -0.3189324 0.94586766 0.25558987 -1.6892457
-1.442838 -0.9729823 -1.9202687 1.4841822 1.506751 0.62748224 2.3102946 -1.4874403
-1.2030506 -0.94952875 -4.898733 -5.266466 -2.4289787 -0.5877222 -1.3641883 0.35092244
0.60077757 0.37597725 1.0274335 -1.5186331 -0.14757927 -0.24738753 -1.909181 1.2127607
0.38046065 -1.2653704 -1.8630737 -0.7741946 -0.5431576 0.00653413 0.42358312 -1.2827708
0.03371018 -1.980519 0.29526538 -2.594939 0.9154991 -0.2604447 0.0051623797 -0.3684426
0.41673863 -1.1513952 -0.5924136 -4.0594287 -1.4149411 -3.022283 -0.08818122 -0.17264083
0.6004698 0.9429164 -2.0100563 -0.060104415 9.342311 -0.5244832 -0.09791932 -2.5592017
-0.9840837 -2.9057388 -0.7001105 0.33918202 -1.0121307 0.50920945 -0.45390978 0.82781863
-0.44163436 -0.59100455 0.33699128 -0.7836746 -0.50351465 -0.045630526 0.11748151 -0.3186978
-0.3186161 -0.16106482 2.0402951 -2.5042505 1.0776904 -5.2666106 -0.28224143 -2.4722786
-0.08663116 -1.1773921 0.9662782 0.7794231 -2.021241 -1.3467257 -1.2798103 -0.16291824
0.29593098 -0.20580834 -1.2883618 1.6331695 -1.8646237 0.0015932523 0.09395322 -0.16154338
00000000: 75be 17bf 2c9b 743e 32e7 6bbf b97c 46bf
00000010: f545 29bd 03df 2cbf 94da e33a d967 00c1
00000020: 93e4 0bc0 f429 ac3f bc06 7bbf e309 f5bf
00000030: 7d23 c43f 62c9 343f 5b5a cf40 03ca 01c0
00000040: 8e59 743f 7197 67bf 5c76 023f 14d1 073f
00000050: cacb a8bc b498 37bf d016 813f 3461 9d3f
00000060: 3bd1 8cbc cecc 68c0 2a14 4abf a906 d7bf
00000070: 1c4b a3be 6224 723f addc 823e 3439 d8bf
00000080: eaae b8bf 5e15 79bf 5dcb f5bf aff9 bd3f
00000090: 37dd c03f ada2 203f dedb 1340 7264 bebf
000000a0: 90fd 99bf 5114 73bf 6cc2 9cc0 e486 a8c0
000000b0: 6374 1bc0 f674 16bf b99d aebf 1bac b33e
000000c0: 8fcc 193f 1780 c03e f182 833f 9262 c2bf
000000d0: 051f 17be 2853 7dbe 0b60 f4bf be3b 9b3f
000000e0: bdcb c23e a8f7 a1bf 3379 eebf 9e31 46bf
000000f0: 600c 0bbf 411c d63b e3df d83e d531 a4bf
00000100: b013 0a3d a681 fdbf 062d 973e 7b13 26c0
00000110: 265e 6a3f 0259 85be 2e29 a93b 82a4 bcbe
00000120: c45e d53e eb60 93bf 6ba8 17bf d7e6 81c0
00000130: ca1c b5bf 166d 41c0 5b98 b4bd c2c8 30be
00000140: 64b8 193f f862 713f c3a4 00c0 0c30 76bd
00000150: 1b7a 1541 8844 06bf ed89 c8bd f6c9 23c0
00000160: e9ec 7bbf a0f7 39c0 713a 33bf 44a9 ad3e
00000170: 808d 81bf 8d5b 023f dd66 e8be eceb 533f
00000180: e61d e2be 134c 17bf 1f8a ac3e e69e 48bf
00000190: 56e6 00bf 13e7 3abd 259a f03d 5c2c a3be
000001a0: a621 a3be 2dee 24be 3294 0240 a445 20c0
000001b0: c2f1 893f 1388 a8c0 f381 90be d039 1ec0
000001c0: ad6b b1bd c9b4 96bf 025e 773f 4688 473f
000001d0: 035c 01c0 8261 acbf d3d0 a3bf 0ad4 26be
000001e0: 4484 973e 6cbf 52be 0ae9 a4bf b30b d13f
000001f0: fdab eebf add4 d03a 8c6a c03d a16b 25be

bias f4 [2]
0.20708865 0.062331486
00000000: 0c0f 543e 4d4f 7f3d

exp_avg f4 [64, 10]
-0.0033802155 -0.0023555676 -5.2226726e-05 -0.0018802992 -0.003180793 -5.2226726e-05 0.0035706598 -0.0037769924
-4.1781514e-05 -5.2226726e-05 0.00019388729 0.0010022604 7.042132e-05 -0.00067859935 0.0004340493 7.042132e-05
0.0069632703 0.004738258 5.6336943e-05 7.042132e-05 -0.00041490412 0.00071339164 0.0006864212 0.0018788176
-0.0026976787 0.0006864212 -0.0038676276 -0.0017819403 0.00054913666 0.0006864212 -0.0018585842 -0.0016430607
0.00045648645 -8.773043e-05 -0.002709467 0.00045648645 -0.0011802585 -0.0023010138 0.00036518925 0.00045648645
-0.0016705501 0.003683922 0.0011631359 0.0035944858 0.0011408791 0.0011631359 -0.00055402913 -0.0025891725
0.00093050784 0.0011631359 -0.0052066315 -0.0031219362 0.0017903192 -0.0048829108 0.002247933 0.0017903192
0.0047212066 0.0038644602 0.0014322557 0.0017903192 -0.001935239 0.0026266647 -0.0002972083 -0.00016075051
-0.0008272116 -0.0002972083 -0.0012176486 0.0018220899 -0.00023776677 -0.0002972083 0.0011837044 0.0019678974
-0.0005280478 -0.00064250064 -0.00033430016 -0.0005280478 0.00065677025 -0.00089521776 -0.00042243846 -0.0005280478
-0.010315854 -0.00092668156 0.0035294082 -0.003804656 -0.0026401358 0.0035294082 0.011375506 0.007332799
0.002823527 0.0035294082 0.004209528 -0.0061625084 -0.0028590367 -0.0043455833 -0.0040366747 -0.0028590367
-0.010342301 -0.011224227 -0.0022872288 -0.0028590367 0.009822054 0.0008542288 -0.0018813431 -0.0045500933
0.0009966773 -0.0018813431 -0.0056975293 -0.008330317 -0.0015050743 -0.0018813431 0.000351616 0.0027817555
0.0006366666 -0.0009434162 0.0019482346 0.0006366666 -0.0010094533 0.0023869518 0.0005093333 0.0006366666
0.0001581295 0.00084078894 0.00061990815 0.002846922 -0.0023353437 0.00061990815 0.006222151 -0.00267763
0.00049592654 0.00061990815 0.0015509754 -0.0011297329 0.00013887646 0.001322973 -0.0016331503 0.00013887646
-0.0020522715 -0.0014907718 0.000111100955 0.00013887646 0.0017007949 0.0018092665 5.196628e-05 0.00021047881
0.0018121734 5.196628e-05 0.00055669475 -9.862811e-05 4.157314e-05 5.196628e-05 -0.012207447 -0.0031236606
0.0036763123 -0.002140057 0.0057616304 0.0036763123 0.0006076616 0.0076891202 0.0029410492 0.0036763123
-0.004225312 0.0012818839 0.0011007137 -0.0017542072 -0.002060853 0.0011007137 0.0007074411 0.0009512102
0.00088057126 0.0011007137 0.0024139779 -0.0016137938 -0.0010707055 0.00027907622 0.0035320425 -0.0010707055
0.0022693172 0.0030026068 -0.00085656444 -0.0010707055 -0.00027449656 -0.002265949 0.0012693206 0.0031799683
-0.00042664522 0.0012693206 0.002044638 -0.0011063035 0.0010154566 0.0012693206 -0.0043620947 -0.0030047565
7.717024e-05 -0.0008929326 -0.0035169043 7.717024e-05 -0.000692278 -0.0044713845 6.173619e-05 7.717024e-05
-0.0010918253 -0.003163385 -6.7190285e-07 -0.001595691 0.00056543 -6.7190285e-07 9.63019e-05 0.0023621195
-5.3749665e-07 -6.7190285e-07 -0.0011131607 -0.0045878026 0.0017307346 -0.0010920048 0.0036839275 0.0017307346
1.7316723e-05 0.0053940094 0.0013845883 0.0017307346 0.009531456 0.00096300535 -0.003447491 -0.0049879695
-0.0029982815 -0.003447491 -0.001220248 -0.021181067 -0.0027579921 -0.003447491 0.000554725 -0.0005013345
0.0004197222 -0.0021022542 0.002731932 0.0004197222 0.0009595442 -0.001683297 0.00033577773 0.0004197222
-0.0033906696 0.003906366 0.002012548 -0.0022319918 -0.004204806 0.002012548 0.0053771264 0.0051058303
0.0016100382 0.002012548 0.0008475111 -0.0005749245 -0.00016796796 0.0017226035 0.00036833188 -0.00016796796
00000000: 9b86 5dbb de5f 1abb 050e 5bb8 5f74 f6ba
00000010: da74 50bb 050e 5bb8 bb01 6a3b 6b87 77bb
00000020: 8f3e 2fb8 050e 5bb8 394e 4b39 475e 833a
00000030: 29af 9338 08e4 31ba 1c91 e339 29af 9338
00000040: 252c e43b 6443 9b3b 554b 6c38 29af 9338
00000050: 7d87 d9b9 e702 3b3a f2f0 333a a842 f63a
00000060: 8acb 30bb f2f0 333a 0678 7dbb ff8f e9ba
00000070: f0f3 0f3a f2f0 333a bd9b f3ba f85b d7ba
00000080: 9354 ef39 eafb b7b8 5091 31bb 9354 ef39
00000090: e7b2 9aba 9bcc 16bb df76 bf39 9354 ef39
000000a0: 5cf6 daba f56d 713b 5d74 983a 7791 6b3b
000000b0: 8d89 953a 5d74 983a 443c 11ba 1baf 29bb
000000c0: 53ed 733a 5d74 983a 649c aabb 6699 4cbb
000000d0: 25a9 ea3a d300 a0bb 0f52 133b 25a9 ea3a
000000e0: 5ab4 9a3b e242 7d3b 87ba bb3a 25a9 ea3a
000000f0: d8a7 fdba 1f24 2c3b 9fd2 9bb9 238f 28b9
00000100: 3bd9 58ba 9fd2 9bb9 8299 9fba 31d3 ee3a
00000110: 0851 79b9 9fd2 9bb9 8726 9b3a d7f7 003b
00000120: b06c 0aba 7d6d 28ba 0245 afb9 b06c 0aba
00000130: 1b2b 2c3a 0cad 6aba bb7a ddb9 b06c 0aba
00000140: d403 29bc 8cec 72ba a54d 673b 8957 79bb
00000150: 2106 2dbb a54d 673b 5560 3a3c fa47 f03b
00000160: ec0a 393b a54d 673b 15f0 893b deee c9bb
00000170: ad5e 3bbb 6565 8ebb 1546 84bb ad5e 3bbb
00000180: c172 29bc d2e5 37bc 55e5 15bb ad5e 3bbb
00000190: aeec 203c 53ee 5f3a 6697 f6ba f318 95bb
000001a0: f1a2 823a 6697 f6ba 57b2 babb e27b 08bc
000001b0: ea45 c5ba 6697 f6ba 1a59 b839 1d4e 363b
000001c0: f9e5 263a 974f 77ba e85b ff3a f9e5 263a
000001d0: a24f 84ba 686e 1c3b c784 053a f9e5 263a
000001e0: 90cf 2539 6468 5c3a 5581 223a 6d93 3a3b
000001f0: 910c 19bb 5581 223a 30e3 cb3b 2d7b 2fbb
00000200: 1101 023a 5581 223a 194a cb3a 8c13 94ba
00000210: 5e9f 1139 9c67 ad3a 6e0f d6ba 5e9f 1139
00000220: 677f 06bb 0066 c3ba dffe e838 5e9f 1139
00000230: 35ed de3a e924 ed3a 5ef6 5938 fab3 5c39
00000240: 7386 ed3a 5ef6 5938 27ef 113a 90d6 ceb8
00000250: d25e 2e38 5ef6 5938 be01 48bc 54b6 4cbb
00000260: 49ee 703b 3340 0cbb 0fcc bc3b 49ee 703b
00000270: 7b4b 1f3a 04f5 fb3b 9ebe 403b 49ee 703b
00000280: 7c74 8abb e304 a83a d345 903a 6ded e5ba
00000290: 600f 07bb d345 903a 9273 393a a35a 793a
000002a0: 23d6 663a d345 903a d433 1e3b ef85 d3ba
000002b0: ea56 8cba fa50 9239 d779 673b ea56 8cba
000002c0: d3b8 143b 62c7 443b 118b 60ba ea56 8cba
000002d0: 4eea 8fb9 5180 14bb 555f a63a 0467 503b
000002e0: 5aaf dfb9 555f a63a 55ff 053b 6301 91ba
000002f0: 1219 853a 555f a63a e7ef 8ebb 73eb 44bb
00000300: 75d6 a138 b113 6aba dd7b 66bb 75d6 a138
00000310: fd79 35ba b184 92bb 5d78 8138 75d6 a138
00000320: 941b 8fba cb50 4fbb d05c 34b5 8126 d1ba
00000330: 5d39 143a d05c 34b5 b0f5 c938 cacd 1a3b
00000340: 7d48 10b5 d05c 34b5 7ae7 91ba 4755 96bb
00000350: d1d9 e23a 9a21 8fba 0c6e 713b d1d9 e23a
00000360: 6143 9137 3bc0 b03b 137b b53a d1d9 e23a
00000370: d329 1c3c 3272 7c3a 4def 61bb 1f72 a3bb
00000380: d17e 44bb 4def 61bb bbf0 9fba eb83 adbc
00000390: 6ebf 34bb 4def 61bb f76a 113a fd6b 03ba
000003a0: 290e dc39 f9c5 09bb 370a 333b 290e dc39
000003b0: ec89 7b3a 13a2 dcba 530b b039 290e dc39
000003c0: ff35 5ebb f900 803b f4e4 033b 9c46 12bb
000003d0: 78c8 89bb f4e4 033b 9b32 b03b cf4e a73b
000003e0: eb07 d33a f4e4 033b 822b 5e3a 88b6 16ba
000003f0: 8e20 30b9 fbc8 e13a ab1c c139 8e20 30b9

exp_avg_sq f4 [64, 10]
0.0011982287 0.0005554145 9.206917e-05 0.0010905506 0.00048142485 9.206917e-05 0.0012419537 0.0014260102
5.892433e-05 9.206917e-05 0.0001973807 0.00018425405 2.5292115e-05 0.0002375204 0.00020047248 2.5292115e-05
0.00036111107 0.0003752172 1.6186917e-05 2.5292115e-05 0.00016753095 8.824723e-05 1.2669264e-05 0.00015136268
9.368262e-05 1.2669264e-05 0.00022748321 0.00016532547 8.108323e-06 1.2669264e-05 0.00012908239 8.014775e-05
1.10829415e-05 0.00012184354 9.168155e-05 1.10829415e-05 0.00021885303 0.00017671283 7.0930896e-06 1.10829415e-05
0.00068860553 0.0006863751 7.8292935e-05 0.0010370018 0.00054609997 7.8292935e-05 0.0013140828 0.0013544591
5.010756e-05 7.8292935e-05 0.004109679 0.0013641244 0.00031775402 0.00381735 0.0012969096 0.00031775402
0.0047933054 0.002271481 0.00020336229 0.00031775402 0.00011808623 9.9466466e-05 1.071308e-05 0.00015388566
8.56038e-05 1.071308e-05 0.00016538985 0.00018773704 6.856375e-06 1.071308e-05 0.001881603 0.00069903315
0.00010845026 0.001497225 0.00059656386 0.00010845026 0.0013446875 0.0011496153 6.940812e-05 0.00010845026
0.002310181 0.0008097881 0.0002923874 0.0019133453 0.000805298 0.0002923874 0.004487749 0.0035085788
0.00018712773 0.0002923874 0.003971555 0.0016053675 0.00046348068 0.0022706194 0.0018882956 0.00046348068
0.007737903 0.004433417 0.00029662752 0.00046348068 0.013404552 0.0036217542 0.0010416164 0.0077731623
0.004240107 0.0010416164 0.01686469 0.004976848 0.0006666344 0.0010416164 3.840937e-05 2.4411165e-05
4.1776884e-06 5.7361405e-05 2.8333496e-05 4.1776884e-06 8.6585635e-05 6.941601e-05 2.6737225e-06 4.1776884e-06
0.00506009 0.0011835888 0.00038783177 0.0023748989 0.0015737377 0.00038783177 0.005831599 0.002740129
0.00024821228 0.00038783177 0.00014739155 0.00015917506 1.8328596e-05 0.00015135303 0.00013037917 1.8328596e-05
0.0002589793 0.00025997648 1.1730299e-05 1.8328596e-05 0.00018472142 0.00011632818 1.7932447e-05 0.00015642213
0.00013393757 1.7932447e-05 0.0002888709 0.0001760597 1.1476775e-05 1.7932447e-05 0.0040293285 0.0013632041
0.00036047032 0.0031510373 0.0011864156 0.00036047032 0.005529801 0.0023762363 0.0002307012 0.00036047032
0.00083058997 0.00026712017 6.285075e-05 0.0004891906 0.00032399152 6.285075e-05 0.0010486275 0.0004142318
4.0224488e-05 6.285075e-05 7.300196e-05 5.4144246e-05 7.780187e-06 6.322894e-05 6.761172e-05 7.780187e-06
9.985365e-05 0.00013106709 4.9793243e-06 7.780187e-06 9.408331e-05 6.712371e-05 1.0368217e-05 8.122198e-05
7.39648e-05 1.0368217e-05 0.00015634403 9.0666275e-05 6.635662e-06 1.0368217e-05 0.0001956453 0.00011394681
1.50505375e-05 0.00018386022 8.108539e-05 1.50505375e-05 0.00020223798 0.00017268457 9.632332e-06 1.50505375e-05
0.0007358112 0.00029703675 4.4572927e-05 0.000699975 0.00024677668 4.4572927e-05 0.0006344077 0.0004094186
2.8526738e-05 4.4572927e-05 0.008751603 0.0033740068 0.0005486057 0.0078398185 0.002720878 0.0005486057
0.008135009 0.0054972563 0.00035110782 0.0005486057 0.022599114 0.00773541 0.0015901818 0.018576369
0.006359711 0.0015901818 0.024177024 0.010563399 0.001017715 0.0015901818 8.640268e-05 0.00010688995
1.134748e-05 0.000101079626 0.000117425414 1.134748e-05 0.00018011985 0.00013225741 7.2623843e-06 1.134748e-05
0.0013205309 0.0005243648 0.00012417846 0.00067993783 0.0005901757 0.00012417846 0.0017496716 0.0008435057
7.947428e-05 0.00012417846 8.291192e-05 8.150038e-05 9.922547e-06 0.000110098255 8.238782e-05 9.922547e-06
00000000: e20d 9d3a 3c99 113a 4215 c138 cef0 8e3a
00000010: c067 fc39 4215 c138 0dc9 a23a f6e8 ba3a
00000020: 8425 7738 4215 c138 faf7 4e39 5234 4139
00000030: 672a d437 e60e 7939 ec35 5239 672a d437
00000040: 8253 bd39 cdb8 c439 24c9 8737 672a d437
00000050: 3fab 2f39 5f11 b938 138e 5437 1cb7 1e39
00000060: 7977 c438 138e 5437 8f88 6e39 385b 2d39
00000070: fb08 0837 138e 5437 4a5a 0739 ff14 a838
00000080: dff0 3937 4186 ff38 2845 c038 dff0 3937
00000090: ea7b 6539 fd4b 3939 2d01 ee36 dff0 3937
000000a0: 8983 343a daed 333a 3331 a438 02ec 873a
000000b0: 2628 0f3a 3331 a438 4d3d ac3a 1b88 b13a
000000c0: 952a 5238 3331 a438 7caa 863b 6bcc b23a
000000d0: 3998 a639 812c 7a3b 11fd a93a 3998 a639
000000e0: 2911 9d3b 21dd 143b a63d 5539 3998 a639
000000f0: 10a5 f738 a798 d038 54bc 3337 5e5c 2139
00000100: 3186 b338 54bc 3337 806c 2d39 47db 4439
00000110: d00f e636 54bc 3337 1fa0 f63a 523f 373a
00000120: ca6f e338 893e c43a b962 1c3a ca6f e338
00000130: 3a40 b03a b0ae 963a 338f 9138 ca6f e338
00000140: 6866 173b f647 543a 934b 9939 37c9 fa3a
00000150: a21a 533a 934b 9939 f80d 933b 2ff0 653b
00000160: b837 4439 934b 9939 d123 823b 326b d23a
00000170: 53ff f239 acce 143b b080 f73a 53ff f239
00000180: 3c8e fd3b 3346 913b ac84 9b39 53ff f239
00000190: c49e 5b3c f45a 6d3b d986 883a 03b6 fe3b
000001a0: 98f0 8a3b d986 883a d227 8a3c d414 a33b
000001b0: 14c1 2e3a d986 883a bf19 2138 94c6 cc37
000001c0: 122e 8c36 5797 7038 b8ad ed37 122e 8c36
000001d0: 4f95 b538 7093 9138 346e 3336 122e 8c36
000001e0: 1dcf a53b a622 9b3a e655 cb39 31a4 1b3b
000001f0: e045 ce3a e655 cb39 ff16 bf3b bc93 333b
00000200: 7d22 8239 e655 cb39 1e8d 1a39 3be8 2639
00000210: 5cc0 9937 85b4 1e39 64b6 0839 5cc0 9937
00000220: 9dc7 8739 744d 8839 40cd 4437 5cc0 9937
00000230: c7b1 4139 37f5 f338 a36d 9637 3f05 2439
00000240: 9871 0c39 a36d 9637 9973 9739 aa9c 3839
00000250: 608c 4037 a36d 9637 7508 843b 8aad b23a
00000260: 82fd bc39 a281 4e3b 8081 9b3a 82fd bc39
00000270: 5533 b53b a1ba 1b3b 62e8 7139 82fd bc39
00000280: f3bb 593a 430c 8c39 bdce 8338 073d 003a
00000290: 68dd a939 bdce 8338 1a72 893a 402d d939
000002a0: b7b6 2838 bdce 8338 a118 9938 f118 6338
000002b0: a687 0237 c799 8438 c4ca 8d38 a687 0237
000002c0: 8568 d138 0e6f 0939 1214 a736 a687 0237
000002d0: 984e c538 c4c4 8c38 27f3 2d37 b855 aa38
000002e0: 8d1d 9b38 27f3 2d37 48f0 2339 1624 be38
000002f0: e7a7 de36 27f3 2d37 2326 4d39 baf6 ee38
00000300: 9181 7c37 9aca 4039 630c aa38 9181 7c37
00000310: d80f 5439 a912 3539 8d9a 2137 9181 7c37
00000320: 74e3 403a 99bb 9b39 d1f3 3a38 877e 373a
00000330: ce61 8139 d1f3 3a38 614e 263a 3ca7 d639
00000340: b44c ef37 d1f3 3a38 e262 0f3c 711e 5d3b
00000350: 4ed0 0f3a 9572 003c c250 323b 4ed0 0f3a
00000360: b348 053c 5422 b43b e514 b839 4ed0 0f3a
00000370: c721 b93c 5279 fd3b a66d d03a 782d 983c
00000380: 1f65 d03b a66d d03a e50e c63c 1b12 2d3c
00000390: d964 853a a66d d03a 1633 b538 1b2a e038
000003a0: 0e61 3e37 b6fa d338 4a42 f638 0e61 3e37
000003b0: 8ede 3c39 94ae 0a39 68af f336 0e61 3e37
000003c0: aa15 ad3a 8775 093a e735 0239 db3d 323a
000003d0: 05b6 1a3a e735 0239 3d55 e53a b61e 5d3a
000003e0: 6eab a638 e735 0239 00e1 ad38 2feb aa38
000003f0: 0479 2637 8de4 e638 a0c7 ac38 0479 2637

exp_avg f4 [64]
-5.2227006e-05 7.042122e-05 0.0006864212 0.00045648642 0.0011631349 0.0017903195 -0.00029720835 -0.00052804797
0.0035294082 -0.002859036 -0.0018813419 0.0006366665 0.0006199082 0.0001388764 5.196651e-05 0.0036763113
0.001100714 -0.0010707056 0.0012693205 7.7170334e-05 -6.720833e-07 0.0017307347 -0.0034474914 0.00041972203
0.002012548 -0.00016796775 -0.0014229564 0.0009188605 0.00094675034 -0.0012395886 -0.0031731303 -0.0014777264
0.0015167716 0.0041665556 -0.00025546228 0.00077115267 0.0049724374 0.000155061 0.0016526356 -0.00117783
0.0010316062 0.0021145863 0.00232951 0.00033282937 -0.0021476797 -9.787838e-05 8.847092e-05 -0.0006425679
0.00046963288 -5.453777e-05 -0.008196813 -0.00022756262 -0.004250283 -0.0009861743 0.00015542436 -0.0011605951
0.00026441464 -0.0002247448 0.0006485252 -0.0005816409 0.00030715036 -0.00016805844 -0.0014390299 -0.00038269846
00000000: 520e 5bb8 1baf 9338 f2f0 333a 9254 ef39
00000010: 5574 983a 27a9 ea3a a1d2 9bb9 b36c 0aba
00000020: a54d 673b aa5e 3bbb 5c97 f6ba f7e5 263a
00000030: 5681 223a 5a9f 1139 9df6 5938 45ee 703b
00000040: d545 903a eb56 8cba 545f a63a 82d6 a138
00000050: 3669 34b5 d2d9 e23a 4fef 61bb 230e dc39
00000060: f4e4 033b 8020 30b9 7e82 baba afdf 703a
00000070: 572f 783a b179 a2ba 4bf4 4fbb 45b0 c1ba
00000080: 69ce c63a 9a87 883b 91ef 85b9 2e27 4a3a
00000090: d4ef a23b df97 2239 409d d83a 6b61 9aba
000000a0: f636 873a df94 0a3b b1aa 183b 9a7f ae39
000000b0: 16c0 0cbb 0e44 cdb8 7789 b938 0072 28ba
000000c0: 0f39 f639 7cbf 64b8 ed4b 06bc e09d 6eb9
000000d0: f545 8bbb 8542 81ba 69f9 2239 1c1f 98ba
000000e0: 22a1 8a39 79a9 6bb9 ca01 2a3a 4379 18ba
000000f0: 0609 a139 d838 30b9 d59d bcba eba4 c8b9

exp_avg_sq f4 [64]
9.206916e-05 2.5292113e-05 1.2669265e-05 1.1082942e-05 7.829294e-05 0.00031775396 1.0713081e-05 0.00010845026
0.00029238747 0.0004634807 0.0010416164 4.1776884e-06 0.00038783182 1.8328592e-05 1.7932449e-05 0.0003604703
6.285074e-05 7.780187e-06 1.0368216e-05 1.50505375e-05 4.4572927e-05 0.0005486057 0.0015901818 1.134748e-05
0.00012417846 9.92255e-06 0.00028730376 9.884464e-06 0.0003830061 0.00024183202 0.0009687739 9.9709025e-05
4.3280368e-05 0.00076019595 1.8557945e-05 1.3883736e-05 0.0019682604 7.3703566e-05 3.542046e-05 2.2396442e-05
2.1665699e-05 3.4538974e-05 0.00011460114 0.00023156832 3.365954e-05 5.5763126e-06 2.9820638e-05 1.2795894e-05
3.7995058e-05 8.58286e-06 0.0038307817 1.5492647e-05 0.0011493046 9.187994e-06 0.00011064885 2.0984042e-05
1.352678e-05 1.26866735e-05 0.0002848297 3.389336e-05 1.2760414e-05 0.00013557689 2.185543e-05 2.7859247e-05
00000000: 4115 c138 662a d437 148e 5437 e0f0 3937
00000010: 3431 a438 3798 a639 55bc 3337 ca6f e338
00000020: 954b 9939 54ff f239 d986 883a 122e 8c36
00000030: e855 cb39 5ac0 9937 a46d 9637 81fd bc39
00000040: bcce 8338 a687 0237 26f3 2d37 9181 7c37
00000050: d1f3 3a38 4ed0 0f3a a66d d03a 0e61 3e37
00000060: e735 0239 0779 2637 42a1 9639 73d5 2537
00000070: 35ce c839 4a94 7d39 51f5 7d3a e01a d138
00000080: f187 3538 e347 473a e2ac 9b37 31ee 6837
00000090: eefd 003b 4d91 9a38 6e90 1438 fedf bb37
000000a0: bcbe b537 f1dd 1038 0556 f038 26d1 7239
000000b0: a82d 0d38 291c bb36 5527 fa37 f2ad 5637
000000c0: e25c 1f38 1aff 0f37 da0d 7b3b 35f6 8137
000000d0: 43a4 963a 2226 1a37 260c e838 e306 b037
000000e0: 14f1 6237 d9d8 5437 3255 9539 b828 0e38
000000f0: 9015 5637 a529 0e39 2e56 b737 47b3 e937

exp_avg f4 [64, 64]
-4.157816e-05 0.000106332554 0.00018363641 0.00018594871 -0.0005528217 6.402778e-05 -0.0007967498 0.00044829474
-0.0001803453 -0.00039237292 -4.7255195e-05 0.00023870569 -3.0960215e-05 1.4939135e-06 0.00011179233 -0.0006333753
0.00056251214 -5.498482e-06 -0.00017900828 0.00061023765 -0.00073921884 0.00037546636 -0.00050389353 -0.00016962182
-5.2733158e-05 -0.00058597035 -0.00055964343 -9.524263e-05 0.00034268756 -7.080723e-05 0.00032775957 6.130037e-05
-0.0005177949 -0.0007499102 -0.0005542929 2.189081e-06 9.797743e-05 -0.00058083906 -0.00010992097 -0.00037883493
0.00034231873 -0.00040410654 -0.000496074 -2.582735e-05 -0.00022151742 0.00013424439 -0.00020428175 -0.0004081948
-0.00018513665 2.6024976e-05 8.3089435e-05 -0.00046921318 -8.125879e-05 0.00018454557 -0.00075639813 0.00017682822
0.00012096048 -0.0003216382 -1.5090523e-05 -0.0002918889 2.878117e-05 -0.000467728 -0.0002564329 -0.00092374196
-0.00052579027 -0.00090050534 -0.0017051947 -0.0011846273 0.00012700494 -0.00053027115 -5.3616368e-05 6.8724294e-05
-0.0002927229 -2.5775087e-05 -0.0006765794 0.00013330078 -0.0015622346 0.0006563213 -0.00068989507 -0.0008402597
-0.00095327565 -4.8046757e-05 -3.2049138e-05 0.0011001112 -0.0010680306 -0.001000366 -0.0011291611 0.000100366036
-0.0010907267 7.994951e-05 0.00015938024 -7.079383e-05 -0.0015701144 -0.00023963772 -0.0007648071 -0.00091555726
0.00024502253 0.00020825892 0.00025007414 -0.00012243191 -0.0008638912 -1.2048496e-05 3.1925756e-05 -0.00022520097
-0.00053372915 -0.000764219 -0.00027963307 -0.0004594322 -0.00021723293 0.00014270585 8.424573e-05 1.6402286e-05
5.6805024e-05 1.2744465e-05 -0.0007174973 -0.0004130061 -0.0007893038 -0.00029259885 3.349607e-05 0.00039821086
-0.0011334645 -0.00036936108 -0.0011261719 -0.0004659034 0.00045517078 3.1334544e-05 -0.00033770467 -1.6603535e-05
0.0015570014 0.0005842399 0.0007495542 0.00088992354 0.0007513732 0.0023800812 -0.0005782686 0.001661235
0.0013310558 0.001677146 0.0020559798 0.00032286163 0.0011840663 -0.00019458168 -0.00042348632 0.0019297723
0.0021747097 0.0006767808 -0.0004981784 0.0021352433 0.0016369085 0.002249836 0.002682335 0.00036451584
0.0006284463 0.0013249008 0.004406175 0.0004840688 0.0029147898 0.0017685426 0.0021527205 0.0018374127
0.00084032264 0.0028094277 0.00065064995 0.0006809371 0.0025456469 0.0012649053 0.00042911357 0.0007349036
0.00055976375 0.002099502 0.0015201609 0.0015826256 0.0011045719 0.00021249475 -7.5876946e-05 -5.152014e-05
0.00017556152 0.000303886 0.0017664253 -0.0021145514 0.0020527518 0.0006685548 0.00025207875 -3.5806057e-05
0.00065469666 -0.00016926588 0.0025746778 0.00038119842 0.00055206614 0.0003508433 0.0011111676 -0.00019467132
-0.0011349202 -0.00019185369 -3.327456e-05 0.00014626789 -0.0037750495 -0.0014805178 -0.0025794073 -0.0014390921
0.00027881147 0.00022482954 -0.0019839918 4.566207e-08 -0.00032332254 -0.001061443 -0.000104412735 -0.0017781728
-0.00058247 -0.00088544335 -0.00022117487 -0.00028395542 -0.004419696 -0.00062995206 -0.001056159 -0.001107541
-0.0010723423 -0.0028762245 -0.0014742577 -0.00074852444 -0.0008762383 -0.0017177127 -0.0012095772 -0.001650205
-0.0012389374 -0.0041838507 -0.0028376663 -0.0010397298 -0.0008813135 -0.0021996577 -7.7293535e-06 -0.0031432621
1.133265e-05 -0.0022299227 -0.0015450761 -0.0015665697 -0.0011558944 6.8772724e-06 -0.00080880156 -0.00077234657
-0.0016906059 -0.00065736636 -0.00028862458 4.8693128e-05 -0.0012856858 -0.0014049759 -0.00391732 -9.0824265e-05
-0.00087134284 9.731155e-05 -0.00063230406 -0.0008716626 -0.00015312481 -0.0030701633 0.00014953439 -0.0026448085
00000000: 3664 2eb8 dbfe de38 868e 4039 3afb 4239
00000010: 3ceb 10ba a746 8638 f9dc 50ba 1a09 eb39
00000020: 131b 3db9 67b7 cdb9 e133 46b8 124d 7a39
00000030: 47db 01b8 7a82 c835 0d72 ea38 1909 26ba
00000040: 8d75 133a 9a7f b8b6 2bb4 3bb9 5bf8 1f3a
00000050: 23c8 41ba 3eda c439 b917 04ba 83dc 31b9
00000060: cc2d 5db8 ce9b 19ba 09b5 12ba ffbc c7b8
00000070: bfaa b339 587e 94b8 25d7 ab39 638e 8038
00000080: a1bc 07ba 9f95 44ba f84d 11ba 20e8 1236
00000090: 3b79 cd38 7343 18ba 5f85 e6b8 5d9e c6b9
000000a0: 3e79 b339 43de d3b9 f60a 02ba d0a7 d8b7
000000b0: 2147 68b9 f4c3 0c39 7734 56b9 fb02 d6b9
000000c0: 3e21 42b9 3650 da37 4d40 ae38 ba00 f6b9
000000d0: 7b69 aab8 9382 4139 0549 46ba f76a 3939
000000e0: 2aac fd38 8ca1 a8b9 4e2d 7db7 aa08 99b9
000000f0: 186f f137 6439 f5b9 d771 86b9 4627 72ba
00000100: 30d5 09ba e40f 6cba d780 dfba 7f45 9bba
00000110: a12c 0539 e501 0bba 23e2 60b8 1320 9038
00000120: 9a78 99b9 9437 d8b7 7a5c 31ba a8c6 0b39
00000130: e5c3 ccba fa0c 2c3a 13da 34ba e044 5cba
00000140: 3fe5 79ba d085 49b8 806c 06b8 9b31 903a
00000150: 29fd 8bba b71e 83ba 5c00 94ba 9b7b d238
00000160: b7f6 8eba 91aa a738 4f1f 2739 2677 94b8
00000170: 4ccc cdba 4347 7bb9 567d 48ba 0202 70ba
00000180: 5e76 8039 1460 5a39 621c 8339 1161 00b9
00000190: c276 62ba e523 4ab7 05e8 0538 ed23 6cb9
000001a0: f5e9 0bba de55 48ba b79b 92b9 f2df f0b9
000001b0: 05c9 63b9 4fa3 1539 15ad b038 a497 8937
000001c0: ee41 6e38 0fd1 5537 6e16 3cba be88 d8b9
000001d0: 48e9 4eba f467 99b9 227e 0c38 f5c6 d039
000001e0: c290 94ba cea6 c1b9 0f9c 93ba 7f44 f4b9
000001f0: fda3 ee39 366d 0338 f40d b1b9 d247 8bb7
00000200: 4c14 cc3a ad27 193a bb7d 443a c249 693a
00000210: cdf7 443a 23fb 1b3b f396 17ba ccbd d93a
00000220: d276 ae3a aed3 db3a 9ebd 063b c145 a939
00000230: ac32 9b3a 9f08 4cb9 5f07 deb9 6af0 fc3a
00000240: 9385 0e3b fe69 313a 3098 02ba 70ef 0b3b
00000250: 898d d63a fc71 133b 1dca 2f3b 7d1c bf39
00000260: 51be 243a 4ba8 ad3a ad61 903b 9dca fd39
00000270: 0f06 3f3b 71ce e73a a814 0d3b 57d5 f03a
00000280: 1949 5c3a 601e 383b 6190 2a3a ea80 323a
00000290: ded4 263b 2ecb a53a a6fa e039 8ca6 403a
000002a0: 1cbd 123a cc97 093b 2340 c73a 1a70 cf3a
000002b0: 48c7 903a 20d1 5e39 2020 9fb8 5417 58b8
000002c0: f016 3839 e352 9f39 6687 e73a 4994 0abb
000002d0: 7687 063b f441 2f3a 7029 8439 762e 16b8
000002e0: f39f 2b3a f77c 31b9 edbb 283b 96db c739
000002f0: 88b8 103a 64f1 b739 99a4 913a af20 4cb9
00000300: 9ac1 94ba 552c 49b9 4990 0bb8 7d5f 1939
00000310: d266 77bb ef0d c2ba 460b 29bb eb9f bcba
00000320: 712d 9239 38c0 6b39 dc05 02bb fa1d 4433
00000330: 9e83 a9b9 1e20 8bba 29f8 dab8 9411 e9ba
00000340: e6b0 18ba 191d 68ba 2deb 67b9 dadf 94b9
00000350: 19d3 90bb 5e23 25ba d16e 8aba e92a 91ba
00000360: d68d 8cba 0a7f 3cbb e13b c1ba a038 44ba
00000370: 5bb3 65ba e024 e1ba ad8a 9eba b14b d8ba
00000380: d763 a2ba af18 89bb 24f8 39bb 8b47 88ba
00000390: f307 67ba 2228 10bb 52ad 01b7 30ff 4dbb
000003a0: 5c21 3e37 e523 12bb 2784 caba 5b55 cdba
000003b0: 6181 97ba 52c3 e636 c105 54ba 4d77 4aba
000003c0: 5297 ddba 1c53 2cba 8952 97b9 d93b 4c38
000003d0: 7584 a8ba 2b27 b8ba dd5c 80bb e878 beb8
000003e0: d46a 64ba be13 cc38 35c1 25ba 4980 64ba
000003f0: 2190 20b9 cb34 49bb 55cc 1c39 8654 2dbb

exp_avg_sq f4 [64, 64]
1.179383e-07 5.4201223e-07 1.3557658e-06 1.6698864e-06 8.678145e-06 2.1307771e-06 2.8859008e-06 2.1713015e-06
2.3944885e-06 5.0021845e-06 1.1240367e-06 3.7345046e-07 3.119307e-07 8.5828454e-08 1.3755132e-06 1.3073701e-05
2.5251773e-06 7.767885e-10 5.529981e-07 2.8145248e-06 6.6607404e-06 2.6699925e-06 3.0380409e-06 1.2046016e-06
1.6730274e-06 2.873895e-06 6.0029606e-06 1.7547849e-07 3.930948e-06 3.4381003e-06 1.2851991e-06 2.3277632e-06
2.6574967e-06 7.2896155e-06 6.4725755e-06 4.7341713e-09 1.0363278e-06 2.104511e-06 1.4747768e-06 8.730655e-07
6.1395112e-06 2.0940292e-06 1.6351681e-06 4.4823864e-06 8.1569925e-07 3.1862604e-07 6.3364587e-07 1.1356414e-06
2.6537343e-06 6.5124034e-08 2.2090994e-06 3.9407823e-06 1.2481313e-06 3.2579538e-07 7.0626274e-06 9.991044e-07
2.8910856e-07 1.0358807e-06 7.58168e-07 1.793159e-06 3.4166422e-07 7.493329e-06 8.9215735e-07 5.726734e-06
1.9181814e-05 2.5243078e-05 5.5117776e-05 1.7230317e-05 2.2757642e-07 6.747158e-05 6.002542e-07 2.9448904e-05
1.7902953e-06 2.2148283e-06 8.494918e-06 1.2501396e-06 2.7037862e-05 1.0229982e-05 3.422646e-06 1.3418519e-05
9.414311e-05 5.573332e-07 1.9163538e-08 4.842493e-05 1.7785207e-05 3.085374e-05 3.1381645e-05 5.7447556e-07
2.01458e-05 1.2023535e-06 9.6189695e-05 3.1610583e-07 5.4660748e-05 2.4695977e-05 3.9920174e-05 2.1381897e-05
6.409834e-06 2.2097095e-06 1.4245198e-06 1.3315198e-06 3.4345954e-05 1.3255025e-08 4.5847057e-05 4.729913e-07
5.0769217e-05 2.256707e-05 4.183637e-07 6.221878e-06 2.4045581e-05 4.812874e-07 4.5182344e-07 4.018001e-08
3.0446736e-07 6.329994e-07 1.6227932e-05 5.864425e-07 9.466232e-06 1.2974233e-05 5.572165e-07 1.2904667e-05
4.240699e-05 3.5618943e-06 6.0136263e-05 1.7983913e-06 1.6846523e-05 1.3618736e-08 6.793168e-05 2.404092e-09
0.00033258324 2.1919253e-05 6.079733e-05 6.426618e-05 7.701971e-05 0.00040688468 7.825273e-05 0.000194866
0.0004782005 0.0005323233 0.00043647975 2.26302e-06 0.00036672282 5.902063e-06 1.7230004e-05 0.0005783941
0.0005026328 1.3267527e-05 3.9384944e-05 6.333438e-05 0.00059358997 0.00078550534 0.0008357921 8.037821e-06
0.00016494004 5.7459303e-05 0.0017758878 4.4275935e-06 0.0011670061 0.00022079762 0.00056135404 0.00036515453
4.224825e-05 0.0008178837 4.052124e-05 2.6046046e-06 0.0010588025 0.00011756277 0.00034743483 7.584932e-05
0.00022017599 0.00017285769 0.00017698601 0.0003299494 9.3375565e-05 1.1878072e-06 3.9535316e-06 1.4390795e-05
0.00013199657 2.942764e-06 0.0005013029 8.484558e-05 0.00044945866 1.128529e-05 8.2250524e-05 7.176526e-06
6.3023426e-06 6.1965497e-06 0.00070271885 5.418804e-05 9.602277e-06 7.0314396e-05 0.0004415984 6.7347006e-05
5.2004702e-06 3.7384987e-07 1.5240946e-07 7.245414e-07 7.941957e-05 6.3796133e-06 1.9656161e-05 2.0426796e-05
1.0893075e-06 3.1780255e-05 1.935408e-05 2.8221834e-08 4.433373e-07 8.312457e-06 5.52319e-07 4.2752672e-05
4.3433024e-06 1.4501509e-05 7.921858e-06 3.044292e-06 4.9970076e-05 2.2898969e-06 8.251824e-06 7.0296383e-06
8.800198e-06 0.00011045851 5.9597558e-05 2.086404e-05 2.5729037e-06 9.633792e-06 8.225191e-06 5.4721118e-06
2.5506179e-05 0.00013611525 8.053235e-05 7.647518e-06 5.040953e-06 3.4549008e-05 5.775879e-07 3.987663e-05
4.6665744e-07 2.4740317e-05 1.7322829e-05 1.0024769e-05 2.2381488e-05 7.112661e-07 2.0641854e-05 2.9472225e-05
1.9589246e-05 1.8443405e-05 4.5139123e-07 1.7038836e-06 1.6859012e-05 9.457007e-06 6.5870416e-05 2.5606545e-07
5.1814313e-06 3.826202e-07 2.3930702e-06 4.46804e-06 1.708712e-06 6.0060105e-05 2.4497972e-06 4.9588827e-05
00000000: 4445 fd33 cc7e 1135 c2f7 b535 dc20 e035
00000010: 5998 1137 79fe 0e36 66ab 4136 adb6 1136
00000020: 00b1 2036 70d8 a736 9bdd 9635 a47e c834
00000030: 6e77 a734 b150 b833 469e b835 1e57 5b37
00000040: 3776 2936 a285 5530 bd71 1435 2be1 3c36
00000050: 537f df36 1f2e 3336 25e1 4b36 ccad a135
00000060: c98c e035 24dd 4036 0a6d c936 296b 3c34
00000070: 96e6 8336 1dba 6636 1b7f ac35 ab36 1c36
00000080: 7257 3236 5299 f436 002f d936 36aa a231
00000090: f417 8b35 393b 0d36 f2f0 c535 9b5c 6a35
000000a0: 0002 ce36 2687 0c36 f377 db35 6867 9636
000000b0: 6df6 5a35 a10f ab34 d017 2a35 576c 9835
000000c0: cf16 3236 51da 8b33 0a40 1436 103b 8436
000000d0: 7785 a735 fae8 ae34 82fb ec36 f718 8635
000000e0: c736 9b34 9708 8b35 e984 4b35 79ac f035
000000f0: f96d b734 356f fb36 967c 6f35 4528 c036
00000100: a2e8 a037 19c1 d337 432e 6738 d389 9037
00000110: bb5b 7434 877f 8d38 2821 2135 0a09 f737
00000120: 144a f035 76a2 1436 6585 0e37 78ca a735
00000130: 5ecf e237 70a1 2b37 9cb0 6536 1a20 6137
00000140: b36e c538 a59b 1535 119d a432 df1b 4b38
00000150: 7131 9537 f368 0138 c99f 0338 a935 1a35
00000160: c7fe a837 8d60 a135 73b9 c938 41b5 a934
00000170: 8843 6538 352a cf37 f66f 2738 465d b337
00000180: 0e14 d736 854a 1436 2132 bf35 acb6 b235
00000190: b00e 1038 37b8 6332 e74b 4038 6eef fd34
000001a0: 08f1 5438 6a4e bd37 789b e034 86c5 d036
000001b0: 7eb5 c937 d131 0135 2492 f234 6392 2c33
000001c0: ad75 a334 63eb 2935 3821 8837 066c 1d35
000001d0: 28d1 1e37 e8ab 5937 a093 1535 1f81 5837
000001e0: 29de 3138 e108 6f36 d23a 7c38 4160 f135
000001f0: a251 8d37 d6f7 6932 8b76 8e38 3c35 2531
00000200: 915e ae39 3ddf b737 a300 7f38 a5c6 8638
00000210: a485 a138 2353 d539 9d1b a438 f254 4c39
00000220: fcb6 fa39 9d8b 0b3a 52d7 e439 63de 1736
00000230: b444 c039 560a c636 2789 9037 5f9f 173a
00000240: 1ec3 033a 9897 5e37 4331 2538 63d2 8438
00000250: 269b 1b3a 5fea 4d3a 0f19 5b3a 2eda 0637
00000260: c1f3 2c39 7500 7138 e8c4 e83a bd90 9436
00000270: 3af6 983a e985 6739 d527 133a 3672 bf39
00000280: b733 3138 3f67 563a 5af5 2938 c4ca 2e36
00000290: 84c7 8a3a 088c f638 ea27 b639 4b11 9f38
000002a0: 0bdf 6639 2241 3539 5295 3939 0ffd ac39
000002b0: a0d2 c338 bf6c 9f35 94a8 8436 fe6f 7137
000002c0: 8f68 0a39 4d7c 4536 de69 033a 20ef b138
000002d0: 52a5 eb39 f455 3d37 ea7d ac38 e4cd f036
000002e0: b678 d336 f5eb cf36 aa36 383a f747 6338
000002f0: 7719 2137 c175 9338 5586 e739 a63c 8d38
00000300: b37f ae36 89b5 c834 fea5 2334 1b7e 4235
00000310: 0f8e a638 7610 d636 49e3 a437 365a ab37
00000320: 5234 9235 ca4b 0538 925a a237 786c f232
00000330: d103 ee34 bb75 0b37 1343 1435 5551 3338
00000340: afbc 9136 824b 7337 1fe8 0437 8a4c 4c36
00000350: f696 5138 21ac 1936 5071 0a37 22e0 eb36
00000360: 90a4 1337 f6a5 e738 64f8 7938 2f05 af37
00000370: 26aa 2c36 d2a0 2137 edfe 0937 159d b736
00000380: 1af6 d537 29ba 0e39 7ae3 a838 d74d 0037
00000390: 7525 a936 b7e8 1038 8a0b 1b35 3541 2738
000003a0: e988 fa34 6d89 cf37 7e50 9137 0e30 2837
000003b0: e1bf bb37 d6ed 3e35 0b28 ad37 1f3b f737
000003c0: 9653 a437 e9b6 9a37 bd56 f234 ffb0 e435
000003d0: 746c 8d37 89a9 1e37 e923 8a38 5e79 8934
000003e0: 28dc ad36 eb6a cd34 a298 2036 2cec 9536
000003f0: e656 e535 0ce9 7b38 3267 2436 99fd 4f38

exp_avg f4 [64]
-6.046871e-05 -5.1873827e-05 0.00044877842 -0.0004718714 0.00052479346 7.366551e-05 6e-45 9.282426e-05
0.00029753873 -0.0013392415 -0.00045849613 -3.461217e-05 9.618789e-05 -0.002486882 -0.00011370047 0.0003194351
0.00027924034 6.6686975e-05 -0.00019579237 -0.0001674887 0.0005321067 -0.00023431765 -0.00022295037 -0.00023017002
-0.00034790472 -2.0679827e-05 -0.00014477021 0.0006272021 -0.0002663122 -8.512779e-05 -0.00012779854 0.0009277321
-0.00026068705 -0.0003451064 0.00068950094 0.0002757421 -0.00022278159 -0.00017733517 0.00019075294 5.019598e-05
-0.00025080296 -8.091707e-06 -0.0002129016 -0.00015985164 0.00042116304 -0.00024171572 0.00017264445 2.4839287e-06
-0.00020496319 -3.361406e-06 0.0005628731 0.0009642353 -0.0014438187 -0.00097218936 -0.0006216478 -0.00023808025
0.0001501359 3.9199113e-06 0.00017298954 -6.3192805e-05 -0.0008006648 6e-45 -9.72292e-05 -0.00017859084
00000000: c89f 7db8 1993 59b8 054a eb39 8265 f7b9
00000010: 4b92 093a df7c 9a38 0400 0000 a5aa c238
00000020: f9fe 9b39 7d89 afba 4f62 f0b9 892c 11b8
00000030: 7bb8 c938 f5fa 22bb 7a72 eeb8 da79 a739
00000040: 0167 9239 4cda 8b38 9d4d 4db9 e89f 2fb9
00000050: 137d 0b3a 2ab3 75b9 c9c7 69b9 cb59 71b9
00000060: fb66 b6b9 9779 adb7 75cd 17b9 d26a 243a
00000070: d29f 8bb9 a286 b2b8 a901 06b9 0c33 733a
00000080: d3ac 88b9 66ef b4b9 a0bf 343a 7a91 9039
00000090: 7a9a 69b9 0cf3 39b9 da04 4839 8689 5238
000000a0: 347e 83b9 9ec1 07b7 573e 5fb9 d99d 27b9
000000b0: 8ccf dc39 1275 7db9 e407 3539 92b1 2636
000000c0: 63eb 56b9 8494 61b6 c68d 133a bcc4 7c3a
000000d0: 843e bdba 86da 7eba 14f6 22ba 2ea5 79b9
000000e0: cc6d 1d39 c887 8336 8764 3539 6186 84b8
000000f0: b5e3 51ba 0400 0000 87e7 cbb8 1d44 3bb9
